seq2seq_model_01.pth (torch, 971287 bytes, 36 tensors)

encoder.embedding.weight f4 [31, 10]
000000 fc 69 49 3e fb 1e 36 bf 39 64 83 bf 21 06 9a bf
       0.19669336 -0.7114102 -1.026496 -1.203312
000010 6f fb 88 be 7d 38 6f bf 97 ba d1 3f 5f 39 8c bf
       -0.2675433 -0.9344557 1.6385068 -1.0955008
000020 29 7b d1 3f 84 7e 04 3f bd 77 8d 3e 24 c0 01 bf
       1.636571 0.5175555 0.27630416 -0.5068381
000030 25 6e a2 bf 0c 85 8c 3f d5 ec 40 3f 4f 84 1d bf
       -1.2689863 1.0978103 0.75361377 -0.6153001
000040 49 4e 88 3f 9f 45 7b bd 49 3d a7 bf 6d 66 77 3f
       1.0648891 -0.061345693 -1.3065578 0.96640664
000050 54 ac b1 be 49 15 28 bf 70 9d 0c bf 6c c2 2a 3e
       -0.34701788 -0.6565748 -0.5492773 0.16675729
000060 ac 75 f5 3e fa 14 b1 bf 3c 51 51 3f 95 44 f7 be
       0.4794134 -1.3834527 0.8176458 -0.4829451
000070 bd 28 02 3f 35 c4 a6 3f d4 86 aa 3f 98 29 fa be
       0.5084341 1.3028628 1.3322396 -0.4885986
000080 38 e1 59 3d 0e a5 8c 3f bf 13 75 bf 97 34 ae be
       0.0531933 1.0987871 -0.95733255 -0.34024498
000090 f9 7d 97 bf 49 26 de 3e 73 ce 51 bf 65 2c 93 be
       -1.1835319 0.43388584 -0.8195564 -0.28744808
0000a0 4e d9 89 3e 2f 31 26 c0 71 86 59 3f c5 bf c4 bf
       0.26923603 -2.596752 0.84970766 -1.5371023
0000b0 c9 5d 2d 3f 6f e8 0d 3d 05 4a 93 bf 0b 55 a8 bd
       0.6772123 0.034645494 -1.1506964 -0.08219346
0000c0 16 76 11 c0 49 ca 29 bf d6 6c 66 3f 83 66 f5 3d
       -2.2728324 -0.6632429 0.9000982 0.11982443
0000d0 90 8d 40 be ff d9 82 3f 4f 45 c6 bf a9 f5 57 40
       -0.18804002 1.0222777 -1.5489901 3.374369
0000e0 a8 f0 ee 3f 79 13 55 bf b2 11 17 40 60 c0 96 3f
       1.8667192 -0.8323284 2.360455 1.1777458
0000f0 f9 05 dd 3f 5d c6 17 be c1 0c 3f 40 6a 7c 8f bf
       1.7267448 -0.14821763 2.9851534 -1.1209843
000100 8b 97 96 bd 85 30 12 bf a6 bd f2 bf bf 5b 7c 3f
       -0.07353123 -0.57105285 -1.8964126 0.98577493
000110 d1 d2 6d 3f 6f 69 e3 3f 87 44 7b 3d fb eb 85 be
       0.92899805 1.7766551 0.06134465 -0.261566
000120 1d 6c e2 3e d6 00 93 bf 54 a8 e2 3f 0d e1 c9 3f
       0.4422311 -1.148463 1.770762 1.5771805
000130 11 d0 03 bf 11 ec d8 3f 86 07 fb bd 0d 87 23 40
       -0.5148936 1.6947042 -0.12257294 2.5551178
000140 bf ea 8d bf 03 e4 c4 3f 5c 9a 4c 3f 69 2c 88 3f
       -1.1087264 1.5382084 0.79923034 1.0638553
000150 cd e2 3d bf 5d 42 2e bf 2f 49 1f c0 00 49 f0 bf
       -0.74174196 -0.6807001 -2.4888418 -1.8772278
000160 d9 b4 31 c0 6d 54 ca bf 8e ab ad bf 8e 09 31 3f
       -2.776663 -1.5807015 -1.3567979 0.69155204
000170 8e c4 9f bd 79 45 6f bf 46 87 f4 bf 78 03 be be
       -0.07801162 -0.9346538 -1.9103782 -0.3711202
000180 eb 33 c7 be 06 27 10 3f f3 ee 75 3f 99 75 23 bf
       -0.38906798 0.56309545 0.9606773 -0.63851315
000190 35 35 a2 be a8 60 c5 bf a2 93 1c 3f 95 d6 9b 3f
       -0.3168122 -1.5420122 0.6116277 1.217486
0001a0 30 10 71 bf da 2b d4 be 6d 3d 95 3f 4e dc 35 3e
       -0.94165325 -0.41439706 1.1659371 0.17759821
0001b0 8b d4 34 3f d3 d2 1c 3d e7 65 1a 3d 81 fb f5 3e
       0.70636815 0.038286995 0.037694838 0.48043445
0001c0 55 ad 13 c0 74 3b 95 3f d1 3e 3c 3f d5 da 6f bf
       -2.3074543 1.1658769 0.7353335 -0.93693286
0001d0 5a 7b 9c be f0 42 03 be 08 9f 93 3f a9 4d d9 3f
       -0.3056286 -0.12818503 1.1532907 1.6976825
0001e0 9e 68 ad 3f 5d fe 2b 3e e7 05 ad bf 7d 50 3b 3f
       1.3547552 0.1679625 -1.3517426 0.7316969
0001f0 ef 6c 3f bf 21 5f 5c 3e aa ca a4 bf 3c 69 bc be
       -0.74775594 0.21520664 -1.2874348 -0.36799037
000200 83 90 2a 3e 4d 89 4c 40 81 5f 9f 3f a2 86 88 3d
       0.1665669 3.1958802 1.245102 0.06666304
000210 00 02 3e 3f a1 f5 91 be 20 9b f1 3e c5 52 ad 3f
       0.742218 -0.28507712 0.47188663 1.3540884
000220 5b 84 fc 3e bd f4 b4 bf 9d 8c 44 bf 80 83 96 3f
       0.4931973 -1.4137188 -0.7677706 1.1758881
000230 42 ba 7f 3f ea 43 8c be 0d 50 cf 3e 7d c6 c8 3f
       0.9989358 -0.27395564 0.4049076 1.5685574
000240 60 9b d4 3d ef 36 a0 3f 69 ce 36 3e ae 70 36 bf
       0.10381198 1.2516764 0.17852177 -0.71265686
000250 5e c4 14 bf 6f 14 1b 3f f5 25 0d 3f a2 83 97 3e
       -0.5811213 0.60578054 0.5513604 0.29592615
000260 5a 0d 42 bf 64 ee 0e 3f 64 7e 79 3f ab 90 9b 3f
       -0.7580162 0.55832505 0.9745848 1.2153524
000270 ce f0 fd 3e 6b dd 4c 3e c8 c4 25 be e9 d1 a1 3f
       0.49597782 0.20006339 -0.16188347 1.2642184
000280 38 61 af 3e fd 2d 63 bf 1f b1 8e 3f a3 f2 53 3f
       0.3425386 -0.8874205 1.1147803 0.8279211
000290 dd f3 2a bf cf 03 80 3f 01 2a 00 40 50 b5 b7 3d
       -0.66778356 1.0001162 2.0025637 0.089701295
0002a0 bb 82 8f bf 6c 8f 74 3f ef 9b a5 be 66 8a 38 bf
       -1.1211771 0.95531344 -0.3234553 -0.7208618
0002b0 2c e7 e8 bd a5 f6 9d 3f dd e6 10 be 60 34 64 bf
       -0.113722175 1.2340895 -0.14150567 -0.8914242
0002c0 db 7e 82 3f 60 c2 bf 3e 47 30 02 3f de 43 37 40
       1.0194963 0.37452984 0.50854915 2.8635173
0002d0 44 9e 4d bf e6 52 9a 3e 4e 72 9e be 01 c1 05 3f
       -0.8031962 0.3014137 -0.30946583 0.52247626
0002e0 ef 94 37 3f b1 35 15 3f 3d 0e 25 3e 2f c0 9f bf
       0.7171163 0.5828505 0.16118713 -1.2480525
0002f0 c7 59 29 3e b9 e3 b0 bf 7e 9c 44 be 82 6a 53 3f
       0.16538154 -1.3819495 -0.19200322 0.82584393
000300 94 ad 8d bf 98 da f9 3f 52 d7 5f bf 15 15 2c c0
       -1.1068597 1.9519835 -0.8743793 -2.6887867
000310 3a 7d 91 3f a7 ba 1b 3d 55 76 56 3e a0 5b 9f bf
       1.1366341 0.038019802 0.20943578 -1.2449837
000320 02 65 d4 be 00 b8 89 bf 26 64 21 3f 3e 52 99 be
       -0.41483313 -1.0759277 0.6304344 -0.29945558
000330 41 ee 9e 3f ad c2 ed bf 5e 8b 62 3f 48 1d 80 3f
       1.2416459 -1.8575035 0.8849391 1.0008936
000340 b4 02 9f 3d a5 0b 53 be 69 2c 4a 3f 3e 59 fe be
       0.077641875 -0.20609911 0.78974015 -0.4967746
000350 4c 1e 1a 40 fa 98 03 40 b1 70 27 3f 40 83 be 3e
       2.4080992 2.056212 0.6540633 0.3720951
000360 1d e2 a2 3f e9 83 31 40 51 33 90 bf 4f 81 4a 3c
       1.2725254 2.7736762 -1.126566 0.012359931
000370 24 43 45 bf e5 71 59 40 92 70 fa 3e 82 21 61 3f
       -0.77055573 3.3975766 0.4891401 0.87941754
000380 cf 4b 73 3f ec 48 ac 3f a0 4c 80 3e 02 e9 dd 3d
       0.9503755 1.3459754 0.2505846 0.10835458
000390 54 cd 12 3f 0b 49 14 40 1d 7a 4a bf 32 bd c5 3f
       0.57344556 2.3169582 -0.7909258 1.5448363
0003a0 dd bc ff bf 80 06 28 c0 ee de 11 c0 5e 31 97 bf
       -1.9979511 -2.6253967 -2.2792315 -1.1811941
0003b0 b2 fd 89 bd d3 1f a0 bf e0 6a 27 bf 59 b1 d4 3e
       -0.06737842 -1.2509712 -0.65397453 0.41541556
0003c0 62 d5 e1 bf ab c2 c9 bf 68 f0 e6 bf ef 82 10 c0
       -1.7643244 -1.5762533 -1.8042116 -2.2579916
0003d0 65 e7 81 3f 8a ea 6c 3f cf 68 f9 bf 9c d7 25 40
       1.0148741 0.9254538 -1.948511 2.5912848
0003e0 5e 86 11 bc 07 96 f0 3f a6 8f fd bf 29 9c ec 3f
       -0.008882133 1.8795785 -1.9809463 1.8485156
0003f0 8e 8a f0 bf 5c eb da bf 96 9d 77 bc 10 b9 97 3e
       -1.8792284 -1.7103076 -0.015113255 0.2963338

encoder.lstm.weight_ih_l0 f4 [256, 10]
000000 44 c7 08 bf f4 1c 0e 3f 94 ce 84 be 53 d2 91 3d
       -0.53429055 0.5551293 -0.25938857 0.07120194
000010 62 df 0e 3f 9d 8a d0 be 67 9e c0 be 29 d6 9c 3e
       0.55809605 -0.40730754 -0.3762085 0.3063214
000020 0f 01 91 3e 87 3f 55 3e 54 13 14 3f 5e 4c 0e 3e
       0.2832112 0.20825015 0.5784199 0.1389632
000030 09 80 59 bd c0 26 55 be f1 b1 a6 be ae 55 46 bf
       -0.05310062 -0.20815563 -0.32557634 -0.77474487
000040 9f 4d 51 3e f8 48 10 3d 16 0c 85 be b6 c7 5a be
       0.20439766 0.03522584 -0.25985783 -0.21365246
000050 3d 36 bb bd 52 1c b8 3e 3d 48 d1 3d 50 34 a0 bd
       -0.091412045 0.35959107 0.102188565 -0.07822478
000060 9f f8 88 bc 47 11 fe be ce f5 6a bf be 82 71 be
       -0.016720114 -0.49622557 -0.9178132 -0.2358503
000070 42 aa b0 be e6 fe 35 be e4 fc 2c bf 73 52 af bc
       -0.34504896 -0.17773017 -0.6757338 -0.02140162
000080 54 b5 b1 bc 76 c8 2f 3f da 23 32 3f c1 78 ce bd
       -0.02169291 0.68665254 0.69585955 -0.10081626
000090 69 ab 0b 3e 51 31 96 3f 33 ed e4 3d 70 d7 2e be
       0.13639607 1.17338 0.11178055 -0.1707437
0000a0 c4 ae 35 bd d6 29 a7 3e 75 1e e2 be 4c c3 06 bf
       -0.044356123 0.32649106 -0.44163862 -0.5264175
0000b0 2a 90 b2 3e fb 56 d1 3d 19 00 16 3d ec 73 fa 3e
       0.34875613 0.10221668 0.036621187 0.48916566
0000c0 47 65 25 3e 01 4f b3 be ac 4f b8 be 31 86 08 3e
       0.16151915 -0.35021213 -0.35998285 0.1333244
0000d0 86 de 12 3f f3 34 3d 3f 24 4a 1a be 7d 55 8c 3e
       0.57370794 0.7390892 -0.15067345 0.27408972
0000e0 0f d9 80 be f4 c9 c4 3e a6 20 3a be 03 1e 44 be
       -0.25165603 0.38435328 -0.18176517 -0.19152074
0000f0 61 ff 5b 3e c1 58 5f be 52 ae 4d 3e d1 fc f1 3e
       0.21484138 -0.218112 0.20086029 0.47263196
000100 75 79 d1 be 5e a3 a2 3d 65 a9 03 3f ed 64 3c 3f
       -0.40912977 0.07941316 0.5143035 0.735915
000110 27 28 5e 3f 87 37 60 3e 75 54 cd 3d 45 bb 3e bf
       0.8678002 0.21896182 0.100258745 -0.745045
000120 60 9d 9f be ea b3 f4 be e5 4a 84 3e 95 b8 cd be
       -0.31174755 -0.47793514 0.2583839 -0.40179887
000130 04 74 e0 be 86 26 d2 bb fc de 41 3e 97 74 35 3e
       -0.43838513 -0.0064132838 0.18932718 0.17720257
000140 a5 c3 27 bf ee fd 00 3f 76 3e 07 bb 1b 4a 05 be
       -0.65532905 0.50387466 -0.0020636595 -0.1301655
000150 d3 4e ae be df d8 53 bf 7f 84 dd be 8f a3 b3 3d
       -0.34044513 -0.82752794 -0.4326515 0.08771431
000160 bd af 27 bf 62 08 9e bf 5b 83 07 be 7d 4b 8d be
       -0.6550253 -1.2346308 -0.13233702 -0.27596655
000170 35 b8 15 bc 2c 6c ba 3e 71 96 56 be a2 53 a8 be
       -0.009138157 0.36410654 -0.20955826 -0.32876307
000180 76 5a 76 bc 33 82 67 3c c0 69 4f be 40 6e 3a bf
       -0.015036216 0.014130163 -0.20255184 -0.7282448
000190 aa a1 c6 bc b7 3b e9 bd 26 78 25 be 2a e4 0c bf
       -0.02424701 -0.11388343 -0.16159114 -0.5503565
0001a0 c2 a2 9b 3d d1 5d 58 be e4 6b 18 3f 10 00 a5 be
       0.07599403 -0.21129538 0.5953963 -0.3222661
0001b0 68 f9 db 3c 06 97 07 bf a5 0d 93 bf a3 fb 28 3d
       0.026852325 -0.5296482 -1.1488539 0.041255604
0001c0 a1 57 00 3e bd 14 87 bf 28 63 7a 3c 90 f3 f9 be
       0.12533428 -1.0553204 0.01528243 -0.48818636
0001d0 64 7a d0 be 73 99 f0 3d 5e 53 0b bf 96 24 3c bf
       -0.40718377 0.11748018 -0.54424083 -0.73493326
0001e0 80 e5 15 bf 0e 7c 85 bf d0 d5 7d be b6 3a b4 bf
       -0.58553314 -1.0428483 -0.24788594 -1.4080417
0001f0 5e 1d 8e be 59 01 42 bf 10 14 84 3e d5 40 3d bd
       -0.2775678 -0.75783306 0.25796556 -0.046204407
000200 11 95 a8 bb 4e 0f f6 be 2f 91 01 bf 18 51 09 bf
       -0.005144723 -0.48058552 -0.5061216 -0.53639364
000210 5d f0 55 3f 8f e4 5d bf a7 1c e0 3e cd 09 a2 be
       0.8356989 -0.8667688 0.4377186 -0.31648102
000220 ee 1d 9c bf 4f 3e cd 3e 20 aa 99 bf 2f f0 f5 be
       -1.2196634 0.400866 -1.2005043 -0.48034808
000230 19 0d 2c 3e 97 d9 15 be f0 1b 99 3e ec a7 17 3e
       0.16801871 -0.14633785 0.29904127 0.14810151
000240 6e f1 85 bd c3 b9 9f be 89 92 b7 3e 84 5f 34 be
       -0.0654019 -0.31196412 0.35853985 -0.17614561
000250 2d 03 3f 3e 45 0c 1b bf 30 93 64 bb 73 d1 dd 3e
       0.18653555 -0.60565597 -0.003487777 0.4332386
000260 a8 d6 17 3d a9 b0 c1 bc af 13 25 bf ad 2a 0d bf
       0.037069947 -0.023643808 -0.6448316 -0.55143243
000270 d5 6c f7 bd 79 22 e5 be 87 dd 1e bf 89 15 b9 bf
       -0.12081305 -0.44752863 -0.62056774 -1.4459697
000280 56 a6 bb 3e 5d 06 1a 3f fe 58 c6 bd d2 83 a1 3e
       0.36650342 0.6016596 -0.09684943 0.31545883
000290 61 c7 73 be e5 32 b5 3c 06 7e 2a be 0d 3f f7 bd
       -0.23806526 0.022118995 -0.16649637 -0.12072573
0002a0 70 5b 84 be f8 59 e6 3b 26 db e2 3e ef 07 ab 3d
       -0.2585101 0.007029768 0.44307822 0.083511226
0002b0 3b 46 0c 3f 33 19 4a bf e5 96 34 bf bb 60 27 bf
       0.54794663 -0.789447 -0.70542747 -0.65381974
0002c0 a6 10 0d bf 9f 82 c2 be 78 6e cc be 11 61 4e bf
       -0.5510353 -0.3799028 -0.3992803 -0.8061686
0002d0 18 9f 2d be f7 d3 92 3e ee 08 b9 bc 3e a2 8a 3f
       -0.1695522 0.2867734 -0.022587266 1.0830762
0002e0 d2 2e 82 be 0f 38 d4 be 7f 05 17 be 0c a5 94 bb
       -0.25426346 -0.4144902 -0.1474819 -0.0045362767
0002f0 77 85 9e be 16 aa 16 bf fa a0 db be 97 fc c5 be
       -0.309612 -0.5885328 -0.42896253 -0.38669273
000300 29 4c 1f 3e 6b d3 0f 3f 11 21 b9 3c 48 0d 02 bd
       0.15556397 0.56181973 0.022598775 -0.031750947
000310 95 ae 60 3e ae 0a 91 3f 8b 5d 75 be 94 65 3c bf
       0.21941598 1.1331384 -0.23961465 -0.73592496
000320 29 e5 3c bf 9e 89 d6 3e b3 a1 46 bf 2c 6c 3e 3f
       -0.7378717 0.4190187 -0.77590483 0.7438381
000330 75 28 64 3f 45 f8 5b bd 3b 10 5e 3d 0e 5a bb 3e
       0.8912423 -0.053703565 0.054214697 0.36592144
000340 c3 23 a8 3d b6 b4 0a bf 92 2f 35 3f dc 1c 28 3e
       0.08209946 -0.54181993 0.7077571 0.16417259
000350 79 75 91 3e cd 17 1c 3e 63 48 06 3f 2f 63 af 3e
       0.28409937 0.15243454 0.52454203 0.3425536
000360 e0 73 69 3e cc e1 3f 3f ff e7 87 be c1 02 2f 3d
       0.22798109 0.74953914 -0.26544186 0.042727236
000370 d6 80 56 3e 7f 88 65 3f 6e b9 3b bf b3 13 09 3f
       0.20947585 0.896614 -0.7332982 0.53545684
000380 84 c5 c6 be 54 e5 5d bf 6c 4b fe 3e eb f3 06 3e
       -0.38822567 -0.8667805 0.49666917 0.13178985
000390 32 dd 5b be f5 a1 ea be e3 f2 47 3d 83 0a a6 be
       -0.21471098 -0.45826688 0.04881562 -0.32429895
0003a0 0b 3d e2 3e 14 57 81 3e 41 a6 3e 3e 7c cc 95 3e
       0.44187197 0.25261748 0.18618108 0.29257572
0003b0 0c 41 66 be 7a 57 e1 3e ba 6f a5 3d fd 50 c3 3e
       -0.22485751 0.44012052 0.08077951 0.38147727
0003c0 8c f1 03 bf cf ba 37 3f d6 b6 71 be 8d 50 cc be
       -0.51540446 0.7176942 -0.23604903 -0.39905205
0003d0 5b 3e af 3f e0 12 71 3f 31 80 a4 3c e7 be e2 3e
       1.3690904 0.94169426 0.020080658 0.44286272
0003e0 fa b7 c6 3d 12 74 70 3f b0 cf de bc ba f8 32 be
       0.097030595 0.9392711 -0.027198642 -0.17477694
0003f0 7a 34 c5 be 8d a4 20 bf 3f b4 f4 be 62 a2 4d 3d
       -0.385166 -0.62751085 -0.47793767 0.05020369

encoder.lstm.weight_hh_l0 f4 [256, 64]
000000 87 ff 15 be cd 21 52 3d a6 db 0d 3f 96 22 1f bf
       -0.14648257 0.051301766 0.5541328 -0.6216215
000010 99 36 30 be 99 9d 9d bc 36 b6 e9 be 9a 6d 04 bf
       -0.17208327 -0.019240187 -0.45646828 -0.5172974
000020 e8 85 55 3f 09 0a e2 3e 54 ca d9 bd f5 22 4c 3d
       0.8340745 0.4414828 -0.10634294 0.049838025
000030 dd 90 0c bf 28 a4 2d be b1 40 2f be ef e6 b1 3e
       -0.54908544 -0.16957152 -0.17114522 0.347465
000040 92 43 8b 3f cd ee 37 bd d4 76 45 be f4 af 3a 3d
       1.0879996 -0.044905473 -0.1928361 0.04557796
000050 b6 e9 aa be 69 78 f6 3e 6d 5c 78 3e b2 79 06 3f
       -0.33381432 0.4813874 0.24254008 0.5252944
000060 10 52 0e 3f 53 0c f0 be 66 92 6d bf 58 3c 48 3f
       0.5559397 -0.46884403 -0.9280151 0.7821708
000070 be 14 d0 be 61 e1 e2 3d 90 55 5a be f8 c7 5a 3e
       -0.40640825 0.11078144 -0.21321702 0.21365345
000080 fa 06 88 bd c4 ea 8d 3e 54 14 96 3e cb 28 d7 3c
       -0.06641956 0.27718174 0.29312384 0.026264569
000090 db 16 e1 bd 04 06 27 3e d1 24 0d bf c9 c3 96 be
       -0.109906875 0.16310889 -0.551343 -0.29446247
0000a0 50 75 a2 be 1d e2 58 3e 6f a3 a7 3d 9f c9 a6 3c
       -0.31730127 0.21180005 0.08185469 0.020359812
0000b0 38 a7 9f be b7 44 81 3e fd 25 51 3e 34 04 59 be
       -0.31182265 0.25247738 0.20424648 -0.2119301
0000c0 e1 f2 ea be 8a d4 61 bf f1 2e a6 3d 3c b0 b1 3f
       -0.45888427 -0.88214934 0.08114422 1.3881907
0000d0 5a b5 3a 3e 1c ae cc be 17 21 05 3f 88 4f 4f be
       0.18233243 -0.39976585 0.52003616 -0.20245183
0000e0 6f f2 e1 3e c0 6e f5 3e 3d 24 92 bb c4 13 a3 3e
       0.44130275 0.47936058 -0.0044598863 0.31851017
0000f0 44 aa df be b9 ea 1a 3e 49 4b 58 bf a5 e4 41 3f
       -0.4368459 0.15128602 -0.84489876 0.7573951
000100 2b b1 13 bf b0 c6 22 be 72 36 16 3f f1 d7 38 bf
       -0.5769221 -0.15896106 0.58676827 -0.722045
000110 7b 68 5f 3d ef f7 04 3f cc c9 92 be d8 8b 2e 3f
       0.054543 0.51940817 -0.28669584 0.68182135
000120 f4 bc f6 3e a3 dd d8 3e c0 e0 1c be 87 d7 94 bd
       0.48191035 0.42356595 -0.1532011 -0.07267671
000130 de 23 ba 3e 4c 5b 1a 3f 66 c2 ec 3e f8 9d 29 bf
       0.3635549 0.6029556 0.46242064 -0.66256666
000140 8c c7 8f 3e 20 db f5 3e 51 91 81 bf 25 f0 74 be
       0.2808193 0.48018742 -1.0122472 -0.23919733
000150 f5 40 9f be 0e 3e 6a 3d 28 9d 9c bc 3f 60 41 3f
       -0.31104246 0.057188086 -0.019117907 0.75537485
000160 2c b4 4b be 83 c2 c4 be 86 75 74 3e 7c e3 e7 3e
       -0.19892949 -0.3842965 0.23872957 0.45290744
000170 24 f4 1e be 10 66 b6 3d 94 89 05 3f 37 21 cb 3e
       -0.1552282 0.089061856 0.5216305 0.39673778
000180 ec 9c 68 3d 9c 5d bf be 81 5e d4 be 7e 53 c3 be
       0.056790277 -0.37376106 -0.4147835 -0.38149637
000190 80 bf 03 3f a0 41 82 3e e8 d7 57 bf 3f 97 89 3e
       0.5146408 0.25440693 -0.8431382 0.26873204
0001a0 ac 49 18 bf 98 64 19 bc 6b 54 3b bf f0 e6 17 be
       -0.59487414 -0.009362362 -0.73175687 -0.1483419
0001b0 a0 66 8b be 5d 2a 27 3f ae 60 2e 3f d4 ee 70 3e
       -0.27226734 0.65299016 0.6811627 0.23528606
0001c0 71 66 5f 3f 8b 01 8d 3e 9f 0a 82 bf dd 17 2c 3f
       0.8726569 0.2754024 -1.0159491 0.6722391
0001d0 85 86 8c 3e 04 3c e9 3e 6d 5d 9e 3e 36 be 15 3f
       0.2744638 0.455536 0.30930653 0.58493364
0001e0 09 1d 7f be 74 f4 54 bf 3c 68 6f 3e 1b f4 3e 3f
       -0.2491342 -0.83185506 0.23379606 0.74591225
0001f0 12 6e 94 bf ab 28 98 be 2d de ef be 34 7b 9f 3f
       -1.1596091 -0.29718527 -0.46849194 1.2459474
000200 62 b5 87 be 8f 3e 39 3f ac b9 f7 3e 46 37 b5 3e
       -0.26505572 0.7236108 0.48383844 0.35393733
000210 39 80 92 be 45 d5 fc be aa 7f 16 3f 58 ef 65 be
       -0.2861345 -0.49381462 0.5878855 -0.22454584
000220 22 3b a6 3e 1b 5c ab 3e 20 37 55 be ee 88 5e be
       0.3246699 0.33468708 -0.2082181 -0.21731922
000230 b1 9d a7 3e 72 1e a8 be ce 0a 10 bf 8d 92 96 3d
       0.32737496 -0.32835728 -0.56266487 0.07352171
000240 96 d4 6c 3d 88 bd 85 3e 96 ad 6e bf 10 bd 81 bf
       0.057819925 0.26121163 -0.9323362 -1.0135822
000250 d0 c8 84 3f a9 9f c3 be a9 57 9a be f8 24 85 be
       1.0373783 -0.3820775 -0.30145004 -0.26004767
000260 47 34 84 be 16 5f 21 bf 40 ce 82 3f f8 e3 f8 3d
       -0.25821134 -0.63035715 1.0219193 0.121528566
000270 b8 52 6d 3e 81 ba c0 bd 36 c4 84 3e c0 b2 f1 be
       0.23176086 -0.09410573 0.25930947 -0.47206688
000280 a8 ac cf ba 8d 30 28 3f 61 36 21 be c6 03 d2 bd
       -0.0015844302 0.6569908 -0.157434 -0.10254626
000290 db d6 42 3e 86 39 7c bf e0 a0 dd 3d d9 d7 9d 3e
       0.19027273 -0.98525274 0.108217 0.3082874
0002a0 5b 2d 75 3e 40 11 76 be 58 cc 0e be 19 15 c7 bd
       0.23943083 -0.24030018 -0.13945138 -0.09720821
0002b0 59 f5 8e 3e 75 90 7b 3f 1a 37 6c be ca ce 30 3f
       0.2792156 0.982673 -0.23067895 0.69065535
0002c0 3a 71 27 be ed a9 ed 3d 48 2e 2a bf 81 c1 b8 3e
       -0.16351786 0.116046764 -0.6647687 0.36085132
0002d0 58 79 8f be 2f 7e 8d be bd 72 21 3f a5 a0 70 be
       -0.28022265 -0.27635333 0.630657 -0.23498781
0002e0 b0 c8 10 3e c3 2e 6d 3f d6 3f 8f 3e 55 ad cd 3e
       0.14139056 0.9264948 0.2797839 0.40171304
0002f0 38 79 3d be f7 9d 97 3e dc c1 73 3e fb 18 0c be
       -0.18503273 0.29612705 0.2380442 -0.13681404
000300 54 e2 13 3e d5 47 07 3f f6 7b 3d bf 43 7a 2b be
       0.14441806 0.5284398 -0.74017274 -0.16745858
000310 22 02 34 be bf 69 fe be 9c 29 b0 bd 75 61 5d 3f
       -0.17578939 -0.49690053 -0.08601686 0.8647683
000320 87 f0 89 3e 30 2d 36 3e 25 f1 09 3d ed 18 9a 3e
       0.2694132 0.17790675 0.03367724 0.30097142
000330 ba 7e 4f be cc 9e 72 be b5 8d 4e 3d 0e 2a 32 be
       -0.20263186 -0.23693389 0.05042811 -0.17398855
000340 37 eb 58 be 64 80 87 bd 33 c2 40 3e 97 a7 67 be
       -0.21183477 -0.066162854 0.18824081 -0.22622524
000350 b0 aa 73 3e a8 ff 0f bf 29 40 a6 3f 3f 17 88 3e
       0.23795581 -0.56249475 1.298833 0.26580235
000360 57 c7 fd be d8 1d 4d 3e 75 e4 41 3e ba 7a a0 be
       -0.49566147 0.20030916 0.18934806 -0.31343633
000370 7a 1b 3c 3e 58 8b 70 3e c7 c4 56 3e 3a c2 90 3f
       0.18369856 0.23490655 0.20973502 1.1309273
000380 ca 13 7c 3f 1a 9b 57 be 93 8b e9 be b1 3e 11 3f
       0.98467696 -0.2105526 -0.456143 0.56736284
000390 f6 15 53 3f 43 ad 37 be 95 c3 c3 3e bb 25 81 3f
       0.82455385 -0.17937188 0.38235155 1.008964
0003a0 1c c5 e4 bd 33 35 47 3e 2e 3c 1d 3f 4c 26 5d be
       -0.11170408 0.19453888 0.6141995 -0.2159664
0003b0 62 07 d7 bd 46 a9 34 be d5 7f 12 3f e6 34 ef 3e
       -0.10499455 -0.17642698 0.57226306 0.46720046
0003c0 b3 d0 9c 3e 30 2c 23 3f 5b 0d 27 be 02 54 0d be
       0.30627975 0.637393 -0.16313688 -0.13801578
0003d0 83 ef e6 be fd db 85 3f 59 86 11 bf a4 54 da 3c
       -0.45104608 1.045776 -0.56845623 0.026651688
0003e0 3a 73 ec 3d 12 46 20 3f 35 41 3e bd 2b 47 bf be
       0.11545415 0.6260692 -0.046448905 -0.37358984
0003f0 cd 25 ba 3e 09 d4 86 3e 55 78 db bd 48 80 d1 3e
       0.36356965 0.26333645 -0.10716311 0.40918183

encoder.lstm.bias_ih_l0 f4 [256]
000000 07 d5 0f bf d7 d5 c9 bd 0b dc 11 be 42 3c 39 bd
       -0.5618443 -0.0985524 -0.14244096 -0.045223482
000010 56 8a 56 3e 83 78 da bd 38 b3 b5 bc 9a 7e 85 bd
       0.20951208 -0.10667517 -0.022180185 -0.06518288
000020 8a 40 de be 8a 43 1f 3f 98 80 ee be a3 fc 5e bf
       -0.43408614 0.6221243 -0.46582484 -0.87104243
000030 2e c0 2f be c4 dc d9 be 33 96 33 3c 4a eb a9 be
       -0.17163154 -0.42551243 0.010961103 -0.33187324
000040 ca b2 9d 3e 81 ac 2c be 36 62 b5 3e eb 1e 2f be
       0.30800468 -0.1686268 0.35426491 -0.17101638
000050 59 76 68 bd ee 50 e1 be 68 8c a9 3e e9 8a a0 bd
       -0.05675349 -0.44007057 0.33114934 -0.07838995
000060 f6 86 72 3f a2 57 9a 3d 4f 1b 61 bd ba 31 68 3c
       0.94737184 0.07536246 -0.054957684 0.014172012
000070 f3 38 d6 3d 2b 2e 7c 3d e5 91 2b 3d 92 f2 ff 3e
       0.10460081 0.061567467 0.041887183 0.49989754
000080 5e 52 99 be 12 d2 31 be 51 01 c1 be 15 c2 1d 3f
       -0.29945654 -0.17365292 -0.37696317 0.6162427
000090 ca 56 ba be bc 99 1a 3e 9b 3c 7c 3e f8 af d0 be
       -0.3639434 0.15097708 0.24632494 -0.40759254
0000a0 05 d3 fb be 3a c4 f3 3c f6 b9 e5 3d 69 61 68 3f
       -0.49184433 0.029756654 0.1121711 0.90773636
0000b0 18 46 d8 bd 1f 25 be 3d 5c 87 ff bd 6d 45 06 bf
       -0.10560244 0.09284424 -0.124769896 -0.52449685
0000c0 98 75 01 3f dd 9d fa bd 62 94 3f 3d 5f 53 04 bf
       0.5057006 -0.12237141 0.04677237 -0.51689714
0000d0 c1 85 1d bd d3 98 a3 3e d3 ed bc be 33 bf 83 be
       -0.038457636 0.31952533 -0.36900195 -0.2573181
0000e0 2b 9a 02 bf d3 ff ca 3d 07 c7 19 3e ba da 80 be
       -0.5101649 0.09912076 0.15017329 -0.25166875
0000f0 b9 cf 15 3f 2d 7d d5 be 96 c7 39 bf d3 75 72 bd
       0.58520085 -0.41697064 -0.7257017 -0.059194397
000100 ff 3b e3 3d 17 ed cd be 72 2e 57 3f a9 1b 70 be
       0.11095428 -0.40219948 0.84055245 -0.23448052
000110 3c 2a 18 3e a6 fd 26 bd 9b 43 65 3e 60 ee 0d 3e
       0.14859861 -0.04076924 0.2238907 0.13860464
000120 15 78 0d 3f a0 f6 90 3e c6 24 69 3f 13 80 cf 3e
       0.55261356 0.2831316 0.91071737 0.405274
000130 b8 d8 fa 3d f3 2b da 3e b0 3b 14 3d 55 4c 13 3f
       0.12248367 0.42611656 0.036189735 0.5753835
000140 5e 08 25 3f 4d f5 a9 3e 60 9e 84 3e 33 3c 89 be
       0.6446589 0.33194962 0.2590208 -0.2680374
000150 fe b6 9c bd 01 44 18 be 18 21 24 be b7 49 d8 3d
       -0.076520905 -0.14869691 -0.1602825 0.10560935
000160 f4 c1 26 be 1d b5 1e 3f 81 2b af 3e e6 49 72 3e
       -0.16284925 0.61995107 0.34212878 0.23661003
000170 4e 90 a5 3d a2 ac 7d 3e 37 a5 67 3e 96 a0 1e be
       0.080841646 0.24772885 0.22621618 -0.15490946
000180 e4 93 5f 3e bd 18 c2 be 78 73 41 3e 6a 0e f7 3e
       0.2183376 -0.379095 0.18891704 0.48253185
000190 4d 35 d7 3d 0d ae 10 3f ce e5 11 be 9f ce e7 3e
       0.10508213 0.5651558 -0.1424782 0.45274827
0001a0 8b e4 02 3f 0a a6 c5 3e f0 fe 7c 3e 0e 57 d7 3e
       0.5112998 0.3860324 0.24706626 0.42058605
0001b0 ed 7b a9 bd 09 e8 8f be ae 17 bf bd fa f7 3e bc
       -0.0827559 -0.28106716 -0.093306884 -0.011655802
0001c0 af 6b 35 3f f7 45 92 3f bc c7 26 3e b5 86 84 3c
       0.7086744 1.1427602 0.1628713 0.016177515
0001d0 14 8b 80 bd b2 70 17 3e c5 03 10 3f 30 9d da 3e
       -0.06276527 0.14789084 0.5625575 0.4269805
0001e0 70 ac f9 3e b9 7f 6e 3f f4 7f 22 3f 69 74 c4 3e
       0.48764372 0.9316364 0.6347649 0.38370064
0001f0 83 72 c5 3e 92 be bd bd c2 8a 21 be 39 b6 eb 3e
       0.38563928 -0.09264864 -0.15775588 0.46037462
000200 52 59 b2 bd 5e 99 02 bf 86 09 5e 3e 2d c1 4b 3e
       -0.08708443 -0.5101527 0.2168332 0.1989791
000210 ee 03 11 bb 9e 9d 94 bd 83 07 c7 3d 4a 76 b8 bc
       -0.0022127586 -0.072566256 0.097182296 -0.022517342
000220 d5 c2 3c be e9 35 e5 bc 76 a1 36 3e c4 08 88 bc
       -0.18433698 -0.027979808 0.1783503 -0.016605742
000230 93 69 87 be 76 bf 8a be 4c 96 23 be 6a 3c 3f bd
       -0.26447734 -0.27099198 -0.15975302 -0.046688475
000240 f7 7f 12 bd 6c d7 49 bd c7 c4 87 be fd 17 34 bf
       -0.035766568 -0.049277708 -0.26517317 -0.70349103
000250 ea 7d e8 3c 76 7e 3a 3e 76 83 e0 be 4a 99 9a 3c
       0.028380353 0.18212304 -0.43850297 0.018871922
000260 a9 71 0c 3e ab c0 6d 3e ce d6 b4 3d 8b 6c 98 be
       0.13715233 0.23218028 0.08830033 -0.29770312
000270 91 e3 8e be b7 07 3e 3e a7 c2 ba 3d 3a c9 b5 3d
       -0.27907994 0.1855763 0.09119158 0.088762715
000280 21 f9 dc 3d af 01 9e be b1 c6 09 be 70 21 60 be
       0.10789705 -0.3086066 -0.13454701 -0.21887755
000290 5b c7 df 3e eb 72 60 3d 08 4f 4c 3e da 33 00 3e
       0.43706784 0.054797094 0.19952023 0.1251978
0002a0 d6 5a 90 3e 13 33 41 3e 1c 52 f6 3d 89 2e 4f bd
       0.28194302 0.1886714 0.1202738 -0.05058149
0002b0 13 86 55 bd f1 ae d2 3e 44 90 c3 bd 68 e3 f9 3e
       -0.052129816 0.41149095 -0.09549001 0.4880631
0002c0 55 d6 45 3d 00 c4 4f 3e de 8e 72 3d 82 fb 06 3e
       0.048300106 0.20289612 0.05921828 0.1318188
0002d0 83 e8 db 3e a5 fd 68 3e f7 05 67 be 9a 07 bd 3d
       0.4295083 0.22753008 -0.22560869 0.092299655
0002e0 13 5d 24 3d 15 5c eb bd 97 89 87 bd c4 b0 f7 3c
       0.040127825 -0.11492173 -0.0661804 0.030235656
0002f0 0d 14 8e be 6f 42 05 3e 7b 21 a8 be 19 9a a5 3c
       -0.27749673 0.13013624 -0.32838044 0.020215081
000300 d9 b9 36 bb 84 91 f4 bd 80 85 7b 3d 5e 51 a3 3e
       -0.002788177 -0.119418174 0.061406612 0.31898016
000310 9b 73 2a 3f b5 51 7b be cc fe a0 be f6 7c 1a 3d
       0.6658265 -0.24542888 -0.31444395 0.03771683
000320 dd 82 b5 3e d9 e0 65 3e 9b 46 5a bd 45 be 0c be
       0.35451403 0.22449054 -0.05328999 -0.13744457
000330 ec e8 19 3e a8 ec 4f 3f 68 6c 30 3e 95 8a be 3e
       0.15030259 0.81220484 0.17228854 0.37215105
000340 9f e6 fd bd 37 b4 0f be 53 5d 47 3f fe 41 9d 3e
       -0.12397503 -0.1403359 0.77876776 0.3071441
000350 ec 4f 08 3e 4b 17 a2 be 87 ce 25 3f 03 91 79 be
       0.13311738 -0.31658396 0.6476826 -0.24371724
000360 a8 eb 6f 3f 3a 9c 48 3e 8e a6 4a be 1e 63 bf be
       0.9371896 0.19590846 -0.19790098 -0.37380308
000370 61 92 83 be 43 46 90 be 41 58 a2 be 8f 6f 9c 3d
       -0.25697616 -0.28178605 -0.31707957 0.076384656
000380 35 6b 4e 3e d7 b4 5d 3f 1b 80 0c 3e 54 99 12 3f
       0.20158084 0.86604065 0.13720743 0.5726521
000390 25 72 bd be 5e d9 c6 be 98 77 33 bf 83 ae e2 be
       -0.37001148 -0.38837713 -0.7010436 -0.44273767
0003a0 39 4d 82 3e 11 01 a3 bc ae 75 ce bd 1c 65 20 3f
       0.2544954 -0.01989797 -0.10081039 0.6265428
0003b0 f6 e7 d4 be d7 e0 74 bd a6 88 6f be 6d bf d2 3c
       -0.41583222 -0.059784736 -0.23391971 0.025726045
0003c0 0a 31 11 bf 3c e0 49 be db 8e c2 be 61 0b 23 bf
       -0.5671545 -0.19714445 -0.37999615 -0.6368924
0003d0 76 d9 a7 3d cb 89 3f 3e e9 9d a8 bd 64 9b 30 be
       0.08195774 0.18704908 -0.08233244 -0.17246777
0003e0 18 25 d1 3e 37 e8 c7 bb 56 03 58 3e 0b 43 42 3d
       0.40848613 -0.00610068 0.21095023 0.04742722
0003f0 fc 74 5f be a8 d0 da bc 6a 45 b2 be 15 2c 8e be
       -0.2182197 -0.026710823 -0.34818584 -0.27768007

encoder.lstm.bias_hh_l0 f4 [256]
000000 b6 a6 eb be 10 fd 0e 3c 3f d3 6f be 7d 39 f4 bc
       -0.46025628 0.008727327 -0.23420428 -0.029812569
000010 e4 60 1e 3e d8 5e 39 be 82 9f 4f 3d 9f df 3f be
       0.15466648 -0.18102586 0.050689228 -0.18737648
000020 4c ad 15 bf 82 4e cb 3e fe dd 18 bf 5a 82 47 bf
       -0.58467555 0.39708334 -0.59713733 -0.77933276
000030 33 e8 04 bd d4 ec fe be 3b f4 06 3c d8 26 95 be
       -0.032448005 -0.4979006 0.00823694 -0.29131198
000040 6d ff 1e 3e cd 6a 72 bd ae 30 b8 3e bc b2 28 bd
       0.15527125 -0.059183884 0.3597464 -0.04118608
000050 60 13 22 be 00 b0 e1 be 21 b7 cc 3e 57 79 2f be
       -0.15827703 -0.4407959 0.39983466 -0.17136131
000060 c3 ad 7c 3f 80 0a 72 3d db 72 cb 3c 2d 37 a6 3d
       0.9870264 0.059092045 0.02483504 0.08115993
000070 64 4f 98 bd 54 2e 2e be aa ad 48 3e 09 65 a3 3e
       -0.074370176 -0.1700986 0.19597498 0.3191302
000080 d0 a9 91 be c7 cd 3b be 75 84 a1 be ee 21 11 3f
       -0.2844987 -0.18340217 -0.3154637 0.566924
000090 7d 64 be be 1c 08 92 3e 24 a1 2b 3e 81 3d c1 be
       -0.3718604 0.28521812 0.16760689 -0.37742236
0000a0 9f 07 c5 be 14 e2 63 3c fc fe 13 3e 09 8d 71 3f
       -0.38482377 0.013908882 0.14452738 0.9435583
0000b0 1d bd 04 be 53 3f a9 3d 9f 72 a0 bd 13 8a 14 bf
       -0.12962766 0.08264031 -0.07834362 -0.58023185
0000c0 1f 98 fc 3e 8a f9 29 be 7c 5f ac 3d c0 6d d5 be
       0.4933481 -0.16599098 0.0841665 -0.41685295
0000d0 d6 aa 21 bd fa 7d 7f 3e 9e 66 ab be d2 ba be be
       -0.039469562 0.249504 -0.33476728 -0.37251908
0000e0 7e 85 10 bf 96 b9 7b bd bc 45 54 3e b5 f3 eb be
       -0.5645369 -0.061456285 0.20729727 -0.4608437
0000f0 d8 43 49 3f 8f 85 b4 be e7 02 2b bf 6e 11 dd 3d
       0.78619146 -0.35258147 -0.66801304 0.1079434
000100 c3 37 a7 3d ca cc c9 be 57 bc 74 3f 25 ce c0 bc
       0.081649326 -0.39414054 0.95599884 -0.023535797
000110 f5 f0 87 3e 46 a8 84 bd 9a 2c 6c 3e ca 53 be 3d
       0.26551023 -0.06477408 0.23063889 0.09293325
000120 4a bf d5 3e d2 cd 9a 3e bc 8c 74 3f cd 53 e0 3e
       0.41747504 0.30235153 0.95527244 0.43813935
000130 5c 7c 3a 3e ad ee ca 3e 05 70 ac bd 7a b5 25 3f
       0.18211502 0.3963522 -0.084198035 0.64730036
000140 89 5f 2c 3f 00 44 dd 3e 91 00 a9 3e 62 6f c3 bd
       0.67333275 0.43215942 0.33008245 -0.09542729
000150 f0 5a 32 be ca 56 85 bd 88 91 0a be 47 68 a8 3d
       -0.17417502 -0.06510694 -0.13532078 0.08223014
000160 c0 c6 83 be 0c 45 d9 3e b1 dc c3 3e a0 53 c2 3e
       -0.25737572 0.4243549 0.38254312 0.37954426
000170 a7 07 8c 3d 98 a5 4f 3e 2a 36 7e 3e b8 8a 2a be
       0.06837397 0.20278013 0.2482535 -0.1665448
000180 b1 01 06 3e f8 c1 1d bf 06 ad ef bc 6d 50 ef 3e
       0.13086583 -0.616241 -0.029257309 0.46741048
000190 32 ce 71 3e 64 33 c4 3e ed e6 88 bd f3 ae f0 3e
       0.23613814 0.38320458 -0.066846706 0.47008476
0001a0 ff 53 ed 3e ee 87 96 3e ad 87 b7 3e 1e 96 7d 3e
       0.46353146 0.2940058 0.358457 0.24764296
0001b0 25 06 e7 3c 3c df f4 bd bf 8d d1 3d 67 3d 02 bd
       0.028201172 -0.11956641 0.10232114 -0.03179684
0001c0 e4 83 4f 3f 04 14 8c 3f 1e 59 01 3e f0 f9 a7 bd
       0.81060624 1.0943608 0.12631652 -0.08201969
0001d0 67 66 ea bc f9 3f 66 3d 20 e9 f9 3e 88 ab e9 3e
       -0.028613282 0.056213353 0.48810673 0.4563868
0001e0 40 54 be 3e 91 a8 7c 3f dd 08 32 3f 66 5f ca 3e
       0.37173653 0.9869471 0.69544774 0.39525908
0001f0 18 06 bf 3e 20 67 04 be 0f ee 08 be d0 d3 17 3f
       0.37309337 -0.12929964 -0.13372062 0.59307575
000200 12 2b 14 3d f6 de 10 bf 55 a5 ff 3d b2 c2 80 3e
       0.036173888 -0.5659021 0.124827065 0.2514854
000210 2f 38 bb bd ad e2 93 bd 67 0e 2f bd 63 66 b8 3d
       -0.091415755 -0.07220969 -0.042738345 0.09003904
000220 4c 44 f7 bd 06 ed 3e 3d 70 e4 33 3e 2e ee 21 3c
       -0.120735735 0.046612762 0.1756761 0.009883447
000230 92 90 d9 bd 47 4b 82 be 2e 77 d4 bd 05 65 6b 3d
       -0.10623278 -0.25448057 -0.10374294 0.057469387
000240 ac 0b da 3d 0e a2 84 bd 52 d2 d9 bd c3 49 22 bf
       0.106467575 -0.06476222 -0.106358185 -0.633938
000250 59 79 a6 bd ba 77 3f 3c 80 b2 bc be 15 33 4b 3e
       -0.08128614 0.01168626 -0.36854935 0.19843705
000260 43 ae a2 bb 9d 5a f8 3d cf 9a ab 3d db b4 f2 be
       -0.0049646213 0.12126658 0.08379137 -0.47403607
000270 2e 51 63 be 27 4e cf 3e 80 2c 4a 3e ee 3e 8f 3d
       -0.22198936 0.40489313 0.19743538 0.06994425
000280 df 1f ee 3d bd 5f 63 be 2c 00 71 be a2 1c e5 bd
       0.11627173 -0.2220449 -0.23535222 -0.11187102
000290 c0 15 d4 3e ec 6a 88 3e ae 24 42 3e f2 a3 03 3e
       0.41422844 0.26644075 0.18959305 0.12855509
0002a0 15 65 83 3e 6d 17 9d 3e 17 a8 a6 3c eb 20 b7 bd
       0.25663057 0.30681935 0.020343823 -0.089418255
0002b0 67 db 02 3d 5a ca 00 3f 93 d5 6a bd 4a 0c e7 3e
       0.03194752 0.50308764 -0.057332586 0.45126563
0002c0 3f ea bd bc 84 99 61 3e 48 90 32 bd 7a d4 d0 bd
       -0.023182986 0.22031218 -0.04359463 -0.10196777
0002d0 ba 25 b6 3e ec 83 92 3e 20 a2 72 be c6 47 8b 3c
       0.35575658 0.28616273 -0.23694658 0.017001998
0002e0 72 cf a6 3b 76 8e 32 be 0d d0 ac bb 30 fc 8f 3d
       0.0050906474 -0.17437157 -0.005273825 0.07030523
0002f0 21 b7 a9 be bc 6b 01 3e 4b 32 90 be 0a a1 3b 3e
       -0.3314753 0.12638754 -0.2816337 0.1832315
000300 86 95 e4 bd 96 4a 96 bd d9 cd 46 3e 35 5d b1 3e
       -0.11161332 -0.07338445 0.19414462 0.34641424
000310 bc d2 2b 3f 96 90 95 be b3 c0 39 be 31 de ee 3d
       0.6711843 -0.29211873 -0.18139915 0.116634734
000320 10 98 95 3e 1d 47 6d 3e df 67 06 be a4 9a 70 be
       0.29217577 0.23171659 -0.13125561 -0.2349649
000330 63 66 9f 3e 29 3f 3d 3f 9a e4 c1 3e 1f bf e0 3e
       0.31132802 0.739245 0.37869722 0.43895814
000340 0c f5 03 bd 40 a5 58 bc 94 a1 3e 3f 94 35 43 3e
       -0.032216117 -0.013222992 0.744653 0.19063407
000350 a0 c9 fb 3d 78 c2 a5 be 92 0d 18 3f 79 f5 24 be
       0.12294316 -0.3237493 0.59395707 -0.16109265
000360 87 73 7f 3f 11 a1 4b 3e 80 c9 eb 3c 60 03 f6 be
       0.99785656 0.1988566 0.028782606 -0.4804945
000370 0a 99 bf be 2c 35 9f be 3d 30 6b be ff 10 52 3e
       -0.37421447 -0.31095254 -0.2296762 0.20514296
000380 26 47 82 3e 87 bc 39 3f 20 a6 cd 3d 97 f5 26 3f
       0.25444907 0.72553295 0.100414515 0.6521849
000390 45 4f c1 be f9 57 9b be dc 66 26 bf 5c ee dc be
       -0.3775579 -0.30340555 -0.650007 -0.43150604
0003a0 8d 0d a0 3e f9 69 9f 3c a5 20 83 be 5a 7a 31 3f
       0.31260338 0.019459711 -0.25610843 0.6932732
0003b0 c0 78 00 bf e2 55 c7 bd 4b 6b 7d be 40 96 85 3d
       -0.5018425 -0.09733178 -0.2474796 0.065227985
0003c0 89 8f c5 be f8 71 ed bc e8 83 c4 be 98 7f ee be
       -0.3858607 -0.028985009 -0.38381886 -0.4658172
0003d0 00 b7 e0 3c 74 c0 ba 3e 1a 8d 9d bd b9 49 99 be
       0.027431011 0.36474955 -0.076929286 -0.29939058
0003e0 10 4d d5 3e 91 d9 4e 3b 5d 12 cb 3d 77 ee fb 3d
       0.41660357 0.0031562785 0.09915612 0.12301343
0003f0 13 c0 26 be 43 33 94 3d 84 dd c5 be 0b 1d e6 be
       -0.16284208 0.0723634 -0.38645566 -0.44944033

encoder.lstm.weight_ih_l1 f4 [256, 64]
000000 ef 4d 1a 3f d2 64 47 3f d6 13 87 be 3c f7 26 3f
       0.6027517 0.77888215 -0.2638232 0.65221
000010 a0 67 e3 bd bb 1a b3 be 6b 06 f8 be 81 a1 1c 3f
       -0.11103749 -0.3498133 -0.48442397 0.61183935
000020 69 95 93 bd 27 43 aa 3e d9 53 bb be d2 ed bb be
       -0.07206232 0.33254358 -0.36587408 -0.3670488
000030 ee 38 63 3f 76 11 d6 3d 08 dd f6 3d 6d db a2 3d
       0.8875874 0.10452549 0.12053877 0.079520084
000040 a8 70 84 be 4f d6 1d 3d 62 a9 77 3f 5e f2 af 3e
       -0.258672 0.03853446 0.9674283 0.343646
000050 32 80 61 be 06 dd 21 3f 60 d8 32 3d 3d f9 cb 3e
       -0.22021559 0.6322788 0.043663383 0.3983859
000060 14 e2 ad bd 6d 9a bc 3e 8c 77 c1 3e 51 ff aa 3f
       -0.084903866 0.36836568 0.3778652 1.3359166
000070 84 1a af be 9a 4f 3e bf 0c 20 ae be d8 b8 b4 be
       -0.34199917 -0.7434021 -0.34008825 -0.35297275
000080 00 40 17 3f 31 a4 21 3f 75 80 50 3f 32 08 9f be
       0.5908203 0.6314116 0.8144601 -0.3106094
000090 06 db 90 3e 45 f2 31 bf 09 e9 26 3e a3 7b 86 bf
       0.28292102 -0.695103 0.16299833 -1.0506481
0000a0 62 0a 46 3e a0 10 d3 be 00 33 a2 3e d7 ec f4 bd
       0.19339898 -0.4122362 0.31679535 -0.11959236
0000b0 7a f2 39 bf 88 3b 7d be d9 34 c6 be 61 19 99 be
       -0.72635615 -0.2472974 -0.38712195 -0.29902175
0000c0 74 5a bf be 6a 04 9c bd 7a 0a bc be b9 48 42 be
       -0.37373698 -0.076180294 -0.36726743 -0.18973054
0000d0 a3 65 2f 3e 85 ca b0 be 9b 97 85 3d 60 a7 99 3d
       0.17128615 -0.3452951 0.06523057 0.075026274
0000e0 81 ef 61 3e cb ae 83 3c 9a 58 89 3e 01 b3 16 3e
       0.2206402 0.016074559 0.2682541 0.14716722
0000f0 a4 cb b3 3d bc 1b a8 bd 59 2e 34 bf a3 12 4f 3f
       0.08779076 -0.08208415 -0.7038322 0.8088781
000100 19 3f ad 3e 2f ec 28 3f 58 1e 8d 3e c1 71 35 3e
       0.33837202 0.6598539 0.27562213 0.17719175
000110 cf c8 dc bd d5 fb 6a 3d db 5e 98 be c0 63 61 bc
       -0.10780489 0.057369072 -0.2975987 -0.013756692
000120 c8 f9 de 3e 1a 52 aa be 1e c1 92 3f 08 5e 0b bf
       0.43549943 -0.33265764 1.1465185 -0.54440355
000130 fd 9b 21 be 19 f0 d1 be 69 e6 ce be 04 32 51 3f
       -0.15782161 -0.41003492 -0.40410164 0.8171694
000140 c0 c0 df be 24 b7 05 3e 82 a4 aa 3d 66 3a 8f 3e
       -0.43701744 0.13058144 0.083321586 0.27974242
000150 c2 85 2c be 0d 4e 7c be 50 2e 18 3e 98 28 1b bf
       -0.168479 -0.24639149 0.14861417 -0.60608816
000160 69 60 84 bf eb 3a 05 3f 92 20 68 3f 6b d3 a6 bd
       -1.0341922 0.52043027 0.906747 -0.081457935
000170 34 00 ec bd 44 e0 70 bd c3 54 1e 3f d9 cc 8a 3e
       -0.11523476 -0.058807626 0.61848086 0.2710941
000180 a7 54 c1 be c1 fb e9 3e f6 0e e8 3e 05 33 86 3d
       -0.37759897 0.45699885 0.45323914 0.065527
000190 b7 b1 64 3e c5 74 77 be a6 8f aa 3e db a5 b5 bd
       0.22333418 -0.24165638 0.3331272 -0.08869525
0001a0 5a 86 59 bf c6 8c bd 3e c7 58 2f bd 3f 1a 9f 3e
       -0.8497063 0.37021464 -0.042809274 0.31074712
0001b0 90 49 e0 be 93 9a 0a bf d5 cd 4a 3e 1c 6b 5b bf
       -0.43806124 -0.5414211 0.19805081 -0.8571031
0001c0 83 2a 1f 3e a5 75 b8 3e f5 77 ba 3e 19 89 c1 bc
       0.1554356 0.36027256 0.36419645 -0.023624944
0001d0 20 9c 05 3e eb 5a c2 be be aa 50 be a9 c7 a1 be
       0.13047838 -0.3795999 -0.20377633 -0.3159764
0001e0 7a 21 73 3f bf df 1d bf 5e 48 34 bd ff 64 bb bd
       0.94972956 -0.61669534 -0.044014327 -0.09150123
0001f0 c3 ef bc 3c 0e 99 8f 3e 7f 87 f0 bc 06 36 2c 3d
       0.023063546 0.2804646 -0.029361485 0.04204371
000200 98 3e f4 3e f9 a4 da 3d 65 68 ff be 10 06 b9 bd
       0.47704005 0.10675997 -0.49884334 -0.090343595
000210 53 af c8 be c2 35 e1 be c2 f0 32 3e 91 7d be 3d
       -0.39196262 -0.43986326 0.17474654 0.09301294
000220 0e c7 6c 3e 69 56 5e 3d 0e 96 e7 bc a8 15 47 3e
       0.23122808 0.054281626 -0.028269794 0.19441855
000230 4f 93 d9 bc 6d 64 48 3f 4e 2b 8e be e2 67 91 bf
       -0.0265595 0.7827824 -0.27767414 -1.1359828
000240 ad 2a 79 be f4 e0 36 3e aa eb 64 bf ab 35 6c 3e
       -0.24332686 0.1785925 -0.89422095 0.23067348
000250 85 67 25 3e 72 0e b1 be 41 2f 86 be 3b 36 ff be
       0.16152771 -0.34581333 -0.26207927 -0.49846062
000260 f2 84 8e 3e db 42 3d 3e 43 1e a7 3e e9 b5 e9 bd
       0.27835804 0.18482535 0.32640275 -0.1141165
000270 0f aa 82 3f 24 59 02 3e c9 69 d7 3c c9 d1 cb bc
       1.0208148 0.12729317 0.02629556 -0.024880307
000280 3a ab d1 3e 5c a1 89 bd 9d e9 67 3e de 0b 37 be
       0.40950948 -0.0672023 0.2264771 -0.1787562
000290 d4 5b 1d 3e c8 3f 99 3d 2d 97 e7 bd c2 b2 9c bc
       0.15367061 0.074828684 -0.11308131 -0.019128207
0002a0 0e 1e a7 3e 1d 44 2a be b8 d0 82 3e 05 c3 ff 3d
       0.32640117 -0.16627546 0.25549865 0.12488369
0002b0 81 5f dd be f8 4f 7e 3f 61 67 32 bd b7 57 91 3d
       -0.43236926 0.9934077 -0.04355562 0.070968084
0002c0 f3 07 df 3e 36 cf 48 bf aa 17 86 3c b6 7e de be
       0.43560752 -0.7844118 0.016368706 -0.43456048
0002d0 ff 1d 03 bf 0b 7e 65 3f bb 85 5d 3d a4 a7 29 3f
       -0.51217645 0.8964545 0.054082613 0.66271424
0002e0 2f 16 ca 3e 02 36 b6 be 11 4f 10 3f 62 40 8b be
       0.3947005 -0.3558808 0.56370646 -0.27197558
0002f0 81 e2 20 3d 1b 8b 79 be 06 41 a0 bd c2 ed 81 3e
       0.03927851 -0.24369471 -0.07824902 0.25376707
000300 84 28 68 bd 7c 54 cb 3e 8a 56 11 bf 88 11 0a bf
       -0.056679264 0.39712894 -0.56772673 -0.53933
000310 16 6f f6 bd e6 f4 74 3e 75 f0 a8 3f e8 38 50 bd
       -0.12032907 0.23921546 1.3198382 -0.05083552
000320 c6 c3 43 bc 6c 6b 31 3d d3 fd f9 bd f8 1e a7 be
       -0.0119485315 0.043315336 -0.12206616 -0.32640815
000330 c0 76 fe bd 03 11 24 bc 85 60 21 be 83 6e f9 bd
       -0.124249935 -0.010013822 -0.15759476 -0.121792816
000340 e9 4e 9d 3d 12 ad f4 3e 4b 45 28 3f f2 81 3d 3e
       0.076810665 0.47788292 0.6573073 0.18506601
000350 27 70 51 3e b5 06 ea bb 2d 7e 46 3f 45 97 f3 bd
       0.20452939 -0.007141913 0.7753628 -0.11894087
000360 7f cd 6a 3f f8 ab 24 3e 7d 35 4f 3e 2f 9d b5 3e
       0.9171981 0.16081226 0.20235248 0.35471484
000370 b1 3b 65 3e a2 ac 15 bf 32 b9 02 3f 2b fc 5c be
       0.22386052 -0.5846654 0.51063836 -0.2158057
000380 0f 9d 9a 3e d0 aa 24 3f 68 aa 72 3e 3b b7 c4 bd
       0.3019795 0.6432314 0.23697817 -0.09605261
000390 77 03 9a be 0c e2 1e bf 39 e8 3a 3f 8b 8e 05 3e
       -0.30080768 -0.6206367 0.73010594 0.13042657
0003a0 af 64 46 bb 0b 9d 28 3f a4 65 2f 3d 5e 5d 9f 3e
       -0.0030272414 0.6586463 0.04282154 0.3112592
0003b0 a1 fb 06 3e 26 a0 97 be d0 55 1f bf 28 49 09 3f
       0.13181926 -0.2961437 -0.62240314 0.5362725
0003c0 82 25 2f be d2 a2 3a bf 7e 15 b7 3e 34 74 af be
       -0.17104152 -0.72904694 0.35758585 -0.34268343
0003d0 7b 19 dc 3d 70 cd 07 3f d1 17 8d bd 20 9f 08 3f
       0.107470475 0.5304785 -0.06889308 0.53367805
0003e0 a1 c2 9b be 7c af c0 bd ea 44 30 be a8 41 69 3e
       -0.30421928 -0.09408471 -0.17213789 0.22778952
0003f0 38 0f 58 3e 4f 86 66 bd 44 4e 87 be df 45 52 3d
       0.21099555 -0.05628043 -0.264269 0.051336166

encoder.lstm.weight_hh_l1 f4 [256, 64]
000000 8d 8e f8 3e 27 19 0a 3f c4 36 a7 3e 7e eb e1 3e
       0.48546258 0.5394463 0.3265897 0.4412498
000010 73 13 a5 bd 40 b6 54 3f 75 6b 81 bd d7 2f 00 be
       -0.0806035 0.8309059 -0.06319324 -0.1251825
000020 38 a8 10 3f 58 6d 49 3f fc 33 64 bf b0 c7 0b 3d
       0.5650668 0.7868247 -0.8914182 0.034125984
000030 70 b0 06 bf e6 7c 92 bb f0 1e 5f bd 09 7b 04 bf
       -0.5261297 -0.0044704555 -0.054472864 -0.51750237
000040 d9 9e fd bd 06 ff e7 3b 10 e7 04 3d 55 bf 65 3f
       -0.123838134 0.0070799617 0.03244692 0.89745075
000050 b0 44 4d 3e 90 b5 9c bf 3a 2a 0b 3e ee 22 53 3e
       0.20045733 -1.2242908 0.13590327 0.20618793
000060 86 c8 b5 be 0c 39 0e 3f 5c a1 e5 ba 15 06 85 bd
       -0.3550455 0.55555797 -0.0017519402 -0.06495301
000070 dd bc 99 3d 0d 8a b7 3f 21 72 d1 bc 91 b9 90 be
       0.07506726 1.4339005 -0.025567116 -0.28266576
000080 3a a9 b7 be 14 ff 0e 3d f5 00 77 be f9 04 39 3e
       -0.35871297 0.03491123 -0.24121459 0.18068303
000090 a8 70 c5 3e da f8 96 3e 98 09 1a 3c 69 af b1 3d
       0.38562512 0.29486734 0.009401701 0.08676035
0000a0 3a ef 67 3e f7 8b 8d 3d 9a 89 03 3c 42 87 00 bf
       0.22649851 0.06911462 0.008028412 -0.5020639
0000b0 bf c2 b1 bd 18 09 a5 3e ed 19 c1 3e d4 3b 40 3f
       -0.08679723 0.322335 0.37715092 0.7509129
0000c0 28 15 20 be ea 8f f1 bd 15 01 60 3e 83 e6 c0 bc
       -0.1563307 -0.117950276 0.21875413 -0.023547417
0000d0 85 1a 06 bf 11 9c 30 bf bc e1 6c 3d a0 2a 2e bf
       -0.52384216 -0.6898814 0.057832465 -0.6803379
0000e0 38 d4 95 be e8 41 26 3d 7b 31 c9 3d 33 4f 61 bc
       -0.29263473 0.040590197 0.09823891 -0.013751793
0000f0 7a 4e 18 3f e0 4e a0 3e e9 7e a7 3f 32 ae 92 3e
       0.59494746 0.31310177 1.3085605 0.28648525
000100 76 43 76 3e c4 b0 be 3e b2 00 02 bf a3 45 55 be
       0.24049172 0.37244236 -0.5078231 -0.20827346
000110 19 e9 0f bc f1 9e 27 bf 5c 4a ed be 20 dc ab 3e
       -0.008783602 -0.654769 -0.46345794 0.3356638
000120 41 e0 9c 3f 9e 78 d3 3c d2 d8 c1 bf eb 17 0c 3f
       1.2255937 0.02581435 -1.5144293 0.54723996
000130 30 00 30 be e5 5e ef 3e 69 5d 6b 3e 4e 99 e4 3e
       -0.17187572 0.46752086 0.22984852 0.44648212
000140 01 b4 09 bf 39 b5 1a bf 2b 71 08 3f 70 4f 47 3d
       -0.5379029 -0.60432774 0.5329768 0.048659742
000150 03 a8 66 be f4 6e 31 bf cb c6 be be c7 12 27 be
       -0.22525029 -0.69309926 -0.37261042 -0.16315757
000160 a4 77 26 3f a5 4c c0 3e 64 9c 31 3f 51 18 14 bf
       0.6502631 0.37558475 0.6937926 -0.57849604
000170 b8 99 8c 3e c3 d9 31 be 8c 1f 01 3f f9 5d e3 be
       0.27461028 -0.17368226 0.5043876 -0.44407633
000180 04 32 08 bf 5f 9e 9f be a8 35 e6 bd b3 00 6d 3d
       -0.5320132 -0.31175515 -0.11240703 0.057861995
000190 97 d0 59 be 3b aa 92 3f 62 90 12 bf 8c f9 47 be
       -0.21270977 1.14582 -0.5725156 -0.19528788
0001a0 a8 8a 0c be a0 e7 1e 3f b4 ed 06 3f 44 13 11 3f
       -0.13724768 0.6207218 0.52706456 0.5667002
0001b0 9d 71 a0 bd 46 19 e5 3e 0e b1 56 bd 0e 7f fc bd
       -0.0783417 0.44745845 -0.052414946 -0.12328921
0001c0 09 92 a6 be 5a f0 5b 3e d2 1a 91 be 83 6b 1c bd
       -0.3253329 0.21478406 -0.28340775 -0.03818847
0001d0 59 76 74 bc ec ef 89 3e 74 9e 23 be a2 d1 ff 3d
       -0.014920794 0.26940858 -0.15978414 0.12491156
0001e0 6f 61 6c be a6 88 93 be e3 9c 1d bb bd 59 e4 3e
       -0.23084043 -0.28815192 -0.002404981 0.44599715
0001f0 7f 7d 28 bf bd 98 06 3f d1 e6 07 bf de a8 0b 3e
       -0.6581649 0.5257681 -0.5308657 0.13638636
000200 3c c1 7b be c1 32 02 bf 07 b9 3f 3f 38 7b 18 3f
       -0.24585432 -0.50858694 0.74891704 0.59563017
000210 ec 14 c1 3d db 4b a2 3e 85 72 10 be bc 76 02 bf
       0.09427819 0.31698498 -0.14106186 -0.50962424
000220 d2 67 90 bf 4a c6 82 3e 51 d2 43 3f cf 61 d6 3d
       -1.1281683 0.25541908 0.7649279 0.10467874
000230 68 c6 aa 3e ab 04 0e 3f 73 1c 08 be 2d 79 98 bd
       0.33354497 0.5547587 -0.13292103 -0.074449874
000240 fb 32 c0 3d 68 17 d7 3d d3 a6 22 3e 80 41 60 3e
       0.09384724 0.10502511 0.15883951 0.21899986
000250 9f be 45 3e 72 56 ee 3e 61 05 64 be bc 47 0f be
       0.19310997 0.46550328 -0.22267677 -0.13992208
000260 bb ff 91 3e cc 23 b7 be 7a 0f 7d 3d 13 c5 9e 3e
       0.2851542 -0.35769498 0.061782338 0.3100973
000270 1c 9f cb be 39 2a 32 bf a7 a0 20 3e 85 2c 67 3e
       -0.39769828 -0.69595677 0.15686284 0.22575577
000280 1e e4 ed be 61 75 43 be c5 47 18 3e 24 24 4f 3f
       -0.46463102 -0.19087745 0.14871128 0.8091452
000290 ac 0a ff be d7 cc e5 3c 34 1b f7 3d ed 4f 1d 3f
       -0.4981283 0.028051777 0.120657355 0.6145008
0002a0 ad 57 15 be ad 4f 93 be 86 c1 72 be de ba e3 3e
       -0.14584227 -0.28771725 -0.23706636 0.44478506
0002b0 20 2b 5a 3f 42 9a f6 be 8b c2 b2 3f ca ed fd bd
       0.85222054 -0.48164564 1.396562 -0.1239887
0002c0 8b 38 bc 3e df 84 6e bf 60 bb aa 3e 7b f1 40 be
       0.3676189 -0.93171495 0.3334608 -0.18842117
0002d0 69 ba db 3d ee 18 61 3f 33 71 0b 3f f7 a0 00 3f
       0.10728914 0.87928665 0.54469603 0.5024561
0002e0 fc a7 08 3e 20 91 58 3d 9a 08 17 bf a2 0b 10 3e
       0.13345331 0.052872777 -0.589975 0.14066938
0002f0 b7 db 19 3e 07 4e 5f bf 02 02 08 bf 53 f7 57 bd
       0.15025221 -0.87228435 -0.53128064 -0.0527261
000300 cf a0 bb 3a e4 f3 76 3d b9 41 84 3d ac a9 b9 3e
       0.0014314892 0.060291186 0.06457848 0.36262262
000310 54 53 43 be 55 60 66 3f 66 f6 95 3e d6 dc c1 be
       -0.19074756 0.8999074 0.2928955 -0.37863797
000320 af 35 f3 be 9b 6b 1a bf 1d 1b 3f be c4 e0 31 be
       -0.47501895 -0.6032044 -0.18662687 -0.17370898
000330 5d 7d 24 bd 91 89 8d bf 0f b3 5b be b5 05 02 be
       -0.04015862 -1.1057607 -0.21455024 -0.1269749
000340 73 3f 2d 3f e8 69 7b be af 8a 0b 3f bc b7 0c 3c
       0.6767494 -0.24552119 0.5450849 0.008588728
000350 d0 7c a8 3d e0 cb d1 bc a0 d1 18 3f 60 f8 c8 bd
       0.08226931 -0.02560991 0.5969486 -0.09812999
000360 93 10 83 3e 65 98 fc 3e 92 c3 9b be a3 ea 3f 3f
       0.25598583 0.49335018 -0.30422646 0.749674
000370 05 e2 c4 bf 40 a9 00 3f 9a 4e ab 3e 08 3d 77 3e
       -1.5381476 0.50258255 0.33458406 0.24144375
000380 d7 44 7b 3e 0f 86 b7 be 5c d1 e6 3e 2f 74 fc 3d
       0.24537979 -0.35844466 0.45081604 0.12326848
000390 24 37 41 3f da 71 e0 be 49 bc b4 3e 76 b7 3a bf
       0.7547476 -0.43836862 0.352999 -0.7293619
0003a0 3e 24 ca 3d 13 86 02 bf 51 e3 18 bf 63 66 b0 be
       0.09870194 -0.5098583 -0.5972186 -0.34453115
0003b0 9a e1 22 3e 37 76 81 3e a4 e1 90 3e dd ab d4 3d
       0.15906373 0.25285503 0.2829715 0.10384343
0003c0 c8 6f 5c be 5a c7 6e be fb 3b a5 bd a3 f1 a0 3c
       -0.21527016 -0.23318234 -0.08068081 0.019646471
0003d0 78 36 db be 67 f3 51 bf ef 9f 6e be 2b 43 07 3f
       -0.42814994 -0.8201203 -0.23303197 0.52836865
0003e0 c9 fe 34 3e 8a c2 41 be 32 44 71 bf 71 8a 35 3e
       0.17675318 -0.18921867 -0.9424468 0.17728592
0003f0 1d 2d d1 bd a3 cc f9 be 71 48 05 3f 73 ca 40 be
       -0.10213683 -0.48788938 0.5206366 -0.18827228
