seq2seq_model_01.pth (torch, 971287 bytes, 36 tensors)

encoder.embedding.weight f4 [31, 10]
0.15183517 -0.79327404 -1.3217609 -1.1405272 -0.5207625 -0.99280584 1.4075553 -1.2374429
1.5739372 0.5980167 0.39891735 -0.5981621 -1.2330178 0.95611507 0.998874 -0.55020833
0.6797476 0.2800219 -1.7574744 0.7581592 -0.34701788 -0.6565748 -0.5492773 0.16675729
0.4794134 -1.3834527 0.8176458 -0.4829451 0.5084341 1.3028628 1.2685294 -0.46687865
0.025903758 1.0397547 -0.90125096 -0.38707253 -1.1754053 0.19864655 -0.76244885 -0.25692597
0.17669237 -2.4102213 1.2526815 -1.7836957 0.7853824 -0.068680696 -1.6124717 0.22606777
-2.512619 -0.7033824 1.1098686 0.23226622 -0.05001022 1.1369364 -1.3549258 3.0747354
1.6960131 -0.7415422 2.0391977 1.5076554 1.3455303 -0.017647672 2.4051914 -0.84375364
-0.111015886 -0.5255072 -1.8124763 0.68835914 0.7206881 1.6043926 0.22427045 -0.022733627
0.50435567 -0.97965044 1.6189945 1.5066392 -0.5389533 1.5881238 -0.17506298 2.3777544
-0.8932402 1.3888533 0.74607235 0.9897544 -0.86013746 -1.0025568 -2.4297984 -1.7080767
-2.3568704 -1.4692258 -1.132074 0.38299957 0.05283201 -0.93184125 -1.6101223 -0.28687993
-0.16463357 0.11836799 0.98080367 -0.34153205 -0.24835163 -1.4227862 0.7380309 1.0736537
-0.8185575 -0.47878298 1.4331979 0.3438596 0.67443985 0.057923708 -0.2461334 0.9413923
-2.0843155 1.5710717 1.0650355 -0.6571814 -0.12543817 0.3238273 1.0214354 1.7591987
1.1015927 0.77220315 -1.4236996 1.0202793 -0.79461205 0.17480208 -1.2489784 -0.51731604
0.15186478 3.1513832 1.1942877 -0.16539872 1.144413 -1.0761539 0.2511227 1.4301479
0.6034481 -1.4953016 -0.68385196 1.0849322 1.1240263 -0.3827164 0.8025086 1.3824248
-0.29222727 1.5011888 -0.2773874 -0.91818243 -0.5975946 0.5335594 0.07989354 0.48776495
-1.186414 0.26072496 1.0758014 1.4234507 0.7099147 0.3673079 0.16653949 1.4674267
-0.033203777 -0.9922416 0.78062505 0.94872546 -1.048704 0.8085401 2.3575554 -0.18112999
-1.0367484 0.4674709 -0.48955062 -0.2486239 -0.4510694 1.0327502 -0.33336383 -1.3961371
0.48318905 1.026983 0.8081282 2.7917686 -0.8031962 0.3014137 -0.30946583 0.52247626
0.7171163 0.5828505 0.16118713 -1.2480525 0.16538154 -1.3819495 -0.3536613 0.9943597
-0.90720606 1.980802 -1.112218 -2.9069548 0.8738737 -0.25648865 -0.049882784 -1.4380774
-0.34753594 -0.9591162 0.67352635 -0.44142848 1.3185223 -1.6616366 0.7936861 1.1113791
0.42146996 0.18520118 0.92989886 -0.83130026 2.27679 2.1954527 0.60254467 0.56375474
1.332788 2.8340914 -1.1266861 0.15692112 -0.27624148 2.594059 0.040325236 0.68653977
0.17343915 0.86915576 -0.3009213 0.060159408 0.1304401 1.6545564 -0.41890094 1.3691262
-1.4319581 -2.5763698 -1.9029061 -0.87796515 0.012608637 -1.3001134 -0.53772867 0.49253073
-1.4664829 -1.8827926 -1.5720692 -2.1560814 1.189557 1.1578665 -1.598549 2.1982174
-0.262791 2.063932 -1.6915889 1.6152158 -1.4824756 -1.5727248 0.5111235 0.45331815
00000000: ae7a 1b3e 0214 4bbf 762f a9bf ccfc 91bf
00000010: b150 05bf 8628 7ebf c62a b43f 8764 9ebf
00000020: c676 c93f 9f17 193f e53e cc3e 2721 19bf
00000030: 87d3 9dbf f5c3 743f 35b6 7f3f 74da 0cbf
00000040: f003 2e3f 085f 8f3e ecf4 e0bf b916 423f
00000050: 54ac b1be 4915 28bf 709d 0cbf 6cc2 2a3e
00000060: ac75 f53e fa14 b1bf 3c51 513f 9544 f7be
00000070: bd28 023f 35c4 a63f 2c5f a23f b80a efbe
00000080: 1e34 d43c af16 853f 62b8 66bf 5f2e c6be
00000090: ae73 96bf 006a 4b3e d92f 43bf cd8b 83be
000000a0: d8ee 343e 1141 1ac0 de57 a03f 2450 e4bf
000000b0: d20e 493f 77a8 8cbd 7965 cebf 4f7e 673e
000000c0: c0ce 20c0 de10 34bf 2d10 8e3f 32d7 6d3e
000000d0: 84d7 4cbd 2287 913f 356e adbf 77c8 4440
000000e0: f516 d93f b6d5 3dbf 3782 0240 dafa c03f
000000f0: 563a ac3f da91 90bc a8ee 1940 3d00 58bf
00000100: 4c5c e3bd a487 06bf 39ff e7bf 4e38 303f
00000110: 047f 383f bd5c cd3f 27a7 653e df3b babc
00000120: 741d 013f 5fca 7abf 363b cf3f 8ed9 c03f
00000130: d8f8 09bf a447 cb3f b643 33be 212d 1840
00000140: 64ab 64bf f2c5 b13f 99fe 3e3f 8b60 7d3f
00000150: f831 5cbf c853 80bf d181 1bc0 42a2 dabf
00000160: f7d6 16c0 970f bcbf cde7 90bf 8518 c43e
00000170: 6166 583d 268d 6ebf 7d18 cebf ede1 92be
00000180: b495 28be eb6a f23d f315 7b3f 4add aebe
00000190: e44f 7ebe dc1d b6bf 98ef 3c3f 7c6d 893f
000001a0: fc8c 51bf 0b23 f5be 0773 b73f 5e0e b03e
000001b0: 17a8 2c3f 6941 6d3d 650a 7cbe 16ff 703f
000001c0: 6d65 05c0 e118 c93f 1553 883f 0a3d 28bf
000001d0: dd72 00be b1cc a53e 65be 823f 6c2d e13f
000001e0: fd00 8d3f 1baf 453f ca3b b6bf 8398 823f
000001f0: b26b 4bbf 51ff 323e 86de 9fbf d36e 04bf
00000200: 7182 1b3e 43b0 4940 6bde 983f 485e 29be
00000210: 207c 923f 69bf 89bf 2893 803e 160f b73f
00000220: 937b 1a3f 0b66 bfbf ec10 2fbf 0fdf 8a3f
00000230: 18e0 8f3f 67f3 c3be 3471 4d3f 4cf3 b03f
00000240: d09e 95be f426 c03f b905 8ebe 010e 6bbf
00000250: f6fb 18bf 5997 083f 399f a33d 54bc f93e
00000260: 6adc 97bf be7d 853e dcb3 893f a233 b63f
00000270: f8bc 353f c80f bc3e 5489 2a3e a3d4 bb3f
00000280: af00 08bd 8c03 7ebf 0bd7 473f acdf 723f
00000290: ef3b 86bf 7cfc 4e3f 30e2 1640 247a 39be
000002a0: 2cb4 84bf 5958 ef3e 61a6 fabe 4397 7ebe
000002b0: 92f2 e6be 2931 843f aaae aabe 9fb4 b2bf
000002c0: 8e64 f73e 2e74 833f 7de1 4e3f 56ac 3240
000002d0: 449e 4dbf e652 9a3e 4e72 9ebe 01c1 053f
000002e0: ef94 373f b135 153f 3d0e 253e 2fc0 9fbf
000002f0: c759 293e b9e3 b0bf 1813 b5be 5b8e 7e3f
00000300: a83e 68bf ec8a fd3f 295d 8ebf 8c0b 3ac0
00000310: 30b6 5f3f 7b52 83be e451 4cbd ec12 b8bf
00000320: 3bf0 b1be a488 75bf 396c 2c3f ea02 e2be
00000330: 57c5 a83f 82b0 d4bf 032f 4b3f ac41 8e3f
00000340: e9ca d73e 61a5 3d3e da0d 6e3f 18d0 54bf
00000350: edb6 1140 4c82 0c40 5e40 1a3f 3b52 103f
00000360: cc98 aa3f c161 3540 4037 90bf eeaf 203e
00000370: 866f 8dbe 1005 2640 132c 253d 12c1 2f3f
00000380: 089a 313e fe80 5e3f 5b12 9abe b669 763d
00000390: 1792 053e 81c8 d33f 2f7a d6be 873f af3f
000003a0: 674a b7bf 3ee3 24c0 6d92 f3bf 53c2 60bf
000003b0: 7594 4e3c 1e6a a6bf 96a8 09bf fd2c fc3e
000003c0: b6b5 bbbf 59ff f0bf 9039 c9bf 3dfd 09c0
000003d0: 6743 983f f834 943f 419d ccbf 98af 0c40
000003e0: 8b8c 86be 7617 0440 fc85 d8bf 64bf ce3f
000003f0: c3c1 bdbf 0c4f c9bf fdd8 023f 5119 e83e

encoder.lstm.weight_ih_l0 f4 [256, 10]
-0.05281272 0.10908592 -0.03261871 0.14353678 0.49503404 -0.11000841 0.07836604 0.26330316
0.22300035 0.6213451 0.49536222 -0.27521738 0.035954434 0.063679166 -0.29595748 -0.55147475
0.29947376 0.045376115 0.1432669 -0.099776015 0.0014937479 0.13267529 0.1568124 0.09642328
0.173488 -0.1500577 -0.33898517 -0.043935057 -0.33980078 -0.26594767 -0.1593805 0.055471905
-0.03744822 0.6224846 0.36593154 -0.2598707 0.03300868 0.5816271 -0.117991894 -0.15205228
-0.30339032 -0.0249495 0.025807803 -0.299071 0.19591694 -0.08329217 0.022241898 0.4644488
-0.054098673 -0.17109619 -0.22385252 0.011135035 0.23400606 0.24006216 0.27842465 0.16297787
-0.12127731 0.19240215 -0.1878055 0.08679299 0.22423221 -0.08993161 0.1963198 0.22663547
0.03721765 0.014607058 0.24562834 0.41514906 0.5983904 0.24187562 0.02707034 -0.3985594
-0.13010176 -0.21874578 0.23700538 -0.23981053 0.08451107 0.12942676 0.26391378 0.114913054
-0.35398984 0.24532199 0.03724878 -0.034459967 -0.03327232 -0.6572315 -0.6154623 0.102333
-0.85648173 -0.90478265 -0.08862969 -0.37472188 0.36812723 0.2856488 0.20357302 -0.18541388
-0.16277917 0.09857521 -0.15140133 -0.48386675 -0.28734496 -0.028750021 -0.36951032 -0.4603406
0.28951484 0.024873812 0.23509966 -0.20536286 -0.06328809 0.023926064 -0.6610677 -0.26102343
0.01701733 -0.9148519 -0.24513128 -0.41831762 -0.5949842 -0.008777134 -0.7963071 -0.54375935
-0.3358438 -0.6064387 -0.17688602 -1.1021804 -0.32529008 -0.3219667 -0.22542946 -0.070851736
-0.22554262 -0.35152677 -0.42648706 -0.21358402 0.48777735 -0.8984195 0.4935762 -0.29757708
-0.95531696 0.13186294 -0.8162823 -0.26200593 0.104826905 -0.15838201 -0.36550698 0.1959132
0.41303286 -0.27783966 0.3843919 0.22884665 0.17449282 -0.3806521 -0.2204002 0.07135724
-0.027816977 0.0984723 -0.15814768 -0.1615842 -0.24747533 -0.01714432 -0.64261925 -0.7994388
0.22055055 0.32176787 -0.16817628 0.10596343 0.101669 -0.12139997 0.07149495 0.02285504
-0.21458958 0.06145163 0.08429845 -0.14711343 0.33809286 -0.749958 -0.3354262 -0.36015588
-0.33882794 -0.19935231 -0.2984143 -0.45202613 -0.20328818 0.10610926 0.040966954 0.44666645
0.0726135 -0.3329409 0.01087865 0.033169895 -0.24411833 -0.28989357 -0.28437263 -0.35609904
0.09615545 0.42520374 0.088612154 -0.17950296 0.03810251 0.821436 0.09390408 -0.4982696
-0.40609196 0.37386632 -0.45928434 0.92600614 0.27927065 -0.47077996 0.027877126 0.24666606
-0.06162408 -0.59154725 0.1016043 0.13901158 0.0044924826 0.1427016 0.23724838 -0.02140509
0.19677858 0.6862 -0.03822362 0.038333688 0.29909268 0.6477736 -0.4001178 0.30320308
-0.45727882 -0.46691096 0.47586033 0.15850028 -0.10106993 -0.34273422 0.25546736 -0.3453841
0.8598319 0.35051036 0.44082662 0.17121674 -0.2594563 0.5819878 -0.018655894 0.5082611
-0.11909627 -0.03944472 0.11647007 -0.110529415 0.6265714 0.46354067 -0.1330383 0.7386309
0.031095311 0.7146854 -0.056205045 -0.06996266 -0.067693256 -0.46160212 -0.16685654 -0.11275539
00000000: 2752 58bd 7068 df3d 329b 05bd 4efb 123e
00000010: 1a75 fd3e 174c e1bd 607e a03d accf 863e
00000020: 345a 643e 7910 1f3f 1ea0 fd3e 4be9 8cbe
00000030: f544 133d 396a 823d bd87 97be 732d 0dbf
00000040: a054 993e 4edc 393d 8fb4 123e 5e57 ccbd
00000050: ddc9 c33a 08dc 073e 6e93 203e 9279 c53d
00000060: d7a6 313e baa8 19be 778f adbe 3ff5 33bd
00000070: 5efa adbe 4b2a 88be a434 23be 8236 633d
00000080: 4e63 19bd 275b 1f3f 615b bb3e c60d 85be
00000090: 1c34 073d 83e5 143f bca5 f1bd 98b3 1bbe
000000a0: fa55 9bbe e562 ccbc e36a d33c d61f 99be
000000b0: 739e 483e 1695 aabd a434 b63c 3ccc ed3e
000000c0: 9296 5dbd d733 2fbe 9839 65be b96f 363c
000000d0: 499f 6f3e dbd2 753e ad8d 8e3e ace3 263e
000000e0: 3d60 f8bd 1205 453e 1650 40be 86c0 b13d
000000f0: 219d 653e 102e b8bd 0f08 493e 2113 683e
00000100: 8971 183d 7152 6f3c ff85 7b3e 6b8e d43e
00000110: 1d30 193f 3eae 773e 9ec2 dd3c fa0f ccbe
00000120: 6539 05be e5fe 5fbe 8ab1 723e e490 75be
00000130: 2414 ad3d 7388 043e b51f 873e 8957 eb3d
00000140: 283e b5be b035 7b3e 2d92 183d e525 0dbd
00000150: 8e48 08bd 5340 28bf f08e 1dbf f793 d13d
00000160: 6342 5bbf d69f 67bf 7c83 b5bd 8cdb bfbe
00000170: 2c7b bc3e 8f40 923e 7275 503e 23dd 3dbe
00000180: 95af 26be cde1 c93d f308 1bbe 62bd f7be
00000190: e11e 93be 2a85 ebbc 7530 bdbe c3b1 ebbe
000001a0: 4a3b 943e 2ac4 cb3c f7bd 703e a44a 52be
000001b0: 309d 81bd 9800 c43c bc3b 29bf dda4 85be
000001c0: ed67 8b3c bc33 6abf b203 7bbe ba2d d6be
000001d0: e250 18bf f8cd 0fbc c8da 4bbf d033 0bbf
000001e0: b8f3 abbe 913f 1bbf 9c21 35be 3f14 8dbf
000001f0: 6c8c a6be d2d8 a4be fbd6 66be b71a 91bd
00000200: a5f4 66be 51fb b3be 835c dabe c5b5 5abe
00000210: f4bd f93e d2fe 65bf 05b6 fc3e 065c 98be
00000220: a78f 74bf 1407 073e e0f7 50bf a425 86be
00000230: 7daf d63d e52e 22be bb23 bbbe 789d 483e
00000240: 0b79 d33e 0041 8ebe 04cf c43e c756 6a3e
00000250: 3fae 323e d5e4 c2be 97b0 61be bf23 923d
00000260: 6ee0 e3bc d8ab c93d 77f1 21be 5476 25be
00000270: 2c6a 7dbe 3f72 8cbc b282 24bf 05a8 4cbf
00000280: 01d8 613e c2be a43e 6736 2cbe 5b03 d93d
00000290: d637 d03d 8ca0 f8bd f26b 923d 7e3a bb3c
000002a0: 5fbd 5bbe b4b4 7b3d aaa4 ac3d e7a4 16be
000002b0: 821a ad3e 3ffd 3fbf fcbc abbe 5a66 b8be
000002c0: db7a adbe 0323 4cbe c2c9 98be f86f e7be
000002d0: c72a 50be d04f d93d f7cc 273d 77b1 e43e
000002e0: 63b6 943d 3b77 aabe 5d3c 323c 28dd 073d
000002f0: 28fa 79be ee6c 94be 4a99 91be 9d52 b6be
00000300: 26ed c43d 4eb4 d93e 4a7a b53d a0cf 37be
00000310: 6111 1c3d a149 523f c850 c03d 311d ffbe
00000320: 49eb cfbe 686b bf3e 5127 ebbe bd0e 6d3f
00000330: 90fc 8e3e 120a f1be 925e e43c 0796 7c3e
00000340: 8869 7cbd a46f 17bf ea15 d03d 0d59 0e3e
00000350: ad35 933b 5e20 123e 3df1 723e ba59 afbc
00000360: 5380 493e ceaa 2f3f 5f90 1cbd c903 1d3d
00000370: ad22 993e 7ed4 253f 3edc ccbe 6f3d 9b3e
00000380: 7320 eabe f40e efbe f7a3 f33e e64d 223e
00000390: c0fd cebd dc7a afbe 9ecc 823e 2fd6 b0be
000003a0: f21d 5c3f 1876 b33e 07b4 e13e 7153 2f3e
000003b0: 75d7 84be 27fd 143f 3fd4 98bc 661d 023f
000003c0: bfe8 f3bd c990 21bd dc87 ee3d 3f5d e2bd
000003d0: fc66 203f 3455 ed3e 313b 08be ea16 3d3f
000003e0: 98bb fe3c 9ff5 363f 4337 66bd 9548 8fbd
000003f0: c3a2 8abd 1d57 ecbe 71dc 2abe 4cec e6bd

encoder.lstm.weight_hh_l0 f4 [256, 64]
-0.03257156 -0.18189329 0.5331532 -0.37102154 -0.07630739 0.4213999 -0.17149211 -0.09624401
0.44183305 0.63119763 0.088357486 0.57081485 -0.5132809 -0.21912956 0.26177585 0.12067994
0.5247886 -0.13356645 0.20735013 0.0104421945 -0.34852552 -0.121237956 -0.056763288 0.24127765
-0.09224337 -0.27737287 -0.20512211 0.15036817 -0.3656726 0.18754674 -0.26696083 0.18537961
0.32823128 0.36087906 -0.33033827 0.1554468 -0.28757703 0.1963629 -0.1385452 -0.18032387
-0.001752848 -0.21503118 -0.10993101 -0.11975171 0.10970363 0.2549205 0.229578 0.2625922
-0.10155398 -0.32436273 -0.15647869 0.68432873 0.16995755 -0.40439186 0.3231562 -0.26091355
0.010881405 0.3172824 -0.18310629 0.18118286 -0.27588147 0.17692877 -0.3611568 0.26867867
-0.37452066 -0.13630101 0.3534607 -0.4180168 -0.3370777 0.71175003 -0.11034028 0.23745446
0.29734388 -0.08079951 0.2306951 -0.13714828 0.17483571 -0.07892292 0.2966218 -0.4406531
0.24825805 0.24993752 -0.27803388 -0.078069754 -0.139222 0.39880815 0.3437622 0.5094621
-0.0051040496 -0.18527865 0.08664797 0.042890318 -0.5707585 0.28724343 0.09356154 0.2650837
0.046569437 -0.50492495 -0.5042724 -0.061673235 0.01874879 0.087997414 -0.48748732 -0.0805116
0.085357964 -0.21146654 -0.41704804 0.02914468 -0.19376226 -0.016658338 0.14625 0.0185077
0.43036214 -0.010908774 -0.40491906 0.45353472 -0.050893955 0.30943614 -0.097981684 0.3303838
-0.25050497 -0.32496127 -0.051954567 0.641322 -0.70251906 0.03059161 -0.22018297 0.50055635
-0.14665641 0.12755765 0.345762 0.14579935 -0.35329348 -0.38631848 0.28291404 0.01927584
0.20107913 0.0874223 -0.04717863 0.20597848 -0.17094912 -0.34351596 -0.41962996 0.16345197
-0.20031202 0.35819224 -0.56177384 -0.059989613 0.6881931 -0.6288233 -0.051693976 -0.23409055
-0.28220063 -0.107856266 0.39511845 0.021636156 -0.11903273 0.15164492 0.2809577 -0.20172103
-0.11272028 0.47074515 0.0073123192 0.009454864 0.1615655 -0.4073065 0.22433402 0.19053715
0.16303165 -0.23148279 0.25858274 -0.047661707 0.0299842 0.55393684 -0.077520534 0.32030436
-0.31348327 0.01931906 -0.12502249 0.20424268 -0.21670444 -0.2277057 -0.15207048 0.15023686
0.028611092 0.27480108 0.134476 0.21720584 -0.043690305 0.42362952 0.27342018 -0.10172684
0.07679913 0.25589773 -0.259866 0.18315654 0.06576121 -0.41161963 0.1593723 0.7375222
0.0033094515 0.09742375 0.13444956 0.4543583 -0.28494146 -0.18424001 0.010667077 0.054876387
-0.23232907 -0.18577386 0.06908789 -0.21596412 -0.18036924 -0.438477 0.79494345 -0.072370365
0.09197737 0.14103591 0.09081001 -0.17938633 0.18229331 0.12408626 0.05795321 0.4123689
0.5851871 -0.017317282 0.23128997 0.1899837 0.21447074 -0.06486168 0.3640667 0.33786273
0.057159703 0.038886826 0.24917778 -0.25021002 -0.07851033 -0.16442585 0.08341081 0.38340363
0.09172111 0.2585195 0.07399195 -0.11562558 -0.15779723 0.18914022 -0.54546463 0.13383438
-0.14391558 0.23201075 0.10050282 -0.20491914 -0.12776747 -0.14219517 0.07279211 0.19749382
00000000: c269 05bd 3c42 3abe ba7c 083f 89f6 bdbe
00000010: 0d47 9cbd bac1 d73e a19b 2fbe 941b c5bd
00000020: f137 e23e 2b96 213f c5f4 b43d ec20 123f
00000030: 6166 03bf 8063 60be 7c07 863e 0b27 f73d
00000040: 8c58 063f a5c5 08be 9853 543e bd15 2b3c
00000050: f071 b2be 9b4b f8bd 9f80 68bd 7d11 773e
00000060: 18ea bcbd d103 8ebe 880b 52be 1dfa 193e
00000070: 7039 bbbe 410c 403e 17af 88be 27d4 3d3e
00000080: ee0d a83e 24c5 b83e 1922 a9be 722d 1f3e
00000090: 4c3d 93be 5b13 493e cbde 0dbe d2a6 38be
000000a0: d2bf e5ba 2231 5cbe 8223 e1bd 6240 f5bd
000000b0: 4cac e03d f184 823e 7f16 6b3e 7c72 863e
000000c0: 88fb cfbd df12 a6be f33b 20be 2b30 2f3f
000000d0: 5a09 2e3e 730c cfbe bb74 a53e 7696 85be
000000e0: ec47 323c d772 a23e 3780 3bbe 0088 393e
000000f0: 5640 8dbe d12c 353e 8be9 b8be 4090 893e
00000100: 2cc1 bfbe 7e92 0bbe cdf8 b43e 4c06 d6be
00000110: 7395 acbe 4035 363f 16fa e1bd 4327 733e
00000120: 753d 983e 377a a5bd 563b 6c3e 9970 0cbe
00000130: 2208 333e 57a2 a1bd d0de 973e 489d e1be
00000140: 5c37 7e3e 9fef 7f3e 755a 8ebe 09e3 9fbd
00000150: 3690 0ebe 9530 cc3e 9901 b03e 1c6c 023f
00000160: df3f a7bb b0b9 3dbe 7e74 b13d c2ad 2f3d
00000170: 3b1d 12bf 9211 933e 319d bf3d 0db9 873e
00000180: 98bf 3e3d c342 01bf ff17 01bf 139d 7cbd
00000190: 1097 993c fd37 b43d f097 f9be 44e3 a4bd
000001a0: 28d0 ae3d af8a 58be 5287 d5be d3c0 ee3c
000001b0: 9d69 46be 1177 88bc 8fc2 153e 769d 973c
000001c0: 6d58 dc3e b7ba 32bc 8d51 cfbe b435 e83e
000001d0: 2e76 50bd 6a6e 9e3e 9faa c8bd 1128 a93e
000001e0: 3042 80be 5361 a6be 50ce 54bd ae2d 243f
000001f0: 4ad8 33bf 429b fa3c a577 61be 7624 003f
00000200: 192d 16be 799e 023e b807 b13e 6d4c 153e
00000210: e2e2 b4be 89cb c5be 1cda 903e 5ee8 9d3c
00000220: b0e7 4d3e 760a b33d 613e 41bd 06ec 523e
00000230: 490d 2fbe 53e1 afbe bdd9 d6be f45f 273e
00000240: 981e 4dbe f964 b73e 69d0 0fbf abb7 75bd
00000250: 6c2d 303f 90fa 20bf 10bd 53bd 6fb5 6fbe
00000260: 9a7c 90be bfe3 dcbd f74c ca3e 4f3e b13c
00000270: 6fc7 f3bd ce48 1b3e b0d9 8f3e f58f 4ebe
00000280: e4d9 e6bd 8205 f13e 2e9c ef3b 93e8 1a3c
00000290: 6d71 253e 7a8a d0be d1b7 653e 2c1c 433e
000002a0: c5f1 263e d309 6dbe f564 843e ec38 43bd
000002b0: 6da1 f53c cece 0d3f 16c3 9ebd effe a33e
000002c0: e180 a0be 0143 9e3c e505 00be fe24 513e
000002d0: c5e7 5dbe af2b 69be 5db8 1bbe b1d7 193e
000002e0: cf61 ea3c bab2 8c3e 14b4 093e 356b 5e3e
000002f0: 9bf4 32bd f8e5 d83e bbfd 8b3e 2956 d0bd
00000300: dd48 9d3d 0705 833e 280d 85be 638d 3b3e
00000310: d0ad 863d cfbf d2be 7e32 233e 41ce 3c3f
00000320: 62e3 583b 1a86 c73d 25ad 093e a7a1 e83e
00000330: d9e3 91be 6aa9 3cbe f7c4 2e3c 10c6 603d
00000340: ace7 6dbe 813b 3ebe f47d 8d3d b325 5dbe
00000350: b7b2 38be 0f80 e0be 6a81 4b3f ea36 94bd
00000360: a25e bc3d b86b 103e 99fa b93d 0db1 37be
00000370: 19ab 3a3e f020 fe3d 5860 6d3d 0422 d33e
00000380: d2ce 153f f9dc 8dbc 47d7 6c3e 168b 423e
00000390: 389e 5b3e 33d6 84bd f366 ba3e 58fc ac3e
000003a0: 4b20 6a3d cb47 1f3d 7628 7f3e 871b 80be
000003b0: 06ca a0bd 405f 28be 49d3 aa3d 7b4d c43e
000003c0: 47d8 bb3d ab5c 843e 1789 973d 1bcd ecbd
000003d0: 9995 21be f9ad 413e 92a3 0bbf e10b 093e
000003e0: 9b5e 13be 3a94 6d3e 6cd4 cd3d 53d6 51be
000003f0: 7ad5 02be 9c9b 11be 0814 953d d23b 4a3e

encoder.lstm.bias_ih_l0 f4 [256]
0.10563694 0.17926116 0.07308173 0.12425763 0.51572895 -0.00041770074 0.04781652 0.0023474407
-0.084596924 0.17965186 0.09218574 -0.45786408 -0.20994334 -0.24297187 0.00908395 -0.23539814
0.4189541 -0.21425402 0.18742809 -0.1898523 0.03250317 -0.42175832 0.17799145 -0.0076057105
0.5918457 0.13011667 0.08134998 0.207139 0.14491639 0.34236836 0.09955454 0.4603096
-0.054434363 -0.04576136 -0.22508672 0.48121998 -0.026080988 0.22115402 0.035489064 -0.16523373
-0.35107997 0.09239501 0.022536464 0.2528956 0.119995184 -0.11806604 -0.1307581 -0.263074
0.49674046 -0.06890286 -0.140008 -0.20066127 0.055137765 0.29325968 -0.14170352 -0.1092621
-0.18562612 0.00074768235 0.067937426 0.027153118 0.46832064 -0.33041126 -0.4075525 0.15385555
0.08135986 -0.30556777 0.3661789 -0.17752257 0.07305629 -0.08441415 0.0705451 0.06553051
0.5684823 0.18307842 0.52379674 0.0038906334 0.047205873 0.09378428 0.079129055 0.26451793
0.42666736 0.17030747 0.13331032 -0.016533649 0.087452486 0.0049449475 -0.007734022 -0.090092316
-0.14715664 0.25906974 0.1885025 0.1993387 0.04977695 0.21215695 0.022917153 -0.0064167744
0.22309409 -0.10462086 0.1925956 0.19595027 0.23534812 0.34723273 -0.04574726 0.2582792
0.13938247 0.21673761 0.007621108 0.34256443 -0.0843742 -0.15980865 0.0099251075 -0.03718175
0.3670909 0.39070433 0.087483004 -0.008345035 -0.032443188 0.26969662 0.29392534 0.2385592
0.26018184 0.8230266 0.47024953 0.07561486 0.3346872 -0.057483062 -0.053650968 0.15010467
-0.0154854255 -0.19367959 0.2654772 -0.048698742 -0.003135728 -0.1327512 0.04126546 0.10003867
-0.018234521 0.03265631 0.25898606 -0.111965224 -0.015300853 -0.056214377 -0.058586508 -0.17631796
0.0035151993 -0.12230482 -0.18021078 -0.48603037 0.017133897 0.043968357 0.0076684 -0.033774633
0.17060076 0.18402682 0.0828955 0.05220182 -0.29415625 0.085750766 0.09794103 0.043426737
0.09499306 -0.1806987 -0.16674568 -0.08228195 0.12084888 0.028159643 0.09563613 -0.11394
0.12452715 -0.009109616 0.23575239 0.065465674 -0.108118504 0.1039592 -0.12286027 0.25072336
0.030017082 0.15553495 0.12111722 0.2441726 0.29379 0.21264566 -0.17512111 0.09783582
-0.058701776 0.010735206 -0.1001372 -0.026093865 -0.24111354 0.18763441 -0.2577868 0.084797
0.13798508 0.025184704 -0.023712631 0.039639644 0.49661705 -0.09143178 -0.41708568 0.06364437
0.25326532 0.049135614 0.14125723 0.011299318 -0.17162015 0.36828542 0.09643318 0.05521422
0.061998177 -0.43447638 0.58019865 0.2081719 0.073268704 -0.07574953 0.5360163 -0.1040155
0.25017664 0.23613562 -0.20740978 0.096602425 -0.14885136 -0.0031345184 -0.123241216 0.13108313
-0.04167868 0.5711895 -0.08520755 0.31351477 -0.17305872 -0.033143703 -0.48729846 -0.31807435
0.11281629 0.018646646 -0.11664778 0.11021337 -0.13914716 -0.085289344 -0.031966787 -0.032960508
-0.029580673 -0.1985661 -0.23244233 -0.3077097 -0.06256568 0.2594578 0.27868974 0.095543854
0.35052627 0.071534276 0.335761 -0.18254623 0.22491084 -0.12285795 -0.35951832 0.03647627
00000000: 2e58 d83d 3d90 373e e0ab 953d c97a fe3d
00000010: d006 043f d8fe dab9 41db 433d 85d7 193b
00000020: 2741 adbd a8f6 373e e1cb bc3d 296d eabe
00000030: 63fb 56be 9ecd 78be d9d4 143c 360c 71be
00000040: 2781 d63e 6865 5bbe 26ed 3f3e a468 42be
00000050: 0b22 053d b5f0 d7be 6443 363e 5339 f9bb
00000060: 3383 173f 4e3d 053e d19a a63d 3f1c 543e
00000070: f664 143e e84a af3e 40e3 cb3d b3ad eb3e
00000080: 91f6 5ebd 4470 3bbd 227d 66be 7762 f63e
00000090: cca7 d5bc 3376 623e fb5c 113d 0833 29be
000000a0: c1c0 b3be 9839 bd3d 649e b83c 887b 813e
000000b0: 09c0 f53d 9ccc f1bd 74e5 05be a3b1 86be
000000c0: c454 fe3e f11c 8dbd 425e 0fbe 267a 4dbe
000000d0: 23d8 613d 2226 963e ba1a 11be cfc4 dfbd
000000e0: c614 3ebe 1d00 443a c722 8b3d 3770 de3c
000000f0: b9c7 ef3e aa2b a9be b9aa d0be 4f8c 1d3e
00000100: 00a0 a63d 6173 9cbe cd7b bb3e 7ac8 35be
00000110: 899e 953d 53e1 acbd f379 903d dc34 863d
00000120: 0e88 113f e978 3b3e 8b17 063f fff9 7e3b
00000130: f25a 413d f911 c03d 6a0e a23d e56e 873e
00000140: 2574 da3e 1565 2e3e 8082 083e 9371 87bc
00000150: 4a1a b33d 3a09 a23b ae6d fdbb 5282 b8bd
00000160: 3bb0 16be caa4 843e cd06 413e 721f 4c3e
00000170: eae2 4b3d ac3f 593e c1bc bb3c ce43 d2bb
00000180: c772 643e 7643 d6bd c837 453e 30a7 483e
00000190: 19ff 703e 7dc8 b13e 7b61 3bbd 2c3d 843e
000001a0: 47ba 0e3e 77f0 5d3e 7dba f93b 9b64 af3e
000001b0: 61cc acbd e1a4 23be eb9c 223c e44b 18bd
000001c0: 57f3 bb3e 660a c83e 4a2a b33d 9db9 08bc
000001d0: 26e3 04bd ad15 8a3e 627d 963e dd48 743e
000001e0: 8e36 853e dfb1 523f 8cc4 f03e f7db 9a3d
000001f0: 1f5c ab3e 5c73 6bbd 1ec1 5bbd 0ab5 193e
00000200: 95b6 7dbc f153 46be a1ec 873e 5578 47bd
00000210: c980 4dbb eeef 07be f905 293d 13e1 cc3d
00000220: 9060 95bc 9fc2 053d d299 843e 064e e5bd
00000230: 6eb0 7abc 0c41 66bd 68f8 6fbd b28c 34be
00000240: 425f 663b f37a fabd 2d89 38be f9d8 f8be
00000250: 635c 8c3c 2a18 343d 3447 fb3b 4557 0abd
00000260: f7b1 2e3e 8771 3c3e 1ec5 a93d 93d1 553d
00000270: a69b 96be 199e af3d 4f95 c83d 3ce0 313d
00000280: b98b c23d 1409 39be 61bf 2abe 7083 a8bd
00000290: 9e7f f73d 0daf e63c e0dc c33d 6059 e9bd
000002a0: 1708 ff3d 8040 15bc 1369 713e de12 863d
000002b0: 3c6d ddbd 90e8 d43d 2a9e fbbd d05e 803e
000002c0: 62e6 f53c 8e44 1f3e 4e0c f83d 6208 7a3e
000002d0: a56b 963e c9bf 593e f352 33be 255e c83d
000002e0: 4671 70bd b8e2 2f3c bb14 cdbd cdc2 d5bc
000002f0: 78e6 76be 3c23 403e a2fc 83be 0daa ad3d
00000300: f64b 0d3e 2750 ce3c fe40 c2bc 2e5d 223d
00000310: 9744 fe3e 9640 bbbd 418c d5be fb57 823d
00000320: feab 813e 6d42 493d bca5 103e c620 393c
00000330: 31bd 2fbe e88f bc3e c27e c53d 4e28 623d
00000340: cdf1 7d3d b073 debe e687 143f 042b 553e
00000350: e70d 963d 9222 9bbd 5d38 093f 1406 d5bd
00000360: 2717 803e 89cd 713e 3b63 54be 7ed7 c53d
00000370: 7e6c 18be 7e6c 4dbb e465 fcbd a83a 063e
00000380: 43b7 2abd 7a39 123f 4c81 aebd 0285 a03e
00000390: 4e36 31be b1c1 07bd 2f7f f9be a4da a2be
000003a0: 3a0c e73d dac0 983c 08e5 eebd 8cb7 e13d
000003b0: 987c 0ebe 2eac aebd 9bef 02bd 9901 07bd
000003c0: 2b53 f2bc e954 4bbe 5d05 6ebe 208c 9dbe
000003d0: 6f22 80bd a7d7 843e 6cb0 8e3e 7fac c33d
000003e0: 2e78 b33e 9080 923d dee8 ab3e 66ed 3abe
000003f0: 074f 663e f39c fbbd c912 b8be 2468 153d

encoder.lstm.bias_hh_l0 f4 [256]
0.20722644 0.28654113 -0.018677788 0.13966872 0.4608807 -0.0747684 0.12068712 -0.11984641
-0.23518685 -0.04538567 -0.039117742 -0.36615258 -0.07075785 -0.31535777 0.0063597844 -0.19483435
0.2662223 -0.10481325 0.19291016 -0.060022928 -0.06902023 -0.4224841 0.24667752 -0.10057533
0.631499 0.1138465 0.16114163 0.27412912 -0.034055233 0.11070042 0.25364277 0.27954406
-0.03947609 -0.055510204 -0.16358905 0.43190217 -0.033997282 0.3553954 -0.043232918 -0.13506414
-0.24406393 0.076547265 0.054893095 0.2887176 0.09596994 -0.12826903 -0.08433116 -0.31879997
0.4843883 -0.11252322 -0.10261676 -0.10062048 0.054125827 0.22324032 -0.10746885 -0.2244621
-0.23999892 -0.15982985 0.12506858 -0.18202278 0.66931206 -0.26602003 -0.34986377 0.3209926
0.052055277 -0.29750925 0.4816313 0.033418488 0.18996833 -0.10841872 0.07729505 0.019858722
0.4333467 0.20229751 0.56835127 0.03675758 0.10683582 0.06401929 -0.041260157 0.3364402
0.45534155 0.2705183 0.2043735 0.15607473 -0.0102018975 0.088535525 0.017225837 -0.11347251
-0.24168229 0.06347516 0.2289156 0.34226817 0.037308905 0.16720915 0.04495411 -0.018052418
0.1356211 -0.34175846 -0.025578571 0.18082851 0.36639944 0.16529267 0.029883778 0.2756152
0.091611855 0.124711454 0.11901101 0.16961811 0.026584296 0.0016957992 0.20555462 -0.05732265
0.46902257 0.3423141 0.05092818 -0.10654346 0.0017088888 0.17801563 0.21947634 0.2679655
0.14427415 0.8783369 0.5309331 0.087173775 0.32214063 -0.094134904 -0.029615425 0.2828095
0.10777255 -0.24942857 0.17346749 0.003807383 -0.09233887 -0.1323947 -0.0986569 0.21259809
0.045365978 0.10724936 0.25631183 -0.085474625 0.14294063 -0.039702058 -0.0025756322 -0.07216094
0.1457483 -0.13778871 -0.021395834 -0.41647983 -0.09253508 -0.12646727 0.077622674 0.14578977
0.028486455 0.073114805 0.078386806 -0.124127775 -0.2370603 0.3050625 0.20418899 0.024608294
0.10336729 -0.09413612 -0.267554 0.024723914 0.09800932 0.23980598 0.08570861 -0.11058276
0.09921512 0.1090364 0.13582256 0.026628472 -0.024043676 0.195562 -0.084701955 0.21392733
-0.041466873 0.17295255 0.018304793 0.010383767 0.22003645 0.27127695 -0.18645807 0.02253779
-0.09373953 -0.04871505 -0.039229624 0.0139764715 -0.29509386 0.18388529 -0.21104234 0.24781287
0.029160302 0.07121841 0.10902506 0.06707388 0.501975 -0.13812414 -0.28404143 0.14256267
0.19092654 0.05636232 0.063292265 -0.08622015 -0.01059423 0.2953238 0.30284378 0.12202145
0.15375698 -0.30736488 0.54608387 0.0916611 0.06309537 -0.08291521 0.4822892 -0.02139139
0.31083643 0.23908278 0.019273376 -0.010080656 -0.26608756 -0.032302104 -0.035840124 0.25983927
0.011189471 0.43068025 -0.12199998 0.39304978 -0.18060493 0.05182335 -0.4362616 -0.30684072
0.1709206 0.058004837 -0.2719467 0.17694522 -0.22516318 -0.12283591 -0.0455254 0.0065414985
0.15171689 -0.03040608 -0.23626493 -0.13664293 -0.117092885 0.43716437 0.28409284 -0.03138098
0.35864368 0.0807916 0.22396715 -0.1069592 0.28028893 -0.023782443 -0.3977881 -0.13528493
00000000: 2b33 543e 85b5 923e 2902 99bc 5105 0f3e
00000010: 8ef8 eb3e 2d20 99bd cf2a f73d 0972 f5bd
00000020: d2d4 70be 53e6 39bd ed39 20bd 5a78 bbbe
00000030: 7ee9 90bd 9376 a1be bd65 d03b a882 47be
00000040: 4a4e 883e 54a8 d6bd 3e8a 453e 9ada 75bd
00000050: 7a5a 8dbd d64f d8be 0899 7c3e 70fa cdbd
00000060: eba9 213f 5b28 e93d 5002 253e a75a 8c3e
00000070: 807d 0bbd e7b6 e23d 77dd 813e 6620 8f3e
00000080: aeb1 21bd ab5e 63bd e383 27be 4822 dd3e
00000090: bc40 0bbd 63f6 b53e 0015 31bd 414e 0abe
000000a0: e5eb 79be d0c4 9c3d 95d7 603d cbd2 933e
000000b0: e38b c43d f558 03be d1b5 acbd c039 a3be
000000c0: be01 f83e 9372 e6bd bc28 d2bd 1c12 cebd
000000d0: 0bb3 5d3d 1c99 643e a118 dcbd 65d9 65be
000000e0: 47c2 75be 70aa 23be fa11 003e 2e64 3abe
000000f0: 0958 2b3f c733 88be 5821 b3be 2459 a43e
00000100: ea37 553d 2253 98be 6198 f63e d3e1 083d
00000110: 0f87 423e a20a debd de4c 9e3d c2ae a23c
00000120: 9edf dd3e 1427 4f3e 787f 113f 1e8f 163d
00000130: bdcc da3d 8c1c 833d 6900 29bd e441 ac3e
00000140: 8722 e93e 6081 8a3e 4947 513e 0ed2 1f3e
00000150: dc25 27bc 1d52 b53d 331d 8d3c 4664 e8bd
00000160: 907b 77be 44ff 813d da68 6a3e c63d af3e
00000170: 39d1 183d e038 2b3e cd21 383d aae2 93bc
00000180: 42e0 0a3e f7fa aebe 278a d1bc 1c2b 393e
00000190: b598 bb3e 7b42 293e d3ce f43c 6f1d 8d3e
000001a0: ff9e bb3d b868 ff3d 0bbc f33d 5fb0 2d3e
000001b0: 4fc7 d93c 9445 de3a e97c 523e 28cb 6abd
000001c0: ba23 f03e cb43 af3e 119a 503d 7533 dabd
000001d0: cbfc df3a bb49 363e 68be 603e c632 893e
000001e0: 9abc 133e b0da 603f 3beb 073f 2a88 b23d
000001f0: 9eef a43e cdc9 c0bd 0c9c f2bc 68cc 903e
00000200: dbb7 dc3d 346a 7fbe 76a1 313e 4985 793b
00000210: 291c bdbd 7a92 07be a10c cabd 50b3 593e
00000220: add1 393d 8da5 db3d 4e3b 833e 520d afbd
00000230: 075f 123e a09e 22bd f0cb 28bb 1dc9 93bd
00000240: 0b3f 153e 7c18 0dbe 5146 afbc d83c d5be
00000250: 0883 bdbd a380 01be a3f8 9e3d ea49 153e
00000260: 6d5c e93c 37bd 953d 4389 a03d b436 febd
00000270: efbf 72be 2731 9c3e eb16 513e 5597 c93c
00000280: 3bb2 d33d 70ca c0bd d6fc 88be ce89 ca3c
00000290: 1cb9 c83d b38f 753e ff87 af3d 3779 e2bd
000002a0: 4c31 cb3d 7a4e df3d 1215 0b3e f423 da3c
000002b0: 3ef7 c4bc 6841 483e 3878 adbd c40f 5b3e
000002c0: 2bd9 29bd 791a 313e eff3 953c ad20 2a3c
000002d0: 3c51 613e d0e4 8a3e ddee 3ebe 2ca1 b83c
000002e0: 83fa bfbd 6f89 47bd 3eaf 20bd 92fd 643c
000002f0: 8b16 97be 6d4c 3c3e 7c1b 58be a8c2 7d3e
00000300: 96e1 ee3c f5da 913d 8848 df3d 085e 893d
00000310: 6f81 003f 6a70 0dbe e16d 91be f3fb 113e
00000320: 3f82 433e 2ddc 663d 609f 813d 3194 b0bd
00000330: 6c93 2dbc ae34 973e 570e 9b3e 62e6 f93d
00000340: 7872 1d3e ee5e 9dbe 27cc 0b3f d1b8 bb3d
00000350: 2538 813d 73cf a9bd 9cee f63e ff3c afbc
00000360: f425 9f3e 1ed2 743e 33e3 9d3c 5629 25bc
00000370: a13c 88be 364f 04bd 18cd 12bd a709 853e
00000380: 0b54 373c 1f82 dc3e 20db f9bd d23d c93e
00000390: 80f0 38be b944 543d ae5d dfbe 3a1a 9dbe
000003a0: cf05 2f3e 7b96 6d3d 993c 8bbe 2131 353e
000003b0: 2d91 66be 6591 fbbd d878 3abd 115a d63b
000003c0: ac5b 1b3e 2c16 f9bc 6fef 71be 20ec 0bbe
000003d0: 65ce efbd 02d4 df3e 9e74 913e 5889 00bd
000003e0: 25a0 b73e 1176 a53d a557 653e 6d0d dbbd
000003f0: 0882 8f3e 66d3 c2bc e2aa cbbe 2288 0abe

encoder.lstm.weight_ih_l1 f4 [256, 64]
0.1594996 0.37842143 -0.06685408 0.15871818 -0.055299696 -0.13421358 -0.2921634 0.08721557
-0.12475994 0.19482556 -0.027155811 -0.23412593 0.17770647 0.11864681 -0.045031816 0.108024694
0.008631788 -0.0810222 0.46306372 0.25728208 0.18294422 0.33613062 0.12941973 0.5596868
-0.39998898 0.31417382 0.3938397 0.3831191 -0.19084632 -0.36530212 0.3602571 -0.20863843
0.2786041 0.09068815 0.7237156 -0.3650965 0.31929845 -0.2726543 -0.08822302 0.04991902
-0.25430802 -0.06678825 0.62596786 0.12319469 -0.94102776 -0.06552815 0.1440943 -0.39039788
0.09103068 0.17571391 -0.012315117 0.00087011483 -0.22666651 -0.16964456 -0.25930703 0.060051814
0.047848266 0.18862773 -0.25780636 -0.09284824 -0.07443936 -0.014676279 -0.15190795 -0.051697485
0.38385102 -0.03692687 0.14823364 0.5392819 0.0038270846 -0.34928456 -0.37056735 -0.05969449
0.57237905 0.119400136 0.6075881 0.10177105 0.064954214 0.36983547 0.053313814 0.27531
-0.12807618 -0.257084 0.0026993253 0.07104188 -0.08899151 -0.31352857 0.21621603 -0.4127696
-0.41030872 0.21785682 0.22271165 -0.11835765 0.053064164 0.36734968 0.10780369 0.20842633
-0.2526879 0.101030566 0.47197485 -0.00032553414 0.32870972 0.069058016 0.08837998 0.0559899
-0.4704819 0.13968483 0.4983217 0.31060004 -0.008045221 -0.08166677 0.063410014 -0.10180479
-0.16007754 0.8330006 -0.17650613 -0.198263 0.2184469 -0.4132351 0.0816973 0.33849227
0.7832426 0.27656275 0.17533447 -0.18188259 -0.46902838 0.14537399 0.04781844 0.27064922
0.29208738 -0.1343963 -0.14390633 0.016692033 0.04545808 -0.19992712 0.345866 -0.13083903
-0.019802444 0.28586057 -0.17814182 0.16956197 -0.19056278 0.6965591 0.088225074 -0.9101768
-0.21155143 -0.41377893 -0.23795535 -0.06435203 -0.013260269 0.15370654 -0.18430787 -0.32960632
-0.059554372 0.390161 0.63920856 -0.2793551 0.23681915 0.061642632 -0.02413516 0.1015821
-0.0025855415 -0.066634916 -0.16611953 -0.15905692 -0.11158213 0.058479756 -0.06216944 0.069482416
0.08339328 -0.23031908 0.5036553 0.1383709 -0.40373456 0.025482701 0.047518767 0.24399152
0.18897381 -0.03547273 -0.22910836 -0.14399531 -0.23058046 0.3831698 -0.2891032 0.4498999
0.2256985 -0.46704876 0.5983231 -0.112394646 -0.032085 0.06445531 0.21416807 -0.06463021
0.23683074 0.44482657 -0.22632384 -0.3281756 0.29613796 -0.10591961 0.43858644 -0.06374127
-0.25686604 -0.2111204 -0.04938283 0.0487695 -0.2290696 -0.11274059 0.0010546985 -0.15657493
-0.26377764 0.2856434 0.30895457 0.24916558 0.0938869 0.14922412 0.06437018 0.069879234
0.20662944 0.20145404 0.31254366 -0.088493474 0.0029126403 -0.29583508 0.5370905 -0.32951063
0.25976065 0.45963967 0.36607295 -0.10849164 -0.08096567 -0.28612742 0.3284825 0.02102713
-0.52547497 0.34762365 0.02999666 0.1191799 -0.37014565 -0.28069845 -0.10231464 -0.01633735
-0.26024097 -0.20352307 0.19204696 -0.25258398 0.30700934 0.010748459 0.035791226 0.40242678
0.34901497 -0.290042 -0.0687756 0.19923401 0.22787994 -0.3404386 -0.3417431 -0.0013736865
00000000: dd53 233e 74c0 c13e cbea 88bd 0587 223e
00000010: ef81 62bd 496f 09be 7196 95be 149e b23d
00000020: 2482 ffbd 5a80 473e dd75 debc b5be 6fbe
00000030: aff8 353e 19fd f23d 4873 38bd 0d3c dd3d
00000040: 586c 0d3c f8ee a5bd b016 ed3e 7aba 833e
00000050: bb55 3b3e 5019 ac3e 9b86 043e a247 0f3f
00000060: 5bcb ccbe 64db a03e 5ba5 c93e 3028 c43e
00000070: 386d 43be e108 bbbe 9e73 b83e 50a5 55be
00000080: 32a5 8e3e b5ba b93d 6d45 393f eeed babe
00000090: 167b a33e 5899 8bbe 45ae b4bd e377 4c3d
000000a0: a934 82be 47c8 88bd 6e3f 203f 7f4d fc3d
000000b0: 32e7 70bf 9f33 86bd 758d 133e 3be2 c7be
000000c0: 4b6e ba3d 59ee 333e 58c5 49bc 6b18 643a
000000d0: 441b 68be 4eb7 2dbe e4c3 84be e4f8 753d
000000e0: 8bfc 433d a127 413e 32ff 83be 3827 bebd
000000f0: aa73 98bd c774 70bc c28d 1bbe bec0 53bd
00000100: 1f88 c43e a140 17bd 8fca 173e 610e 0a3f
00000110: d3cf 7a3b 6dd5 b2be 01bb bdbe 3682 74bd
00000120: 6f87 123f 0f88 f43d e58a 1b3f 576d d03d
00000130: b706 853d 135b bd3e 965f 5a3d 6ff5 8c3e
00000140: 6726 03be 84a0 83be 2ae7 303b 687e 913d
00000150: 2e41 b6bd d186 a0be bc67 5d3e 8956 d3be
00000160: fc13 d2be dc15 5f3e 860e 643e 7f65 f2bd
00000170: cf59 593d 4215 bc3e 2ec8 dc3d b66d 553e
00000180: 4f60 81be 1de9 ce3d b0a6 f13e 74ac aab9
00000190: a44c a83e 4a6e 8d3d 9000 b53d aa55 653d
000001a0: 01e3 f0be 8a09 0f3e 0624 ff3e f806 9f3e
000001b0: 1ad0 03bc e840 a7bd 1cdd 813d 087f d0bd
000001c0: 5eeb 23be 873f 553f 06be 34be 7505 4bbe
000001d0: 8bb0 5f3e 8d93 d3be ea50 a73d dc4e ad3e
000001e0: 9682 483f a299 8d3e e18a 333e 6e3f 3abe
000001f0: 7d24 f0be ebdc 143e 45dd 433d 8992 8a3e
00000200: 7a8c 953e 2f9f 09be 2e5c 13be bbbd 883c
00000210: 4032 3a3d b2b9 4cbe 5915 b13e abfa 05be
00000220: bc38 a2bc 515c 923e cf6a 36be a7a1 2d3e
00000230: e422 43be b251 323f 59af b43d 5901 69bf
00000240: f0a0 58be d5da d3be 91aa 73be ffca 83bd
00000250: 9941 59bc 3f65 1d3e 34bb 3cbe 29c2 a8be
00000260: 49ef 73bd 2fc3 c73e 2ca3 233f a207 8fbe
00000270: b880 723e fc7c 7c3d 19b7 c5bc 470a d03d
00000280: 3072 29bb e377 88bd 3d1b 2abe d1df 22be
00000290: 2c85 e4bd 7888 6f3d 62a5 7ebd cc4c 8e3d
000002a0: 19ca aa3d c4d8 6bbe 8eef 003f 1ab1 0d3e
000002b0: 4cb6 cebe 19c1 d03c 0aa3 423d ead8 793e
000002c0: 5a82 413e da4b 11bd 629b 6abe 8273 13be
000002d0: 491d 6cbe d52e c43e 5605 94be 4859 e63e
000002e0: 821d 673e 0421 efbe b42b 193f 2a2f e6bd
000002f0: 906b 03bd 2501 843d e04e 5b3e d85c 84bd
00000300: c283 723e 4fc0 e33e 70c1 67be a206 a8be
00000310: 659f 973e 61ec d8bd 678e e03e c88a 82bd
00000320: f283 83be f22f 58be a645 4abd 87c2 473d
00000330: 3991 6abe 8ae4 e6bd cf3d 8a3a 2e55 20be
00000340: dd0d 87be da3f 923e 4b2f 9e3e 4325 7f3e
00000350: c647 c03d 35ce 183e 83d4 833d d81c 8f3d
00000360: ab96 533e f849 4e3e b905 a03e 113c b5bd
00000370: ffe1 3e3b b277 97be c37e 093f 9eb5 a8be
00000380: 59ff 843e e455 eb3e ea6d bb3e dd30 debd
00000390: 54d1 a5bd 4b7f 92be dc2e a83e 1641 ac3c
000003a0: 8785 06bf bafb b13e 8ebb f53c 9714 f43d
000003b0: bb83 bdbe b5b7 8fbe 578a d1bd e8d5 85bc
000003c0: 4e3e 85be 5a68 50be f5a7 443e b052 81be
000003d0: 5430 9d3e 4e1a 303c d299 123d e20a ce3e
000003e0: 17b2 b23e 6380 94be 39da 8cbd 0004 4c3e
000003f0: 5c59 693e f84d aebe f4f8 aebe 450d b4ba

encoder.lstm.weight_hh_l1 f4 [256, 64]
-0.16317183 0.12596487 0.12249166 0.55183965 0.22352993 0.36889514 0.18865633 -0.14742053
0.26969808 0.34921774 -0.340656 -0.041499674 0.38942295 -0.27304664 -0.20499434 -0.11959909
-0.32395983 0.18059874 0.005829745 0.2637908 0.1771916 -0.47810578 0.2502874 0.07478915
-0.25764325 0.37004232 -0.056162912 -0.005454507 -0.47498855 0.5238716 0.08149962 -0.29409644
-0.2874185 0.23339885 -0.24147399 0.45225564 -0.027533703 0.3844179 0.056951027 0.2445035
-0.059677783 0.13993873 -0.1906938 -0.21632972 0.11438011 -0.14668494 0.26221418 0.02774065
-0.14136453 0.21296088 0.26259068 0.30952924 0.054013375 -0.21547508 -0.1059584 -0.133718
-0.091699876 0.26692796 -0.081415825 0.14432718 0.48447675 0.15484276 0.9033148 -0.00026758047
0.036977388 0.38653964 0.00031497478 -0.093404435 -0.17654213 -0.670312 0.063338734 0.008073097
0.43786114 0.19070145 -0.5645092 -0.1588594 -0.12515186 0.42760453 0.09810651 0.11905987
-0.2713487 -0.25198817 0.07861951 -0.20829634 -0.09756068 -0.100674674 -0.27898505 -0.18981217
0.52413565 0.2599138 0.21352623 -0.3807239 0.19642359 -0.3192387 0.14773673 -0.44718415
-0.104455404 0.14921376 0.021361606 -0.108766444 -0.1153263 0.67722607 -0.4979362 0.48637155
0.006777076 0.4698838 0.15945797 0.13360922 -0.043392748 0.14790222 -0.07931006 -0.013449058
-0.29640037 0.15283494 -0.43084276 -0.15825936 0.35323894 0.027026305 0.31056204 0.010962329
0.0006505973 -0.07030433 -0.10651193 -0.10570674 -0.21221751 0.17251325 0.05040807 -0.13503912
-0.6150022 -0.39845374 0.07252174 0.5062345 0.24915607 0.30821386 0.17299877 -0.46019226
-0.7779548 -0.081659205 0.46733814 -0.022557305 0.5150962 -0.037537165 -0.22821096 -0.08790701
0.27809784 -0.1059607 0.5160571 0.13147557 0.3457423 -0.040646005 0.31713405 -0.12139429
0.25909945 -0.43205243 -0.23750007 0.21187805 -0.42697135 -0.20110497 0.2424265 -0.032210346
-0.4933937 -0.036884405 0.02671172 0.47540936 -0.20999587 0.22623676 -0.05816741 0.26566386
-0.114715874 0.02335442 -0.31396544 0.2676908 0.65066373 -0.25839233 0.8551263 -0.14986227
0.055806965 -0.04056541 0.45715523 -0.10526493 0.13316411 0.42793593 0.47905725 0.16291913
-0.068905815 0.0105820345 -0.46790266 0.32542646 0.2584416 -0.20767173 0.22453436 -0.48973978
0.022486562 0.13665178 0.09831863 0.29520172 -0.20277143 0.3329009 -0.027003612 -0.31184083
-0.17734855 -0.4207278 -0.20197447 0.21738103 0.18544403 -0.43584955 -0.21955802 -0.030210711
0.41194 0.23216942 0.23317881 0.20138708 0.25699395 -0.1745513 0.54352534 -0.07415405
-0.041135017 0.37945226 -0.21335316 0.4929544 -0.8194482 0.5300784 0.26333758 0.20303623
-0.1974511 -0.1176857 0.21053591 0.061394993 0.08224231 -0.27009082 0.17941761 -0.335514
-0.07341786 -0.23551458 -0.5325569 -0.019679056 0.057011746 0.059838276 0.3672686 -0.037221126
0.040025484 -0.073132955 0.26855654 0.056734033 -0.26991177 -0.01491194 -0.14240496 0.17761691
-0.045090515 -0.0031572704 -0.52195954 0.45348945 -0.3992721 0.093629874 0.30034631 -0.2219241
00000000: 8416 27be effc 003e e8dc fa3d 5d45 0d3f
00000010: 08e5 643e d3df bc3e 202f 413e 68f5 16be
00000020: de15 8a3e abcc b23e 776a aebe 90fb 29bd
00000030: 7262 c73e c5cc 8bbe 09ea 51be 5ef0 f4bd
00000040: 10de a5be e0ee 383e 7207 bf3b 960f 873e
00000050: b771 353e 48ca f4be ac25 803e 0e2b 993d
00000060: d1e9 83be 3076 bd3e 150b 66bd b9bb b2bb
00000070: b331 f3be 731c 063f 46e9 a63d cf93 96be
00000080: 8528 93be 1c00 6f3e f544 77be 0d8e e73e
00000090: 5c8e e1bc 6cd2 c43e 7b45 693d 205f 7a3e
000000a0: b170 74bd 194c 0f3e 3c45 43be 8a85 5dbe
000000b0: 1e40 ea3d 9434 16be f040 863e 5c40 e33c
000000c0: ddc1 10be 6b12 5a3e 4972 863e 9e7a 9e3e
000000d0: 213d 5d3d 80a5 5cbe b800 d9bd 5fed 08be
000000e0: 25cd bbbd c8aa 883e 57bd a6bd 81ca 133e
000000f0: 560d f83e 1a8f 1e3e a43f 673f 0b4a 8cb9
00000100: 9a75 173d 86e8 c53e 3323 a539 d34a bfbd
00000110: 76c7 34be 9199 2bbf bdb7 813d 0645 043c
00000120: 562f e03e 3e47 433e ad83 10bf 0aac 22be
00000130: cf27 00be fbee da3e 11ec c83d a9d5 f33d
00000140: 38ee 8abe 9804 81be 4403 a13d a34b 55be
00000150: e5cd c7bd 862e cebd 21d7 8ebe 1f5e 42be
00000160: c12d 063f 6c13 853e 9fa6 5a3e 3eee c2be
00000170: 4423 493e 4173 a3be 4c48 173e 52f5 e4be
00000180: b7ec d5bd 7ecb 183e 89fe ae3c f1c0 debd
00000190: 3230 ecbd b05e 2d3f 7ef1 febe b105 f93e
000001a0: 3c12 de3b 9c94 f03e f348 233e dbd0 083e
000001b0: 98bc 31bd ae73 173e 506d a2bd 7059 5cbc
000001c0: cac1 97be c380 1c3e 6c97 dcbe be0e 22be
000001d0: bcdb b43e 4566 dd3c fd01 9f3e 579b 333c
000001e0: d98c 2a3a b7fb 8fbd ed22 dabd c67c d8bd
000001f0: 8c4f 59be 50a7 303e b178 4e3d b247 0abe
00000200: c970 1dbf 2102 ccbe 4786 943d 9698 013f
00000210: c522 7f3e 35ce 9d3e 9726 313e 529e ebbe
00000220: 0c28 47bf f13c a7bd f246 ef3e 19ca b8bc
00000230: 58dd 033f 92c0 19bd 22b0 69be 9708 b4bd
00000240: d762 8e3e ec01 d9bd 511c 043f 88a1 063e
00000250: 2205 b13e 6d7c 26bd 655f a23e 929d f8bd
00000260: afa8 843e fa35 ddbe 3833 73be 8ff6 583e
00000270: fd9b dabe 76ee 4dbe a73e 783e ffee 03bd
00000280: 199e fcbe 1a14 17bd 89d2 da3c db68 f33e
00000290: 2809 57be 9caa 673e f340 6ebd 1805 883e
000002a0: 28f0 eabd c551 bf3c 14c0 a0be c50e 893e
000002b0: e691 263f 004c 84be 8fe9 5a3f 7f75 19be
000002c0: d895 643d ea27 26bd 4010 ea3e 2495 d7bd
000002d0: 2c5c 083e 6b1a db3e fe46 f53e 46d4 263e
000002e0: 7e1e 8dbd 4560 2d3c f090 efbe 4c9e a63e
000002f0: 7552 843e e6a7 54be 56ec 653e 2cbf fabe
00000300: bd35 b83c 72ee 0b3e 475b c93d ae24 973e
00000310: 50a3 4fbe fd71 aa3e ae36 ddbc 9aa9 9fbe
00000320: dc9a 35be a269 d7be 65d2 4ebe 2299 5e3e
00000330: 0ae5 3d3e ac27 dfbe d1d3 60be 747c f7bc
00000340: cde9 d23e d2bd 6d3e 6dc6 6e3e 6a38 4e3e
00000350: b694 833e 93bd 32be 7a24 0b3f 14de 97bd
00000360: 317d 28bd 9147 c23e 4079 5abe 8564 fc3e
00000370: 5bc7 51bf 38b3 073f 2fd4 863e bbe8 4f3e
00000380: 9f30 4abe 3305 f1bd ba96 573e 5179 7b3d
00000390: a86e a83d 5849 8abe 40b9 373e 7ec8 abbe
000003a0: 1a5c 96bd bc2a 71be a655 08bf f935 a1bc
000003b0: 2685 693d fb18 753d a10a bc3e 2e75 18bd
000003c0: c3f1 233d bbc6 95bd 3e80 893e f261 683d
000003d0: e031 8abe 3651 74bc 9bd2 11be 35e1 353e
000003e0: d5b0 38bd 35ea 4ebb 249f 05bf c52f e83e
000003f0: 656d ccbe 05c1 bf3d fec6 993e 1240 63be

encoder.lstm.bias_ih_l1 f4 [256]
0.30904534 -0.2517933 -0.12233132 0.31990167 0.038326174 0.14348124 -0.3381529 0.21577607
-0.120325945 -0.13796526 -0.019608852 0.21138063 0.32970145 -0.47574425 0.11408383 -0.12449123
0.15173808 -0.22661018 -0.32653594 -0.14496848 0.1651615 0.4448275 -0.11680516 -0.06386654
-0.11245216 0.08049325 0.029070262 -0.2978966 -0.15114066 -0.42581704 -0.07448475 -0.32198748
-0.58940285 0.06693765 0.29065707 -0.09405244 -0.1369329 -0.43825865 0.25579324 -0.19836797
-0.07590828 0.02221801 -0.15574154 -0.4512245 -0.17321791 0.029016737 -0.041942533 -0.072435714
0.07115642 -0.42802626 -0.19193485 -0.27407235 -0.17855623 -0.5483807 -0.055816084 -0.07408708
-0.4326468 0.07737849 -0.29677388 -0.39065614 -0.39071256 -0.39739898 -0.29619086 -0.08062108
0.10856814 -0.13238432 0.71461886 0.034926355 0.09835538 0.27309102 0.14825295 0.41356745
0.1758959 -0.23493692 0.30621997 0.5409303 0.28049964 0.4231216 0.117308594 -0.20043176
0.29747403 0.21686667 -0.050881132 0.093411066 0.0953333 0.03972693 0.07020016 0.007403961
0.09404873 -0.034173954 -0.19613913 -0.14441037 0.295321 0.6472056 -0.10093127 -0.021366056
-0.44896084 0.098237984 -0.108351976 -0.18087496 0.026616035 -0.067478836 0.5711651 -0.1382315
0.07649157 -0.18418847 0.21452174 -0.2976401 0.30476463 0.31461537 -0.3547692 0.1135082
-0.14060318 0.8718475 -0.020281198 0.027935868 0.49573755 -0.21602523 0.60542107 0.5223849
-0.010986956 0.1621736 0.079802155 0.07244687 -0.24632894 0.34288082 0.6457657 0.056019083
-0.029185688 -0.019676333 -0.27223638 -0.13196047 0.18617696 -0.17988712 -0.23733373 0.05146899
0.04672767 0.0039966153 -0.26002866 0.24522571 -0.09179881 0.051060673 -0.0015304367 0.13298121
0.18544099 0.123306096 0.15573534 0.033438686 0.0074642454 0.11680808 0.25777492 -0.028412353
0.08471524 -0.23200716 0.09537251 -0.027794724 -0.024159836 -0.15896729 -0.035770174 -0.007687361
0.12833102 -0.10483422 -0.13766919 -0.39782608 -0.12848324 0.18110044 -0.22133303 0.1006168
-0.21781683 -0.062613375 -0.104087465 0.099357545 -0.09618951 0.016207071 -0.08149952 -0.1840396
0.25790006 -0.06121604 -0.29298773 0.10282488 0.25559193 -0.07777682 -0.05431133 0.110598505
-0.109398484 -0.05412102 -0.1417386 0.13634674 -0.3532907 -0.19373628 0.08341904 -0.17186505
-0.38635418 -0.10143897 -0.029494492 -0.29784766 -0.13624611 -0.05701048 -0.090476654 0.053295635
0.023298327 0.048706274 -0.14333306 0.26527372 0.18706489 0.37877652 -0.112933025 -0.15918638
0.029969199 -0.40094078 0.21467765 -0.03161276 -0.06797137 0.1561748 -0.30646548 0.072183974
-0.099683456 0.05180571 -0.29122064 0.21270992 0.2655908 0.17164029 0.31406745 -0.043624237
-0.14975613 -0.2740287 0.054996222 -0.28584045 -0.2533412 0.16459495 0.25655547 -0.24625912
0.27744415 0.119259365 0.09520983 -0.28206262 0.1993673 0.018588353 -0.09896218 0.17752835
0.111930795 0.3784711 -0.4334615 -0.16943255 0.18279509 -0.08986814 0.30291158 -0.12721205
-0.19382073 -0.33052468 -0.08912519 -0.076538555 -0.11967721 -0.33978778 -0.18385595 -0.0939328
00000000: 313b 9e3e 0deb 80be d888 fabd 27ca a33e
00000010: e8fb 1c3d bfec 123e 6022 adbe 67f4 5c3e
00000020: 736d f6bd c446 0dbe bea2 a0bc 2a74 583e
00000030: a1ce a83e c094 f3be c8a4 e93d 42f5 febd
00000040: 3a61 1b3e 800c 68be b82f a7be 9e72 14be
00000050: 1920 293e 6ec0 e33e 8b37 efbd 76cc 82bd
00000060: 514d e6bd a5d9 a43d c224 ee3c e785 98be
00000070: 9ec4 1abe b104 dabe 768b 98bd 8bdb a4be
00000080: 1be3 16bf 9b16 893d 01d1 943e 919e c0bd
00000090: 2338 0cbe 7063 e0be 55f7 823e f920 4bbe
000000a0: cd75 9bbd 8b02 b63c b67a 1fbe e606 e7be
000000b0: 0960 31be 82b4 ed3c efcb 2bbd 2d59 94bd
000000c0: 75ba 913d 4226 dbbe 928a 44be 3653 8cbe
000000d0: 72d7 36be ad62 0cbf 689f 64bd f8ba 97bd
000000e0: e283 ddbe 9d78 9e3d bff2 97be 1504 c8be
000000f0: 7a0b c8be e177 cbbe 54a6 97be aa1c a5bd
00000100: f958 de3d c18f 07be 43f1 363f f00e 0f3d
00000110: 8c6e c93d 96d2 8b3e 9fcf 173e 1dbf d33e
00000120: 0e1e 343e 4e93 70be ddc8 9c3e 687a 0a3f
00000130: a69d 8f3e 65a3 d83e 7d3f f03d fc3d 4dbe
00000140: 844e 983e 4c12 5e3e bc68 50bd 4d4e bf3d
00000150: 1b3e c33d b5b8 223d 1ac5 8f3d ed9c f23b
00000160: 9f9c c03d fdf9 0bbd b2d8 48be 50e0 13be
00000170: 5034 973e 44af 253f 0eb5 cebd de07 afbc
00000180: 32de e5be ff30 c93d a4e7 ddbd 4937 39be
00000190: df09 da3c 5832 8abd e037 123f 8f8c 0dbe
000001a0: 9da7 9c3d e79b 3cbe 96ab 5b3e 4864 98be
000001b0: 1c0a 9c3e 4415 a13e 4fa4 b5be fd76 e83d
000001c0: 48fa 0fbe 6631 5f3f c124 a6bc c3d9 e43c
000001d0: 50d1 fd3e b835 5dbe e0fc 1a3f 04bb 053f
000001e0: a202 34bc d610 263e 506f a33d 065f 943d
000001f0: a73d 7cbe 138e af3e e750 253f 4474 653d
00000200: d316 efbc 4330 a1bc 9162 8bbe a520 07be
00000210: 2ca5 3e3e 5434 38be 9d07 73be 26d1 523d
00000220: 8365 3f3d 0af6 823b 7a22 85be 731c 7b3e
00000230: 0401 bcbd ff24 513d ef98 c8ba 3a2c 083e
00000240: 3ee4 3d3e e887 fc3d 1679 1f3e 01f7 083d
00000250: a196 f43b 1339 ef3d 13fb 833e 06c1 e8bc
00000260: 2f7f ad3d 4993 6dbe aa52 c33d c3b1 e3bc
00000270: d9ea c5bc 52c8 22be bf83 12bd 42e6 fbbb
00000280: 3569 033e 53b3 d6bd 27f9 0cbe dcaf cbbe
00000290: 1c91 03be 6572 393e 20a5 62be 2e10 ce3d
000002a0: 600b 5fbe 713b 80bd cf2b d5bd f87b cb3d
000002b0: 01ff c4bd b1c4 843c 38e9 a6bd e074 3cbe
000002c0: 7a0b 843e acbd 7abd 7d02 96be da95 d23d
000002d0: f2dc 823e 7449 9fbd 8f75 5ebd 7881 e23d
000002e0: 500c e0bd 01ae 5dbd ec23 11be 7b9e 0b3e
000002f0: 85e2 b4be ce62 46be 9ad7 aa3d 64fd 2fbe
00000300: 37d0 c5be 3cbf cfbd 6f9e f1bc 7d7f 98be
00000310: 1a84 0bbe d283 69bd d34b b9bd 864c 5a3d
00000320: 22dc be3c 3b80 473d e7c5 12be f5d1 873e
00000330: f08d 3f3e ffee c13e 6e49 e7bd c101 23be
00000340: f781 f53c 1c48 cdbe 75d4 5b3e 627c 01bd
00000350: 9334 8bbd 49ec 1f3e 0be9 9cbe 31d5 933d
00000360: d726 ccbd 3932 543d df1a 95be a1d0 593e
00000370: 84fb 873e 79c2 2f3e 73cd a03e 54af 32bd
00000380: ac59 19be 7d4d 8cbe b843 613d ae59 92be
00000390: f0b5 81be 948b 283e 3d5b 833e 5a2b 7cbe
000003a0: 290d 8e3e 413e f43d 5ffd c23d 836a 90be
000003b0: f126 4c3e 9a46 983c afac cabd fec9 353e
000003c0: f93b e53d f7c6 c13e aaee ddbe ba7f 2dbe
000003d0: a32e 3b3e ca0c b8bd 3a17 9b3e e043 02be
000003e0: f178 46be 883a a9be 4587 b6bd 3fc0 9cbd
000003f0: 5319 f5bd aaf8 adbe bc44 3cbe d75f c0bd
