seq2seq_model_00.pth (torch_old, 436700 bytes, 20 tensors)

encoder.embedding.weight f4 [31, 10]
-1.6336913 -0.42584655 -0.3712951 -0.56465423 -1.7226695 1.4644864 -0.84328467 -0.67649364
0.8312007 -2.5672321 0.37386057 -0.7251389 0.8453796 1.0365173 -1.229982 -1.0075533
-1.5442619 0.09861012 -0.9155497 -0.69884783 -0.8714443 -0.4276148 0.5375732 -1.1032212
-0.4061479 0.07097837 2.383689 -0.43915212 0.6851786 -0.5134955 1.1044161 1.046711
-1.1102465 0.9414314 -0.19102319 -0.35484475 0.17838113 0.7261302 -1.0709594 -1.4859949
0.6078291 -0.46300897 -0.89049095 -0.3532943 0.99196774 -1.4837618 1.0193274 1.8748716
0.2736073 0.24682993 2.6444643 -0.41110557 0.51824963 -1.7334973 -2.4096134 -0.5712277
-2.2627418 -1.4268935 1.3990066 -0.24413653 0.16489723 -0.44335654 -1.0192442 1.2303448
1.5198462 1.1978835 0.18200387 -3.3262947 -1.3084595 0.9071278 -0.3084201 0.07659048
1.4315082 -1.8622367 1.1176851 -0.9543522 0.7413305 -2.1798403 -1.9344445 0.51898426
1.184246 1.5139121 -0.6654395 -0.9601829 -0.71522427 -0.018823747 -0.36793074 2.438182
1.6677855 0.9598472 1.0875652 -1.0097078 1.0919824 0.8823456 1.1758751 1.1097758
0.5578709 0.91160506 0.89965767 0.53188294 1.0885543 0.30124655 1.4508954 1.5953693
1.3254336 -0.55566376 1.0707182 -0.5831278 -0.7601514 -0.7476605 -1.482086 -0.9335572
0.14091632 -0.44031343 0.9282058 0.058323544 -0.4876587 -0.024464618 0.4735523 -1.1612911
-1.0141933 -0.9269819 -0.48997128 0.017659565 0.47554603 0.82053906 -0.44732746 -0.49601665
-0.91376925 -1.260047 -0.32444006 1.7856094 0.2755569 1.2661592 -0.8037857 -0.7815723
-0.6529403 -1.4300368 -1.0856017 -0.19220416 -0.59411544 0.24113914 0.46435314 0.61383295
0.58566463 0.30586228 -1.0749159 -0.4080255 -1.7732083 -0.60904396 -0.6862217 1.310735
0.7576979 0.7758743 -0.7440844 -0.1705227 -0.42529178 -0.335137 -0.86752313 0.5945728
0.4364126 0.96095985 0.70934683 -0.25942564 0.8689018 0.41767183 0.4860575 -0.9447743
-0.11439555 0.031699076 -0.26800147 0.53888714 0.24627851 -0.12668613 0.16172534 -0.4521326
0.06571717 -0.6302662 -0.69079185 0.16880403 -1.1824296 -0.183965 -0.57755595 -0.8552511
-0.9066858 0.69275916 -0.21655978 1.641196 0.9225229 -0.076764084 -0.94967544 -0.7047737
1.4842073 2.2144074 -0.020448552 0.32359415 -0.6220433 -0.7820868 1.9022957 -0.7990142
-0.497093 -0.33729884 -0.35706672 0.48205602 -1.7596835 1.3349153 0.51271784 1.2532871
-0.683679 -1.3638642 -1.9165097 2.1190288 0.7329967 0.25137192 -0.6864398 0.09713721
-0.35601145 1.6210068 1.2379674 -0.9566928 2.0069432 -0.69099575 3.701415 -1.1850263
-0.7760279 1.2023363 -0.118520275 0.8822421 -1.4299479 -2.2088184 -0.1908195 -1.4671746
1.7321713 1.430723 -0.5246526 0.14807287 0.7073201 0.7104089 0.6502144 -0.33419573
-0.8033693 1.0510789 -1.1606545 1.069466 -0.45286 0.9220993 -1.1292413 1.9676809
1.4918025 -3.8877475 -1.1804575 0.17191176 0.86608464 0.6211424 2.9531724 1.4505265
00000000: cc1c d1bf 8f08 dabe 641a bebe 2e8d 10bf
00000010: 6f80 dcbf 4a74 bb3f 81e1 57bf b02e 2dbf
00000020: 92c9 543f 884d 24c0 a76a bf3e b4a2 39bf
00000030: cc6a 583f 99ac 843f 0d70 9dbf 82f7 80bf
00000040: 60aa c5bf 1af4 c93d 7761 6abf b1e7 32bf
00000050: f916 5fbf 54f0 dabe 669e 093f 5a36 8dbf
00000060: 9ef2 cfbe 1c5d 913d 5c8e 1840 8cd8 e0be
00000070: dd67 2f3f 7174 03bf 825d 8d3f a0fa 853f
00000080: 8f1c 8ebf a601 713f 959b 43be 36ae b5be
00000090: 8ba9 363e abe3 393f 3315 89bf 1535 bebf
000000a0: b09a 1b3f 830f edbe 37f7 63bf fee2 b4be
000000b0: 99f1 7d3f e8eb bdbf 5279 823f cbfb ef3f
000000c0: 4216 8c3e fcc0 7c3e e73e 2940 6e7c d2be
000000d0: 02ac 043f 3de3 ddbf 1b37 1ac0 fb3b 12bf
000000e0: c3d0 10c0 72a4 b6bf a612 b33f edfe 79be
000000f0: d2da 283e a1ff e2be 9876 82bf f07b 9d3f
00000100: 528a c23f 3f54 993f 395f 3a3e 03e2 54c0
00000110: 9a7b a7bf 8739 683f 3de9 9dbe 78db 9c3d
00000120: a93b b73f c65d eebf 4e10 8f3f 6d50 74bf
00000130: d6c7 3d3f 8182 0bc0 e19b f7bf 27dc 043f
00000140: 5f95 973f dfc7 c13f 3e5a 2abf 8cce 75bf
00000150: f018 37bf 4234 9abc 6b61 bcbe 2d0b 1c40
00000160: ff79 d53f 8cb8 753f 5635 8b3f 1b3e 81bf
00000170: 14c6 8b3f 67e1 613f 1383 963f 220d 8e3f
00000180: a1d0 0e3f f35e 693f f74f 663f 7b29 083f
00000190: bf55 8b3f fd3c 9a3e f1b6 b93f 1035 cc3f
000001a0: cfa7 a93f fb3f 0ebf 4b0d 893f dd47 15bf
000001b0: 4899 42bf ae66 3fbf feb4 bdbf 9bfd 6ebf
000001c0: 5e4c 103e c370 e1be e59e 6d3f abe4 6e3d
000001d0: 67ae f9be 066a c8bc 7275 f23e 30a5 94bf
000001e0: 16d1 81bf b04e 6dbf 84dd fabe cbaa 903c
000001f0: c57a f33e d90e 523f 1b08 e5be e5f5 fdbe
00000200: c8ec 69bf 3849 a1bf 021d a6be d98e e43f
00000210: cb15 8d3e 8111 a23f e6c4 4dbf 1f15 48bf
00000220: 1827 27bf 720b b7bf fff4 8abf 2bd1 44be
00000230: f317 18bf 2eed 763e b2bf ed3e 2824 1d3f
00000240: 1eee 153f fb99 9c3e d896 89bf b8e8 d0be
00000250: 7df8 e2bf 4eea 1bbf 3aac 2fbf 2ac6 a73f
00000260: 7df8 413f b39f 463f 517c 3ebf 819d 2ebe
00000270: d8bf d9be 1497 abbe ff15 5ebf ec35 183f
00000280: 7971 df3e 7701 763f c197 353f 70d3 84be
00000290: 5970 5e3f 15d9 d53e 87dc f83e bbdc 71bf
000002a0: 3748 eabd e4d6 013d 7d37 89be 82f4 093f
000002b0: 6f30 7c3e 02ba 01be 549b 253e ed7d e7be
000002c0: b996 863d 2059 21bf bcd7 30bf f7da 2c3e
000002d0: da59 97bf 5261 3cbe b5da 13bf bcf1 5abf
000002e0: 901c 68bf aa58 313f d9c1 5dbe b612 d23f
000002f0: 762a 6c3f 7d36 9dbd ee1d 73bf 0d6c 34bf
00000300: 81fa bd3f dab8 0d40 b983 a7bc 22ae a53e
00000310: 3b3e 1fbf d736 48bf 6d7e f33f 328c 4cbf
00000320: f982 febe 6fb2 acbe 73d1 b6be 0cd0 f63e
00000330: 4f3d e1bf 81de aa3f 7a41 033f b66b a03f
00000340: 9605 2fbf 1a93 aebf 3150 f5bf 2b9e 0740
00000350: aca5 3b3f d2b3 803e 85ba 2fbf e0ef c63d
00000360: 2247 b6be 277d cf3f b775 9e3f d2e9 74bf
00000370: c271 0040 19e5 30bf fce3 6c40 f1ae 97bf
00000380: c4a9 46bf 28e6 993f c2ba f2bd 9eda 613f
00000390: 8808 b7bf 485d 0dc0 3066 43be 61cc bbbf
000003a0: cab7 dd3f ee21 b73f a24f 06bf 6aa0 173e
000003b0: ee12 353f 5cdd 353f 7374 263f b41b abbe
000003c0: 9ca9 4dbf c189 863f 5490 94bf 43e4 883f
000003d0: 44dd e7be b30e 6c3f fb8a 90bf f8dc fb3f
000003e0: 62f3 be3f dbd0 78c0 3b19 97bf a309 303e
000003f0: b9b7 5d3f 3003 1f3f c700 3d40 daaa b93f

encoder.lstm.weight_ih_l0 f4 [256, 10]
0.9476556 0.15639375 -0.11591706 -0.26004818 -0.35941067 -0.5018654 -0.11346349 0.2189615
-0.23806246 -0.0398836 0.43291023 -0.39268604 -1.1909097 -0.012801101 -0.2652241 -0.6492459
0.24311942 1.1341459 0.859764 0.16660592 0.26388213 -0.15413967 0.0721097 -0.37458652
-0.5988595 0.49214384 -0.17296092 -0.64371616 0.068964526 -0.26946628 -0.47767106 -0.031289347
-0.03964642 -0.14080037 0.6095366 -0.2554402 0.29160407 0.6434061 0.84212077 -0.42366466
-0.03991088 0.46696377 0.23288198 0.6818039 1.420267 -0.38112304 -0.055747773 0.52344936
0.160204 0.33324206 -0.22380224 0.52126956 -0.7583794 -0.82578504 0.20865183 -0.18619803
0.24382135 0.31377783 -0.0031852676 -0.047585428 -0.22388418 -0.15810709 0.9591773 -0.58048135
-0.7030816 -0.027824722 -0.38817945 -0.9350769 0.22498015 -0.21544449 0.5873918 -0.34935507
0.24456303 -0.4519894 -0.5082873 -0.1856731 -0.73357165 0.29457164 0.87598425 -0.062408216
0.043293048 -0.0068544745 1.4288393 -0.259956 -0.44409406 -0.29859757 -0.2243162 -0.38296443
0.0668047 0.040335767 -0.2715514 -0.21293418 -0.29208276 -0.26171494 -0.031809665 0.8667342
-0.12544318 -0.3020732 0.89825344 -0.03676534 -0.19661687 0.32030416 -0.29173324 0.7185313
0.3480815 -0.5605154 0.20043351 -0.4181465 -0.8819739 0.024857054 -0.27053037 0.08677439
-0.10978677 0.29616657 -0.2999568 0.57576555 0.59585154 -0.14536396 -0.21647617 0.06511777
-0.68254733 0.33082765 -0.10135557 0.33287913 0.7332647 -0.29305863 0.11308685 0.18626007
0.2230772 -0.6056369 -0.17672302 0.011016085 -0.5786243 0.4667085 -0.9062289 0.48200047
-0.04580472 0.009069959 0.38184777 0.030750345 0.4953169 0.5548913 0.099579535 0.7092569
-1.4012419 -0.14057183 -1.7192624 0.995228 0.8770689 -0.21962287 -1.383449 -0.32490274
-0.61980957 -0.042477313 0.6677374 0.17587999 -0.16089238 0.031783003 0.2862065 -0.40701136
-0.0732632 -1.2222865 0.10486019 -1.293987 -0.52695364 0.5806002 -0.0069238017 -0.64298457
-0.12439116 0.16528119 0.60229164 0.45807374 0.10238361 -0.5338085 0.40464085 -0.009750718
0.17851013 -0.3735038 -0.89352816 0.07025921 -0.2379484 0.8460004 0.038256813 0.16958688
0.5700944 0.32998267 0.09810024 0.29748893 0.30340117 -0.72381824 -0.45192674 0.71948457
-0.031863935 -0.31613237 -0.32825854 0.18426283 0.4355593 0.6077217 -0.10914567 -1.3257121
0.41381484 0.7654738 0.65882534 0.020730639 -1.2698364 0.352508 0.030419897 0.6011242
-0.6754366 -0.8629571 -0.118248194 0.25870562 0.17478156 -0.5018359 -0.09053631 -0.090235904
0.7675034 0.16604067 -0.06925746 0.16643846 0.16130121 -0.008298628 0.724477 -0.53021747
-0.47666106 -0.22683844 0.2179186 0.09987361 -0.45118153 0.22369356 0.36705756 0.10309331
0.011765613 0.08315054 -0.15924135 0.1405081 -0.20980445 -0.41317087 -0.2037246 0.2705295
0.1435031 -0.79473174 0.23803361 -0.5104059 0.35925543 0.34810644 0.529003 -0.8006425
-0.12021502 1.0621532 -0.39628246 -0.0757039 0.041432954 0.02811044 -0.16406673 0.13984622
00000000: 8f99 723f af25 203e ec65 edbd 0925 85be
00000010: ad04 b8be 407a 00bf 8c5f e8bd 7237 603e
00000020: a5c6 73be fc5c 23bd 69a6 dd3e 250e c9be
00000030: bb6f 98bf b6bb 51bc 74cb 87be fb34 26bf
00000040: 4cf4 783e b12b 913f 7e19 5c3f be9a 2a3e
00000050: 8f1b 873e cad6 1dbe 40ae 933d cec9 bfbe
00000060: db4e 19bf 47fa fb3e ab1c 31be 95ca 24bf
00000070: 463d 8d3d 7cf7 89be 4d91 f4be 4229 00bd
00000080: 4964 22bd f92d 10be 970a 1c3f 0fc9 82be
00000090: 214d 953e 43b6 243f 3a95 573f 93ea d8be
000000a0: 9779 23bd e015 ef3e 9d78 6e3e b38a 2e3f
000000b0: 4fcb b53f 8f22 c3be c757 64bd c700 063f
000000c0: 840c 243e b49e aa3e 6a2c 65be ec71 053f
000000d0: 2725 42bf a666 53bf d3a8 553e b2aa 3ebe
000000e0: 4eac 793e 7da7 a03e ecbf 50bb f0e8 42bd
000000f0: e541 65be d3e6 21be a58c 753f 6d9a 14bf
00000100: 28fd 33bf acf0 e3bc 75bf c6be 3361 6fbf
00000110: 3261 663e 7b9d 5cbe 4f5f 163f abde b2be
00000120: bb6e 7a3e 286b e7be 1e1f 02bf 1721 3ebe
00000130: 5acb 3bbf 18d2 963e 8140 603f c29f 7fbd
00000140: 0d54 313d 809b e0bb 35e4 b63f f418 85be
00000150: 4c60 e3be c8e1 98be 25b3 65be ea13 c4be
00000160: e7d0 883d 1e37 253d c908 8bbe 6b0b 5abe
00000170: df8b 95be 80ff 85be da4a 02bd 4be2 5d3f
00000180: 2d74 00be 57a9 9abe f0f3 653f 4197 16bd
00000190: ef55 49be e8fe a33e 0f5e 95be abf1 373f
000001a0: bd37 b23e f07d 0fbf 713e 4d3e 4c17 d6be
000001b0: 0bc9 61bf 05a1 cb3c f582 8abe c5b6 b13d
000001c0: e3d7 e0bd 25a3 973e f093 99be 5f65 133f
000001d0: ba89 183f 4ada 14be eeab 5dbe 775c 853d
000001e0: 6cbb 2ebf 3e62 a93e 8293 cfbd 226f aa3e
000001f0: 3cb7 3b3f c80b 96be 149a e73d f6ba 3e3e
00000200: 596e 643e 050b 1bbf e1f6 34be cf7c 343c
00000210: b920 14bf 6bf4 ee3e 9efe 67bf c4c8 f63e
00000220: bb9d 3bbd 2a9a 143c 8d81 c33e 26e8 fb3c
00000230: 2d9a fd3e 5b0d 0e3f 5bf0 cb3d dc91 353f
00000240: e55b b3bf 10f2 0fbe ca10 dcbf 43c7 7e3f
00000250: 9687 603f d1e4 60be db14 b1bf a759 a6be
00000260: d7ab 1ebf b1fc 2dbd d7f0 2a3f e219 343e
00000270: f9c0 24be e52e 023d a989 923e cb63 d0be
00000280: 040b 96bd e273 9cbf f0c0 d63d 5ea1 a5bf
00000290: 6fe6 06bf 37a2 143f 0fe1 e2bb a39a 24bf
000002a0: cbc0 febd 793f 293e c92f 1a3f a488 ea3e
000002b0: 80ae d13d ada7 08bf 162d cf3e 7ac1 1fbc
000002c0: 5ccb 363e e43b bfbe 43be 64bf 10e4 8f3d
000002d0: bfa8 73be 7b93 583f 2db3 1c3d 2fa8 2d3e
000002e0: b5f1 113f 7df3 a83e c7e8 c83d 7850 983e
000002f0: 6657 9b3e 274c 39bf f162 e7be 2430 383f
00000300: c283 02bd 1adc a1be 8111 a8be 65af 3c3e
00000310: a101 df3e a693 1b3f c487 dfbd efb0 a9bf
00000320: 8adf d33e 17f6 433f c7a8 283f 4dd3 a93c
00000330: 008a a2bf ee7b b43e 2633 f93c 47e3 193f
00000340: 6ae9 2cbf c2ea 5cbf 1c2c f2bd 1075 843e
00000350: f0f9 323e 5178 00bf 1a6b b9bd 9acd b8bd
00000360: 1a7b 443f 9106 2a3e dbd6 8dbd d86e 2a3e
00000370: 252c 253e f8f6 07bc 5377 393f 55bc 07bf
00000380: eb0c f4be 5648 68be 0e26 5f3e 898a cc3d
00000390: 4401 e7be ed0f 653e f8ee bb3e 9622 d33d
000003a0: 8fc4 403c d54a aa3d 2a10 23be 5be1 0f3e
000003b0: fad6 56be 228b d3be 2e9d 50be d882 8a3e
000003c0: 7af2 123e 8a73 4bbf 15bf 733e f6a9 02bf
000003d0: 54f0 b73e 023b b23e be6c 073f e8f6 4cbf
000003e0: 4b33 f6bd a3f4 873f 89e5 cabe a50a 9bbd
000003f0: 9ab5 293d de47 e63c 1c01 28be d933 0f3e

encoder.lstm.weight_hh_l0 f4 [256, 64]
0.38509706 0.39187625 -0.17336865 -0.104673296 -0.7860185 0.49707404 -0.5364077 0.07912379
-0.7622974 -0.15756449 0.12729487 -1.494182 0.11189187 0.35038087 -0.09110013 0.10561153
-0.31849054 0.74348396 0.64303744 -0.38397357 0.060015883 0.42920825 -0.15187252 -0.53157526
-0.30816376 0.07816164 -0.4155456 0.23337235 0.45411113 0.8026218 0.49054894 -0.67370254
-0.33724028 0.8763862 -0.26841044 0.28523162 -0.31940088 0.7876139 -0.66565394 -0.34855396
-0.9723361 0.3426973 0.4636532 0.4275633 -0.69998837 -0.15257372 -0.04442155 -0.35270014
0.30138257 0.053238716 -0.46460927 0.9737722 -0.06304642 0.034705125 1.2305096 -0.6114234
0.18170168 0.6092747 0.21178025 -1.0486814 0.2696424 1.4418901 0.5681823 -0.59490734
0.42317712 -0.77169806 0.09245296 0.72715104 0.45504037 0.85571885 0.21273924 -0.7050585
0.6417206 -0.18816675 1.083993 -0.24035984 -0.0853716 0.45271966 -0.7556567 0.5000656
0.2841584 1.2219667 0.07369549 0.6273835 0.5503601 -0.22784941 -0.13468878 0.33148488
-0.28844798 0.7418332 -0.25433978 0.916693 -0.82339275 -0.16310325 -0.68269575 -0.4527171
0.3560323 -0.34998474 0.59907484 0.020014057 -0.6156376 0.95658207 -1.0501864 -0.32644945
0.45771322 -0.58949506 -0.103808105 -0.19305043 0.7794184 0.41578382 -1.6806971 -0.11520213
-0.46922454 0.5492302 -0.6204706 -0.090563014 0.5094265 1.0203506 0.13995731 0.9294364
0.23737597 -0.2911408 0.39623293 -0.57491803 0.36554796 0.38243365 0.113447644 0.29609156
0.09141828 0.066008486 0.39259955 0.8252211 0.06355994 -0.8868727 -0.09809656 -0.9710216
0.22247982 -0.19468541 0.4572269 -0.49687707 -0.68268245 -0.09766334 -0.5330974 -0.41807634
0.6925124 0.24200475 0.5742893 0.21207926 -1.2442958 0.5579746 1.5929058 0.3321498
0.9908861 0.36104843 0.80226994 1.6795704 0.8688231 -0.49846718 -0.8213589 -0.011961659
-0.34392074 0.14314033 1.0517155 -0.79958165 -0.6260874 1.4745347 1.0406473 -1.0916159
0.46755406 -0.11777296 0.50395465 0.55826265 -0.25626233 -0.16100618 1.2210426 -0.40675676
-1.5330024 0.20625387 0.4282395 0.92890567 0.39288756 0.53643036 -1.1090136 0.24053438
-0.045524202 0.84379303 -0.79158455 -0.035759587 -0.2544336 0.23353846 0.33213472 0.70672566
-0.3249795 1.2187798 -0.055791285 0.874966 0.20950444 1.0890844 0.0010901866 0.4619222
0.4200019 -0.2455862 0.17729475 -0.46058577 0.37418607 0.8711769 -0.9445096 -0.2092661
0.81704193 0.16384616 0.9329052 -0.17066899 -1.4299065 -1.2333801 0.7255723 -0.15422045
0.2051198 -0.7098391 0.65309626 0.16799662 -0.4679516 -0.4929045 0.054263696 1.0673592
0.15709583 0.047982607 0.92996657 0.7178089 0.8238185 0.51025087 -0.41472155 -0.031175017
-0.483925 -0.26007333 -0.020445516 -0.10580222 0.30317423 0.24432522 0.06986869 0.39153615
0.13359405 0.084115036 0.63001436 -0.24689595 -0.1699631 -0.5059696 0.6479584 -1.001073
0.55695146 0.76560676 -0.52612484 0.20410916 0.7837707 0.31020153 -0.86914206 0.027320681
00000000: 712b c53e 01a4 c83e 8d87 31be f45e d6bd
00000010: 8238 49bf 7d80 fe3e 0452 09bf a70b a23d
00000020: ec25 43bf 9658 21be 9659 023e 5b41 bfbf
00000030: 9127 e53d 1f65 b33e b492 babd dc4a d83d
00000040: 3111 a3be f754 3e3f 1a9e 243f 2f98 c4be
00000050: 37d3 753d 2fc1 db3e 7884 1bbe 5115 08bf
00000060: a4c7 9dbe 3613 a03d 65c2 d4be 29f9 6e3e
00000070: 4181 e83e 9f78 4d3f 3b29 fb3e c577 2cbf
00000080: c2aa acbe d95a 603f 186d 89be e109 923e
00000090: 8388 a3be 11a1 493f 4c68 2abf aa75 b2be
000000a0: 05eb 78bf 0576 af3e f463 ed3e 94e9 da3e
000000b0: 7032 33bf 493c 1cbe 5ff3 35bd 1d95 b4be
000000c0: d14e 9a3e d710 5a3d 44e1 edbe 2349 793f
000000d0: 7b1e 81bd f626 0e3d 5781 9d3f 3e86 1cbf
000000e0: 0110 3a3e 6df9 1b3f ecdc 583e 313b 86bf
000000f0: 920e 8a3e db8f b83f 6574 113f d94b 18bf
00000100: acaa d83e 018e 45bf fa57 bd3d 9226 3a3f
00000110: 0dfb e83e 6410 5b3f 51d8 593e b77e 34bf
00000120: cd47 243f c9ae 40be 48c0 8a3f e420 76be
00000130: 4ed7 aebd dfca e73e b872 41bf 4d04 003f
00000140: 367d 913e 6869 9c3f a9ed 963d 349c 203f
00000150: 66e4 0c3f 5b51 69be dbeb 09be 63b8 a93e
00000160: 74af 93be c8e8 3d3f d338 82be 64ac 6a3f
00000170: dec9 52bf 8a04 27be 26c5 2ebf 89ca e7be
00000180: de49 b63e 3331 b3be f85c 193f 85f4 a33c
00000190: 6d9a 1dbf 90e2 743f 826c 86bf 6224 a7be
000001a0: 6359 ea3e 26e9 16bf 5899 d4bd 03af 45be
000001b0: f787 473f 9ee1 d43e 1521 d7bf 18ef ebbd
000001c0: 333e f0be 5a9a 0c3f 29d7 1ebf 1a79 b9bd
000001d0: c669 023f d99a 823f f850 0f3e 8bef 6d3f
000001e0: b012 733e 6810 95be 0bdf ca3e d42d 13bf
000001f0: 1a29 bb3e 58ce c33e 3d57 e83d 5099 973e
00000200: 8239 bb3d 752f 873d cf02 c93e b141 533f
00000210: b72b 823d 170a 63bf d9e6 c8bd df94 78bf
00000220: c0d1 633e 9d5b 47be a519 ea3e ac66 febe
00000230: 47c4 2ebf b803 c8bd 1279 08bf 1a0e d6be
00000240: 7e48 313f 18d0 773e a004 133f 4e2b 593e
00000250: 1645 9fbf 6cd7 0e3f 56e4 cb3f 8a0f aa3e
00000260: b6aa 7d3f 57db b83e 9061 4d3f 2afc d63f
00000270: 316b 5e3f 1737 ffbe 9444 52bf d6fa 43bc
00000280: 6116 b0be 6193 123e 9d9e 863f 62b1 4cbf
00000290: 4447 20bf 8ebd bc3f ee33 853f 12ba 8bbf
000002a0: 3f63 ef3e f332 f1bd 2c03 013f 4dea 0e3f
000002b0: d134 83be cede 24be 204b 9c3f 6c42 d0be
000002c0: 6c39 c4bf 3734 533e 3542 db3e c3cc 6d3f
000002d0: 8f28 c93e 8053 093f 28f4 8dbf a54e 763e
000002e0: 9677 3abd d202 583f 49a5 4abf a578 12bd
000002f0: 1f45 82be b524 6f3e 900d aa3e f9eb 343f
00000300: b763 a6be fa00 9c3f 6785 64bd c6fd 5f3f
00000310: 5588 563e 1e67 8b3f 98e4 8e3a 1181 ec3e
00000320: 7d0a d73e f37a 7bbe c18c 353e e6d1 ebbe
00000330: 5195 bf3e 7305 5f3f 62cb 71bf da49 56be
00000340: a929 513f 4ac7 273e e0d2 6e3f dac3 2ebe
00000350: 2d07 b7bf 66df 9dbf 1bbf 393f f7eb 1dbe
00000360: ed0a 523e 04b8 35bf 5131 273f 4e07 2c3e
00000370: 5a97 efbe fb5d fcbe 9c43 5e3d 3a9f 883f
00000380: bbdd 203e 6989 443d 4a12 6e3f 53c2 373f
00000390: c5e5 523f cd9f 023f 6256 d4be c062 ffbc
000003a0: 05c5 f7be 5528 85be 5b7d a7bc d6ae d8bd
000003b0: a739 9b3e 6430 7a3e 5117 8f3d 6d77 c83e
000003c0: e1cc 083e 8144 ac3d 9f48 213f 4bd2 7cbe
000003d0: cf0a 2ebe 3987 01bf 9ae0 253f 2923 80bf
000003e0: 5f94 0e3f cefe 433f 1eb0 06bf fe01 513e
000003f0: 32a5 483f bcd2 9e3e 1880 5ebf 9fcf df3c

encoder.lstm.bias_ih_l0 f4 [256]
0.6912494 -0.22416027 0.025459237 0.094731085 -0.137661 -0.080849715 -0.15867892 -0.33807468
0.17757094 0.2828437 0.42327514 -0.115153514 -0.06418092 -0.45673832 -0.14463872 0.20152308
-0.18394805 -0.04743022 0.10434993 -0.27926648 0.65070957 0.15783563 -0.5263974 0.08682856
0.18006147 0.3540817 0.10220984 0.9869015 -0.18264915 -0.2853153 -0.0075951586 0.17765902
-0.36244845 -0.21578519 -0.19705819 -0.041147955 -0.59597915 -0.13491754 -0.09792601 0.387556
0.08743768 -0.22061759 -0.21379724 -0.466851 0.06427024 -0.28647828 0.1609164 -0.005460369
-0.3099045 0.27483377 -0.06611117 -1.034432 -0.15468438 -0.036616188 0.33342493 -0.25767
0.27880862 0.009228519 -0.20844524 -0.7364265 -0.007578185 -0.10265568 0.26017722 -0.10085831
0.2495746 -0.1325366 1.4212368 0.41612414 0.11336845 -0.08947976 0.07091817 0.08947954
0.10805019 0.59620994 0.20254044 0.6361794 0.34616762 0.20206441 -0.2006202 -0.08007298
0.18695095 0.5435407 0.3690857 0.29087967 0.50202817 0.41932002 0.13638268 0.60347784
0.31664217 0.5854776 0.050124507 1.2180065 1.5124965 0.12578197 0.31932983 0.06243197
-0.25629312 -0.05981249 0.43571082 -0.060524877 0.48834193 1.095915 0.26874816 0.1167496
0.38634217 0.38862914 0.35141426 0.44950116 1.2547892 0.13269076 0.5278602 0.28674814
0.52582306 0.029534716 0.028647792 0.26467916 -0.14740835 0.09647239 0.2349547 -0.22232324
0.3955058 0.3302216 1.1332211 0.8574816 0.59082097 0.094321646 0.40041086 0.4706125
-0.33545575 0.17087354 0.33080953 0.47202164 -0.07350604 -0.34147868 0.30437607 -0.14918031
-0.73555493 -0.039969996 0.32681158 0.15851712 -0.03087823 0.13473246 -0.04309398 -0.13656674
0.21275413 -0.1502191 0.13061139 0.070344605 0.100757174 -0.1442628 0.18629237 0.003207789
-0.21081704 -0.05240942 0.21781151 0.23933 -0.39644864 -0.16097528 -0.04200427 -0.08612612
-0.042476416 0.5363302 -0.059963893 0.14289874 -0.13591968 0.14266153 0.07126018 -0.08176756
0.3334216 -0.14207616 -0.2143602 0.021683883 -0.6571219 -0.06583112 -0.20554711 -0.4465161
-0.15892544 0.116989575 -0.20613949 -0.17856859 0.26836663 0.013466661 -0.07458666 0.085679285
-0.1931352 -0.09282728 0.07594509 0.022855256 0.30466133 -0.07422369 0.008264392 -0.008033466
-0.24769795 0.110724784 -0.42972183 0.0927524 0.046402674 -0.29892612 0.041053645 -0.049055453
-0.18946129 -0.32257286 0.124901496 0.31397283 0.3049889 0.16017532 -0.26141638 0.09885931
-0.24813019 -0.41596407 0.046941385 0.11865832 0.018955287 -0.0081264945 0.16282102 -0.041227516
0.12750189 0.26140606 0.025219098 -0.4473452 -0.40132532 -0.105981514 0.034303103 -0.14402452
-0.44252798 -0.4409766 0.21988074 0.039322004 0.15637635 -0.16366316 0.46468568 0.27312592
0.067649476 0.28069657 0.34929997 0.07339547 -0.7326118 0.08436795 -0.3014486 -0.20990272
0.27406588 0.02353576 0.40146065 0.8134575 0.122388065 0.18769184 -0.21733 -0.12215808
-0.23368543 0.2451021 0.20381385 -0.26740098 -0.20827048 -0.0053324457 0.15402135 -0.30384156
00000000: b8f5 303f 458a 65be e48f d03c 5f02 c23d
00000010: 01f7 0cbe 8994 a5bd ba7c 22be 2018 adbe
00000020: 28d5 353e e4d0 903e 85b7 d83e 9bd5 ebbd
00000030: 4971 83bd 9bd9 e9be 2c1c 14be 115c 4e3e
00000040: e15c 3cbe 3146 42bd 6bb5 d53d 04fc 8ebe
00000050: e794 263f aa9f 213e fbc1 06bf 2cd3 b13d
00000060: 0962 383e 324a b53e 6553 d13d 94a5 7c3f
00000070: 6108 3bbe d914 92be cfe0 f8bb 3fec 353e
00000080: d892 b9be cbf6 5cbe 9fc9 49be c28a 28bd
00000090: 1792 18bf d327 0abe 6f8d c8bd bd6d c63e
000000a0: 8712 b33d 94e9 61be aaed 5abe 1807 efbe
000000b0: 1ea0 833d 48ad 92be 45c7 243e e5ec b2bb
000000c0: cdab 9ebe 03b7 8c3e 4b65 87bd 4568 84bf
000000d0: 9565 1ebe dbfa 15bd acb6 aa3e 52ed 83be
000000e0: 01c0 8e3e 3733 173c ab72 55be 7286 3cbf
000000f0: 6c52 f8bb 243d d2bd f335 853e cd8e cebd
00000100: 7c90 7f3e adb7 07be 16eb b53f 390e d53e
00000110: b82d e83d 2a41 b7bd 8c3d 913d 0d41 b73d
00000120: 6b49 dd3d 37a1 183f c366 4f3e a7dc 223f
00000130: e23c b13e f9e9 4e3e 626f 4dbe 4dfd a3bd
00000140: 1270 3f3e 7c25 0b3f cdf8 bc3e 2eee 943e
00000150: eb84 003f 1db1 d63e e7a7 0b3e 867d 1a3f
00000160: ec1e a23e dce1 153f 5b4f 4d3d a3e7 9b3f
00000170: 7c99 c13f fdcc 003e 337f a33e aab8 7f3d
00000180: da38 83be f1fd 74bd 7d15 df3e efe8 77bd
00000190: f407 fa3e f146 8c3f 5c99 893e 6a1a ef3d
000001a0: a4ce c53e 66fa c63e 92ec b33e 0425 e63e
000001b0: ef9c a03f 16e0 073e d921 073f a7d0 923e
000001c0: 579c 063f caf2 f13c c6ae ea3c 0784 873e
000001d0: 37f2 16be 5193 c53d f797 703e b4a8 63be
000001e0: bc7f ca3e ce12 a93e 640d 913f ea83 5b3f
000001f0: 0b40 173f b52b c13d a702 cd3e 1ff4 f03e
00000200: dbc0 abbe 79f9 2e3e de5f a93e d2ac f13e
00000210: 568a 96bd 4bd6 aebe 2ed7 9b3e b9c2 18be
00000220: 544d 3cbf 94b7 23bd d953 a73e 5052 223e
00000230: 58f4 fcbc 4ef7 093e 5083 30bd 27d8 0bbe
00000240: 38dc 593e 09d3 19be febe 053e d510 903d
00000250: c759 ce3d a1b9 13be 6dc3 3e3e c539 523b
00000260: 6ce0 57be 43ab 56bd fb09 5f3e ec12 753e
00000270: 51fb cabe b4d6 24be ab0c 2cbd e462 b0bd
00000280: c0fb 2dbd f04c 093f b39c 75bd 0c54 123e
00000290: 872e 0bbe dd15 123e dbf0 913d c075 a7bd
000002a0: 3cb6 aa3e 6a7c 11be 3e81 5bbe 66a2 b13c
000002b0: 2439 28bf 77d2 86bd f17a 52be c29d e4be
000002c0: 5abd 22be 3b98 ef3d 3b16 53be afda 36be
000002d0: 5a67 893e 45a3 5c3c e4c0 98bd 9f78 af3d
000002e0: 3cc5 45be 3b1c bebd 1989 9b3d f23a bb3c
000002f0: 92fc 9b3e 9702 98bd 5f67 073c cc9e 03bc
00000300: 88a4 7dbe adc3 e23d 8004 dcbe f8f4 bd3d
00000310: bb10 3e3d d80c 99be de27 283d 5fee 48bd
00000320: 2402 42be 4528 a5be 5bcc ff3d 0cc1 a03e
00000330: 8127 9c3e 0005 243e 5ed8 85be c076 ca3d
00000340: d715 7ebe 3ef9 d4be 9c45 403d 2203 f33d
00000350: 1e48 9b3c fd24 05bc 8eba 263e 2fde 28bd
00000360: db8f 023e 04d7 853e 4898 ce3c 6e0a e5be
00000370: 837a cdbe d60c d9bd 6981 0c3d 2a7b 13be
00000380: 0793 e2be afc7 e1be 6b28 613e 1c10 213d
00000390: 1f21 203e 5197 27be 48eb ed3e 29d7 8b3e
000003a0: cf8b 8a3d 76b7 8f3e 72d7 b23e 5d50 963d
000003b0: 728c 3bbf 1bc9 ac3d 7957 9abe bdf0 56be
000003c0: 5d52 8c3e 11ce c03c 408c cd3e c03e 503f
000003d0: 98a6 fa3d 4a32 403e c18b 5ebe 042e fabd
000003e0: 3c4b 6fbe 0bfc 7a3e 94b4 503e c8e8 88be
000003f0: db44 55be ccbb aebb c6b7 1d3e 1f91 9bbe

encoder.lstm.bias_hh_l0 f4 [256]
0.55618745 -0.017131835 -0.10457403 0.1631318 -0.21458858 -0.23115465 -0.18810146 -0.23634301
0.008578733 0.22274803 0.39828143 -0.26639268 -0.08451522 -0.35853672 -0.18082397 0.009436605
-0.099255405 0.14601156 0.064562164 -0.41149935 0.5625185 0.029936332 -0.52878755 -0.03654998
0.14382309 0.4652481 -0.0109810075 1.0420058 -0.123246215 -0.124369286 0.06069046 0.07448004
-0.24948594 -0.28961143 -0.15165302 -0.1695526 -0.5103184 -0.34502733 -0.035456825 0.3765607
-0.042735 -0.1455667 -0.07480918 -0.31144148 0.18817584 -0.45548758 0.32322705 0.14300251
-0.3543077 0.31563085 0.0016023612 -0.9958065 -0.057446465 0.040114317 0.2598612 -0.3194682
0.28094405 -0.038241692 -0.18276276 -0.6831634 0.081458695 -0.29129887 0.19049007 -0.29777694
0.15849634 -0.21218926 1.4946316 0.48474586 0.06022824 -0.05458939 -0.05746178 0.049109716
0.15622519 0.53911245 0.1575539 0.5367568 0.18827781 0.2055314 -0.29368138 -0.056060765
0.22831734 0.39820567 0.41269636 0.3439025 0.5262018 0.50092167 0.25790748 0.7956628
0.33138078 0.6643514 0.13494816 1.2015959 1.3287824 0.17041913 0.2985569 -0.011413615
-0.22011346 0.03551599 0.42069632 -0.1458716 0.36354244 1.0542345 0.42613703 0.12063522
0.3406099 0.33257782 0.49517718 0.44202197 1.1277621 0.13442357 0.45321575 0.3335368
0.53479356 0.00022186394 0.17260112 0.3873058 -0.00028005318 0.0196991 0.3049686 -0.10215848
0.318368 0.39035776 1.1305444 0.7212455 0.49358815 0.26646626 0.37926748 0.48344317
-0.26489198 0.12832795 0.24020183 0.39514482 -0.04156932 -0.42884797 0.09351068 -0.14854448
-0.7607839 0.031510763 0.25096044 0.14828537 0.0611972 0.09883647 0.14492677 -0.12702256
0.096591875 0.036917824 0.10607032 0.0108329365 0.14081554 -0.1951701 0.18037656 -0.078813635
-0.21015608 0.015017247 0.25287473 0.04480391 -0.28042942 -0.20874864 -0.07865317 -0.11326843
-0.24406996 0.58362865 -0.011596527 0.09097432 -0.09664943 0.057544567 0.06614861 -0.12222516
0.13028258 0.04926854 -0.15001369 -0.08310006 -0.61790377 0.1303399 -0.15426277 -0.51239204
-0.13950369 -0.011396739 -0.264607 -0.102880344 0.18101463 0.11312496 -0.1856816 0.19578072
-0.1516927 -0.30537853 0.053326365 0.20604551 0.18149553 0.05745483 -0.15879302 -0.14223436
-0.13317628 0.1601157 -0.5783164 0.16084869 0.09742695 -0.29110676 -0.03745569 -0.05435674
-0.11797605 -0.18832354 0.028766574 0.1995871 0.40593615 0.04007276 -0.39092404 0.09798345
-0.25377074 -0.49145126 0.051639177 0.10155873 0.019067923 -0.09515039 0.30837226 0.09790606
0.13807958 0.45378882 0.07639064 -0.5448561 -0.47305062 -0.0024215549 0.006711657 -0.22909255
-0.46317363 -0.5622581 0.061762553 0.14426364 -0.010694082 -0.23743488 0.44899014 0.39413267
-0.069885895 0.21922275 0.424887 0.040500496 -0.59797466 0.14082234 -0.22331761 -0.3136601
0.133902 -0.16388842 0.38671303 0.722553 -0.059321184 0.20503677 -0.16282183 0.076227844
-0.27645737 0.07540999 0.118355386 -0.19968662 -0.20415711 0.09147086 0.20976679 -0.31050766
00000000: 4d62 0e3f 1058 8cbc e92a d6bd 060c 273e
00000010: 1cbd 5bbe ceb3 6cbe ab9d 40be e703 72be
00000020: d08d 0c3c 0f18 643e 8beb cb3e 9f64 88be
00000030: 5116 adbd 2092 b7be eb29 39be fd9b 1a3c
00000040: 6b46 cbbd 0e84 153e 2b39 843d 0bb0 d2be
00000050: 3601 103f 0a3d f53c 9f5e 07bf 6fb5 15bd
00000060: 5c46 133e 0035 ee3e afe9 33bc 7260 853f
00000070: 8368 fcbd 53b5 febd 8f96 783d fe88 983d
00000080: 3e79 7fbe f347 94be ee4a 1bbe 329f 2dbe
00000090: 3aa4 02bf 6ca7 b0be 2d3b 11bd 90cc c03e
000000a0: e50a 2fbd 700f 15be 8e35 99bd 4275 9fbe
000000b0: 2bb1 403e ab35 e9be 047e a53e 406f 123e
000000c0: d267 b5be 5e9a a13e 5206 d23a 2ded 7ebf
000000d0: fc4c 6bbd e94e 243d 870c 853e 5691 a3be
000000e0: e6d7 8f3e 52a3 1cbd 2926 3bbe cce3 2ebf
000000f0: d1d3 a63d 2025 95be d40f 433e 3876 98be
00000100: dd4c 223e 2448 59be 1750 bf3f 9c30 f83e
00000110: e3b1 763d 2099 5fbd 0b5d 6bbd 4527 493d
00000120: 7ff9 1f3e 4603 0a3f cf55 213e e568 093f
00000130: e6cb 403e d376 523e 685d 96be f99f 65bd
00000140: 05cc 693e 9de1 cb3e f04c d33e fd13 b03e
00000150: 29b5 063f 673c 003f 730c 843e 8fb0 4b3f
00000160: beaa a93e ef12 2a3f da2f 0a3e e5cd 993f
00000170: 8b15 aa3f 5a82 2e3e 73dc 983e 2c00 3bbc
00000180: 6c65 61be 3779 113d 8265 d73e 5d5f 15be
00000190: 3c22 ba3e 28f1 863f a22e da3e 990f f73d
000001a0: 6c64 ae3e a447 aa3e dd87 fd3e b450 e23e
000001b0: 825a 903f 55a6 093e e50b e83e 56c5 aa3e
000001c0: 3be8 083f 26a4 6839 59be 303e f24c c63e
000001d0: 1ad4 92b9 0260 a13c d824 9c3e 7738 d1bd
000001e0: 2101 a33e f9dc c73e aeb5 903f 8ca3 383f
000001f0: 96b7 fc3e 446e 883e 592f c23e dd85 f73e
00000200: ec9f 87be 6768 033e 78f7 753e 6c50 ca3e
00000210: 9744 2abd f691 dbbe 8782 bf3d 0b1c 18be
00000220: bcc2 42bf 6e11 013d e37d 803e 1fd8 173e
00000230: eaa9 7a3d c66a ca3d af67 143e 3412 02be
00000240: f6d1 c53d 2537 173d 653b d93d a17c 313c
00000250: f331 103e acda 47be a2b4 383e 0b69 a1bd
00000260: 2833 57be e60a 763c cc78 813e 4e84 373d
00000270: 7294 8fbe 34c2 55be ea14 a1bd 47f9 e7bd
00000280: 7aed 79be b068 153f 5cff 3dbc bf50 ba3d
00000290: 23f0 c5bd dab3 6b3d ec78 873d 2f51 fabd
000002a0: cc68 053e cfcd 493d 309d 19be 5d30 aabd
000002b0: f12e 1ebf d377 053e 0ff7 1dbe 202c 03bf
000002c0: 0eda 0ebe 63b9 3abc 927a 87be eeb2 d2bd
000002d0: e65b 393e 0fae e73d 5123 3ebe be7a 483e
000002e0: 5555 1bbe 935a 9cbe bf6c 5a3d 98fd 523e
000002f0: f7d9 393e c155 6b3d a39a 22be e2a5 11be
00000300: 5d5f 08be 5ff5 233e 8b0c 14bf 85b5 243e
00000310: c887 c73d f20b 95be 236b 19bd 2ca5 5ebd
00000320: 6d9d f1bd e3d7 40be e1a7 eb3c 9060 4c3e
00000330: ddd6 cf3e 5623 243d 3227 c8be 8cab c83d
00000340: 3dee 81be 809f fbbe 9a83 533d 06fe cf3d
00000350: 5534 9c3c 35de c2bd f8e2 9d3e f982 c83d
00000360: bc64 0d3e 0257 e83e b272 9c3d b07b 0bbf
00000370: b133 f2be f3b2 1ebb 76ed db3b 3d97 6abe
00000380: 1825 edbe 26f0 0fbf bbfa 7c3d d9b9 133e
00000390: 3b36 2fbc 2122 73be 09e2 e53e c2cb c93e
000003a0: 5620 8fbd ee7b 603e ca8a d93e d9e3 253d
000003b0: de14 19bf bb33 103e 5fad 64be 0e98 a0be
000003c0: 9b1d 093e 5ed2 27be 40ff c53e 3cf9 383f
000003d0: c5fa 72bd 29f5 513e c4ba 26be 581d 9c3d
000003e0: d28b 8dbe 8e70 9a3d 4f64 f23d a67a 4cbe
000003f0: 900e 51be 1355 bb3d 1bcd 563e dcfa 9ebe

encoder.lstm.weight_ih_l1 f4 [256, 64]
0.20031847 0.34271958 0.62703 -0.17737101 -0.20040956 0.75196844 -0.3361012 -0.07028393
0.110568926 -0.40475172 -0.20109084 -0.18591948 0.48752636 -0.24194737 0.26652944 -0.26579866
-0.51155096 -0.72025967 -0.3516758 0.16285416 1.6928353 -0.13251238 -0.34335172 -0.025559045
-0.124549374 -0.59732413 0.85557485 -0.23338805 -0.07667412 1.1926244 1.0086445 -0.55081683
-0.74088633 -0.036904685 0.6080961 0.5355882 0.77594745 -0.98938566 0.25022575 0.1863188
1.8100444 -0.10183021 -0.36867788 0.15439533 -0.17344648 -0.1701422 -0.27616346 0.8345993
0.102935776 -0.75640136 -0.34629053 -0.2753576 0.42407814 -0.01758114 0.073094204 -0.10778868
0.43146473 -0.53100085 0.414906 -0.0050983243 0.006058479 0.64590156 -0.29401296 -0.08920233
0.79974943 -0.35441735 -0.3226381 -0.43349773 0.07787856 -0.5403079 0.81027603 -0.3435989
0.46492928 0.08499122 -0.45147368 -0.22711667 0.4602267 -0.43235004 0.9037935 0.7802357
-0.3076675 0.1330869 0.16985421 0.9423962 0.9908016 0.74314797 -0.19049667 0.054980244
-0.46517926 -0.022781514 -0.105018616 0.70761645 0.5113692 0.6497858 -0.4421976 -0.7116062
-0.27371076 -0.19165875 0.32596952 -0.3820091 -0.3700817 -0.55069214 0.615478 -0.57641035
-0.616223 -0.6921122 0.6094843 0.22254486 0.18806311 -0.26319534 -0.41280356 0.17307717
0.020624302 -0.55507547 0.32030633 0.11227902 0.43081757 -0.16546613 -0.10808168 -0.6987818
-0.018071316 -0.3590395 0.4712711 -0.28269553 0.055039413 0.3417228 -0.48220718 -0.4908835
-0.49107328 -0.19181634 0.22815366 1.0231053 0.88644713 -1.1200153 -0.39556232 -0.50773406
-0.2423221 -0.16950333 0.44362843 0.16324306 -0.7496296 1.0658206 -0.412572 -0.5311861
-0.3841996 0.6450417 0.11003017 -0.006342105 -0.1306602 0.2588392 0.033477895 0.13914827
-0.6079865 -0.24193342 0.07279006 -0.53684443 -1.0810294 0.23076797 0.20016493 0.2059302
-0.5117272 -0.32394755 0.07231324 -0.7790758 -0.8612934 0.49751613 0.27956522 0.53967315
0.50878036 0.10374708 0.10447368 0.030263562 0.3197235 -0.20317397 0.20452696 -0.17420667
-0.17569834 0.5697523 -0.34064013 -0.15754086 0.07399303 0.7808644 -0.36598185 -0.024358422
0.5895008 -0.47134382 0.056905035 0.32035476 0.53739166 1.5416903 -0.18842019 1.0349066
-0.12044861 0.06234333 0.20171097 1.1098197 0.39443287 0.41003457 0.36189386 -0.09733596
-0.24136358 -0.7184535 0.74790174 0.018639868 0.42948392 0.789931 -0.7597372 0.48397997
0.79929703 -0.29349628 0.3361947 -0.6924057 -0.31863034 -0.4265932 -0.11601963 -0.33231604
-0.44484514 -0.30530158 0.51195174 0.07964432 0.24859373 -0.5583539 0.34748417 0.72198254
0.5866734 -0.024161877 0.56138444 0.83584183 0.07785736 -0.53337395 0.06413796 -0.013252874
0.518596 0.21237217 0.93151236 -0.6090764 -0.23263484 1.0043248 -0.48854738 -0.06541335
0.48339596 -0.5877873 0.34950322 0.6323937 -0.14727186 -1.4751881 0.725278 -0.49287587
0.6865368 -0.055093776 -0.005215711 -0.22056794 0.20305477 0.17055388 0.030026441 0.021302726
00000000: 4920 4d3e f178 af3e 0a85 203f bfa0 35be
00000010: 2a38 4dbe 0181 403f 7515 acbe 05f1 8fbd
00000020: f671 e23d 9e3b cfbe c2ea 4dbe ad61 3ebe
00000030: 0e9d f93e 0dc1 77be 8c76 883e c316 88be
00000040: 01f5 02bf f062 38bf da0e b4be 3ec3 263e
00000050: d4ae d83f 53b1 07be cccb afbe 3461 d1bc
00000060: be13 ffbd 3cea 18bf f406 5b3f 47fd 6ebe
00000070: 5207 9dbd eba7 983f 431b 813f 5502 0dbf
00000080: baaa 3dbf 5e29 17bd 30ac 1b3f 4f1c 093f
00000090: 7ea4 463f 6148 7dbf 971d 803e 5bca 3e3e
000000a0: 89af e73f 5b8c d0bd 59c3 bcbe cf19 1e3e
000000b0: f49b 31be c239 2ebe 4c65 8dbe 4da8 553f
000000c0: fecf d23d 85a3 41bf fe4c b1be acfb 8cbe
000000d0: c520 d93e 5306 90bc 6ab2 953d 50c0 dcbd
000000e0: f2e8 dc3e acef 07bf 8f6e d43e d80f a7bb
000000f0: 3586 c63b ce59 253f de88 96be b6af b6bd
00000100: 61bc 4c3f 3176 b5be d230 a5be 6af3 ddbe
00000110: cb7e 9f3d 9e51 0abf 406e 4f3f 32ec afbe
00000120: 360b ee3e e00f ae3d 8f27 e7be 4691 68be
00000130: d6a2 eb3e fc5c ddbe 035f 673f 87bd 473f
00000140: 9886 9dbe ef47 083e 43ee 2d3e e140 713f
00000150: 2ca5 7d3f f23e 3e3f 8f11 43be f732 613d
00000160: fa2b eebe 4ca0 babc 0014 d7bd 5a26 353f
00000170: 18e9 023f 5d58 263f b967 e2be d32b 36bf
00000180: d123 8cbe 3142 44be 7ae5 a63e b296 c3be
00000190: 597b bdbe 29fa 0cbf f78f 1d3f a18f 13bf
000001a0: cac0 1dbf 442e 31bf 2a07 1c3f cde2 633e
000001b0: 9e93 403e 8ac1 86be fd5a d3be 243b 313e
000001c0: 4cf4 a83c 6d19 0ebf 31ff a33e 8bf2 e53d
000001d0: 1f94 dc3e f46f 29be ee59 ddbd 5de3 32bf
000001e0: 4c0a 94bc 06d4 b7be 724a f13e 78bd 90be
000001f0: 0271 613d 4af6 ae3e dce3 f6be 1555 fbbe
00000200: f56d fbbe 816b 44be 1da1 693e 1df5 823f
00000210: 33ee 623f a95c 8fbf 2587 cabe dcfa 01bf
00000220: 4923 78be 4892 2dbe 4423 e33e 3029 273e
00000230: bae7 3fbf cf6c 883f a33c d3be d0fb 07bf
00000240: cfb5 c4be 7421 253f 7f57 e13d 6fd1 cfbb
00000250: cacb 05be 9286 843e 1e20 093d e27c 0e3e
00000260: 01a5 1bbf 65bd 77be f412 953d a36e 09bf
00000270: 2c5f 8abf 704e 6c3e 09f8 4c3e 5edf 523e
00000280: 8e00 03bf 74dc a5be f718 943d 8371 47bf
00000290: b97d 5cbf 6fba fe3e 2c23 8f3e 0528 0a3f
000002a0: 6e3f 023f 5979 d43d 4cf6 d53d 4aeb f73c
000002b0: ccb2 a33e d60c 50be 846f 513e 3c63 32be
000002c0: 44ea 33be 49db 113f 6268 aebe 6452 21be
000002d0: a889 973d bbe6 473f f961 bbbe 508b c7bc
000002e0: 86e9 163f fa53 f1be 4115 693d 8a05 a43e
000002f0: 8092 093f 1c56 c53f 39f1 40be d277 843f
00000300: c3ad f6bd b85b 7f3d 528d 4e3e 920e 8e3f
00000310: 1bf3 c93e 0df0 d13e 274a b93e 1358 c7bd
00000320: 0428 77be 92ec 37bf 7d76 3f3f a3b2 983c
00000330: 51e5 db3e eb38 4a3f 237e 42bf 39cc f73e
00000340: bb9e 4c3f 2545 96be b621 ac3e 8041 31bf
00000350: 8423 a3be 6d6a dabe b39b edbd 5425 aabe
00000360: bec2 e3be 7d50 9cbe 450f 033f 901c a33d
00000370: 5b8f 7e3e 48f0 0ebf 72e9 b13e d9d3 383f
00000380: 3a30 163f 21ef c5bc e4b6 0f3f bbf9 553f
00000390: ae73 9f3d 328b 08bf c35a 833d 9522 59bc
000003a0: b5c2 043f 1778 593e 9877 6e3f 6eec 1bbf
000003b0: d437 6ebe b78d 803f e222 fabe 6ff7 85bd
000003c0: ad7f f73e 3a79 16bf 16f2 b23e 8ee4 213f
000003d0: 6fce 16be f7d2 bcbf d2ab 393f 3a5a fcbe
000003e0: e0c0 2f3f 03aa 61bd 8ee8 aabb 90dc 61be
000003f0: 97ed 4f3e ada5 2e3e 03fa f53c 0e83 ae3c

encoder.lstm.weight_hh_l1 f4 [256, 64]
-0.9540227 1.3931938 0.5874054 0.2609715 0.2123716 -0.11209798 0.055038143 -0.56112814
0.1547949 -0.42820513 0.18778655 0.45563945 0.07179561 -0.058911975 -0.2999555 -0.47996208
-0.19439553 -0.43474588 0.07784255 -0.32398775 0.42053312 0.85524696 0.44516858 0.016925171
0.24781583 0.09764075 -0.2607973 0.9674098 0.16677687 -0.5493798 -0.41122577 -0.08386465
0.16002151 -1.1047035 0.4705273 0.6101849 0.41804612 -0.008444427 0.61351585 0.24923421
-0.22775644 0.46324387 -0.12676285 -0.94359905 0.57839817 -0.61340207 -0.6520457 -0.15377447
-0.12379493 0.44876975 0.48820415 -0.1252132 -0.0484568 0.09088443 0.21880622 0.9220534
0.26696903 -0.22842179 -1.1487 -0.24329174 -1.3728162 -0.29160365 0.18504947 1.1005788
-0.47022888 -0.31426656 -0.35748872 -0.49491087 -0.16584511 -0.52841663 0.4927802 0.5436168
-0.4144923 -0.44743136 0.32709125 -0.5406338 0.15227202 -1.1610312 -0.13203233 -1.4573163
-0.32531893 0.40904135 -0.11884865 -0.20427833 0.5742732 0.78665817 0.21363348 0.12531962
0.23220137 -0.13777895 0.23535253 -0.22018732 0.48204842 0.07644728 0.6006019 0.37355414
0.61890304 -0.6505346 0.005000699 0.28737214 -0.056711424 0.80486435 0.11944058 -0.5983666
-0.8930081 -0.24851972 -0.15176255 0.41356385 -0.29072273 -0.782999 -0.22978882 -0.71494806
-0.060341984 -0.06869275 -0.38905025 0.6843411 -0.65356606 0.12910978 -0.27829054 0.23909016
0.21418823 -0.85166496 0.0037674156 0.39091954 -0.72386223 -0.51542675 0.09587422 0.63777626
-0.015856346 0.14098662 0.88142884 -0.1493081 0.64490026 0.78005004 -0.8301372 -0.51865953
0.44544852 -0.05928245 -0.093861915 0.37011677 -0.49192056 -0.16637193 0.09844324 -0.5295455
-0.2171418 1.1518258 -0.68314993 0.20070103 -0.06924369 0.23582913 0.5575715 0.6062169
-0.2900367 0.56116986 -0.35912693 0.11388164 -1.013461 0.5442431 -0.86071366 0.026142202
0.67054355 0.45060354 0.5897762 -0.68954825 0.8671326 -0.4703878 0.42146975 -0.07687561
-0.12918065 0.47828034 0.047676016 -0.69758224 -0.97319597 0.55163693 -0.08815586 0.5863424
-0.48980787 -0.6294357 0.4147513 -0.022158463 0.7433481 0.25381112 -0.1018593 -0.032887816
-0.49017248 0.5762725 -0.06440009 -0.19838634 -0.36352107 0.027094243 -0.03412951 0.5274532
0.54763687 0.23637135 0.16859971 0.45232707 -0.28617525 0.4015033 -0.41691443 0.58628243
0.022673583 -0.1341369 0.08072632 -0.1153918 0.34988484 0.011767623 0.08082332 -0.18625353
-0.8463436 -0.5340274 -0.49011058 0.13040501 0.40532604 0.14242645 -0.3718079 -0.17117807
-0.056469426 0.25409523 -0.27348098 0.29240158 0.41167378 0.09245405 0.34825808 -0.25242877
0.19555487 0.76590276 0.1625444 -0.112226546 0.03925249 0.36543047 0.15330896 -0.38311946
0.795025 0.33863854 0.51363665 -0.3005327 0.006932501 -0.374094 0.13342139 -0.07576646
0.82182676 -0.49750227 0.32597226 -0.3407986 0.037684076 0.7678637 0.252498 0.15209408
0.14422044 0.38164365 -0.37541118 0.044657007 -0.32267058 0.20498075 0.28302228 -0.1607341
00000000: d53a 74bf 2d54 b23f 3360 163f 0e9e 853e
00000010: f177 593e a093 e5bd ad6f 613d 18a6 0fbf
00000020: 8e82 1e3e b43d dbbe 1e4b 403e 9349 e93e
00000030: 9409 933d af4d 71bd c493 99be 97bd f5be
00000040: 9f0f 47be 0397 debe ea6b 9f3d b9e1 a5be
00000050: 1e50 d73e 77f1 5a3f 23ed e33e a8a6 8a3c
00000060: 6fc3 7d3e e0f7 c73d 3987 85be 2ba8 773f
00000070: 8ec7 2a3e 28a4 0cbf 2f8c d2be 3bc1 abbd
00000080: aedc 233e ed66 8dbf f4e8 f03e 1435 1c3f
00000090: 240a d63e 7e5a 0abc 600f 1d3f 4137 7f3e
000000a0: fc38 69be 4d2e ed3e 1fce 01be b58f 71bf
000000b0: e711 143f eb07 1dbf 78ec 26bf 0e77 1dbe
000000c0: 3288 fdbd 26c5 e53e e5f5 f93e e437 00be
000000d0: a37a 46bd 9e21 ba3d bd0e 603e b10b 6c3f
000000e0: 2ab0 883e 67e7 69be 9a08 93bf 7821 79be
000000f0: 71b8 afbf 134d 95be 9c7d 3d3e c4df 8c3f
00000100: d7c1 f0be 8ce7 a0be c308 b7be f564 fdbe
00000110: 4dd3 29be 5046 07bf b04d fc3e 782a 0b3f
00000120: 5638 d4be b915 e5be 8178 a73e fa66 0abf
00000130: 32ed 1b3e ac9c 94bf 7c33 07be 5789 babf
00000140: 3490 a6be de6d d13e ec66 f3bd 572e 51be
00000150: 9203 133f 6e62 493f bcc2 5a3e c953 003e
00000160: 32c6 6d3e ed15 0dbe 4100 713e c978 61be
00000170: 0dcf f63e 6490 9c3d 0cc1 193f 7d42 bf3e
00000180: 6e70 1e3f 6f89 26bf e7dc a33b 7122 933e
00000190: 3d4a 68bd 970b 4e3f 439d f43d 8e2e 19bf
000001a0: 2e9c 64bf f47b 7ebe a467 1bbe a4be d33e
000001b0: 9cd9 94be 9f72 48bf c34d 6bbe d606 37bf
000001c0: 2829 77bd c9ae 8cbd 9831 c7be fa30 2f3f
000001d0: 1b50 27bf 5b35 043e 197c 8ebe 0dd4 743e
000001e0: 2954 5b3e b706 5abf bfe6 763b 9b26 c83e
000001f0: 094f 39bf 02f3 03bf b459 c43d 4e45 233f
00000200: 2be5 81bc cc5e 103e 52a5 613f 39e4 18be
00000210: 2f18 253f 5cb1 473f df83 54bf dfc6 04bf
00000220: d411 e43e 27d2 72bd ad3a c0bd f27f bd3e
00000230: 03dd fbbe 675d 2abe 9c9c c93d 4b90 07bf
00000240: 6c5a 5ebe 076f 933f eae2 2ebf 9284 4d3e
00000250: a3cf 8dbd 317d 713e 01bd 0e3f 0831 1b3f
00000260: b17f 94be d4a8 0f3f 7cdf b7be c73a e93d
00000270: 17b9 81bf 8453 0b3f bb57 5cbf 2c28 d63c
00000280: bea8 2b3f 82b5 e63e 93fb 163f 3c86 30bf
00000290: 67fc 5d3f abd6 f0be e2ca d73e f670 9dbd
000002a0: ef47 04be 29e1 f43e ed47 433d c094 32bf
000002b0: 5f23 79bf 1438 0d3f 0f8b b4bd 891a 163f
000002c0: 19c8 fabe b322 21bf 485a d43e aa85 b5bc
000002d0: 104c 3e3f 88f3 813e 9c9b d0bd 60b5 06bd
000002e0: e3f7 fabe 9886 133f 32e4 83bd ca25 4bbe
000002f0: 6f1f babe bff4 dd3c 63cb 0bbd 2c07 073f
00000300: ee31 0c3f 550b 723e 67a5 2c3e 6a97 e73e
00000310: 9085 92be d791 cd3e cf75 d5be 9b16 163f
00000320: f3bd b93c 2f5b 09be d753 a53d 8952 ecbd
00000330: 1b24 b33e fdcc 403c b286 a53d 3fb9 3ebe
00000340: f9a9 58bf 05b6 08bf c6ef fabe e488 053e
00000350: e586 cf3e 3dd8 113e 9b5d bebe 4e49 2fbe
00000360: 7c4c 67bd c518 823e b305 8cbe a9b5 953e
00000370: e8c6 d23e 8d58 bd3d e24e b23e 583e 81be
00000380: 893f 483e 3412 443f 0a72 263e 08d7 e5bd
00000390: 38c7 203d b419 bb3e 06fd 1c3e 3c28 c4be
000003a0: c286 4b3f 0862 ad3e b17d 033f 6cdf 99be
000003b0: 092a e33b 4089 bfbe 9e9f 083e 722b 9bbd
000003c0: 3d63 523f 9eb8 febe d6e5 a63e 277d aebe
000003d0: 9e5a 1a3d b792 443f 6b47 813e 8dbe 1b3e
000003e0: 86ae 133e cc66 c33e e535 c0be 44ea 363d
000003f0: 1435 a5be 79e6 513e 4ce8 903e 7b97 24be

encoder.lstm.bias_ih_l1 f4 [256]
-0.31570855 -0.5588959 -0.023858765 0.1766677 -0.48211855 -0.02105127 -0.19192888 0.073185764
-0.22854066 -0.25580534 -0.0036221396 -0.28147396 0.07810449 0.2843806 -0.13699716 -0.14744885
-0.3123673 -0.48443735 0.35517943 -0.13037574 -0.09304253 0.011814773 -0.15326302 -0.50522906
-0.07196216 -0.34256348 -0.39363408 0.11133898 -0.46910703 0.21055147 -0.21940301 -0.40265846
-0.44888604 -0.23380882 -0.08429294 -0.23174924 -0.1723987 -0.18395539 0.7979822 -0.79281193
-0.54976046 0.5845068 -0.21393149 0.03647072 -0.108402 0.120177254 0.0612837 0.09109726
0.10962222 -0.44447017 -0.24690512 0.050582808 0.66985554 -0.38933295 0.28168017 0.37348232
-0.03154943 -0.602069 -0.44259775 -0.2019744 -0.42908943 0.06626064 0.19450834 -0.06472686
0.47624648 -0.32121202 0.065351136 0.10543463 -0.2801665 0.64698386 0.46781644 0.41495335
0.066737935 0.45599815 -0.0045144255 0.60480404 -0.32896987 0.119496986 0.65867025 0.32193488
0.2678191 0.13508242 0.47176543 0.46992278 0.30671322 0.5845007 0.32046476 0.7345287
0.44067785 0.4758503 -0.06660605 0.36700022 -0.13381042 0.21447511 0.33012852 0.49831167
0.40998366 0.20019586 0.42576313 0.6662798 -0.056546565 0.35153887 0.61865985 -0.014607677
0.4866899 0.21332632 -0.08584915 0.6412359 0.36697376 0.14619002 0.23526031 0.70506287
0.7910576 0.44460416 0.07549358 0.2353924 0.7601712 0.31051153 -0.48051724 0.20672978
0.06868771 0.6265725 0.4935229 -0.2519917 0.35436848 0.3826033 0.5022448 -0.34541392
0.5062205 0.0103269145 0.40263423 -0.24604145 -0.080401056 0.6127699 -0.460035 -0.23456372
-0.33707097 0.6351948 -0.1818774 0.15821412 0.17554003 0.16942911 -0.292465 0.37566948
0.31763583 0.02796247 0.5003086 0.6687371 -0.3860399 0.012826221 0.12327873 -0.130839
-0.36016563 -0.3142388 0.33505005 0.7789954 -0.02147694 -0.19550033 -0.25185353 -0.22473785
-0.40838793 0.09083145 0.05663996 0.440324 -0.15562662 -0.4056036 -0.9923456 -0.012828695
0.02657035 -0.5618995 0.46988764 0.7076451 -0.023229485 -0.10860571 -0.108284 0.08979471
0.12568493 -0.053585585 0.2058468 -0.26311237 0.36868456 0.12686068 0.5061179 0.3248566
-0.080223545 0.33389032 -0.044264942 0.086104706 -0.20272487 0.36692163 -0.20599045 0.3720198
-0.586532 0.20995 -0.32757413 0.049115244 0.102977976 0.115773685 -0.04372261 -0.43721864
-0.19280174 -0.61766183 -0.12522161 0.27771884 0.42280886 -0.1266861 -0.16114613 -0.14091071
-0.09454522 -0.117314905 -0.4724057 -0.004873317 0.5324952 -0.13040721 0.22902808 0.17135186
-0.41110405 -0.26828954 -0.21825442 -0.4782858 0.21417028 -0.0035496508 -0.40544304 -0.12921001
0.28085726 -0.14285794 0.026112776 -0.29410776 0.057443127 -0.24131171 -0.5655501 -0.04594763
0.38514262 -0.6709569 0.47541192 -0.6129815 0.29669803 -0.018507455 0.3826777 0.36357304
-0.37490296 -0.21449937 0.1327624 0.05251198 0.068656534 0.13840336 -0.4173324 -0.6663733
-0.10020099 0.18777086 0.24202402 0.12648456 0.10660477 0.5613617 -0.2421957 -0.30248377
00000000: 8da4 a1be cd13 0fbf 7573 c3bc 61e8 343e
00000010: 3ed8 f6be b773 acbc 0189 44be 6be2 953d
00000020: 9006 6abe ebf8 82be 6b61 6dbb 5b1d 90be
00000030: 3ff5 9f3d 569a 913e fc48 0cbe d5fc 16be
00000040: 9bee 9fbe 2c08 f8be 14da b53e 3881 05be
00000050: 158d bebd c092 413c fbf0 1cbe b156 01bf
00000060: e660 93bd 7b64 afbe 688a c9be b105 e43d
00000070: cc2e f0be ce9a 573e 2fab 60be 4029 cebe
00000080: 64d4 e5be 946b 6fbe c7a1 acbd ac4f 6dbe
00000090: 4989 30be cd5e 3cbe 9048 4c3f b9f5 4abf
000000a0: 1abd 0cbf 3da2 153f db10 5bbe 5262 153d
000000b0: de01 debd 7e1f f63d 9e04 7b3d 3391 ba3d
000000c0: 9d81 e03d 9891 e3be b2d4 7cbe eb2f 4f3d
000000d0: a77b 2b3f a656 c7be 6238 903e 1339 bf3e
000000e0: fa39 01bd 3221 1abf 2c9c e2be 61d2 4ebe
000000f0: 9cb1 dbbe a9b3 873d 322d 473e 848f 84bd
00000100: 94d6 f33e e775 a4be d1d6 853d 1cee d73d
00000110: fc71 8fbe bca0 253f a385 ef3e c474 d43e
00000120: e6ad 883d 9778 e93e bfed 93bb 70d4 1a3f
00000130: bd6e a8be d6ba f43d 9d9e 283f a6d4 a43e
00000140: 961f 893e 0c53 0a3e 3d8b f13e b899 f03e
00000150: 8409 9d3e d6a1 153f f513 a43e 130a 3c3f
00000160: 87a0 e13e a7a2 f33e c168 88bd 74e7 bb3e
00000170: 9905 09be 5d9f 5b3e 9b06 a93e b522 ff3e
00000180: 61e9 d13e 2500 4d3e a0fd d93e 5091 2a3f
00000190: 5f9d 67bd e7fc b33e 7e60 1e3f 0a55 6fbc
000001a0: 6b2f f93e 3772 5a3e aed1 afbd 0928 243f
000001b0: fce3 bb3e d6b2 153e 14e8 703e 007f 343f
000001c0: c082 4a3f 28a3 e33e 619c 9a3d b50a 713e
000001d0: 949a 423f 5efb 9e3e 5b06 f6be f9b0 533e
000001e0: 24ac 8c3d 0e67 203f 09af fc3e 0e05 81be
000001f0: c96f b53e 94e4 c33e 1d93 003f 18da b0be
00000200: ab97 013f 3832 293c 1326 ce3e 4af2 7bbe
00000210: 4fa9 a4bd 7dde 1c3f b589 ebbe 7931 70be
00000220: 9194 acbe 209c 223f 123e 3abe e202 223e
00000230: c4c0 333e d37e 2d3e f9bd 95be c057 c03e
00000240: 2aa1 a23e 8d11 e53c 3914 003f 5b32 2b3f
00000250: 06a7 c5be 1225 523c 8f79 fc3d a9fa 05be
00000260: a167 b8be e8e3 a0be ae8b ab3e 3e6c 473f
00000270: 68f0 afbc 3d31 48be f2f2 80be ae21 66be
00000280: 3918 d1be d705 ba3d 4dff 673d 2672 e13e
00000290: 965c 1fbe 46ab cfbe 5c0a 7ebf 722f 52bc
000002a0: 10aa d93c a5d8 0fbf 1d95 f03e 3b28 353f
000002b0: c34b bebc ac6c debd 00c4 ddbd 4ae6 b73d
000002c0: 8db3 003e 8f7c 5bbd 81c9 523e aab6 86be
000002d0: 39c4 bc3e c4e7 013e f190 013f 9b53 a63e
000002e0: 3e4c a4bd acf3 aa3e 284f 35bd aa57 b03d
000002f0: 1c97 4fbe 27dd bb3e 29ef 52be 6179 be3e
00000300: f626 16bf 22fd 563e ccb7 a7be 112d 493d
00000310: 1ee6 d23d c11a ed3d 7b16 33bd 1fdb dfbe
00000320: d26d 45be 161f 1ebf 183a 00be 2a31 8e3e
00000330: 677a d83e 00ba 01be 7e03 25be e64a 10be
00000340: eda0 c1bd cc42 f0bd 29df f1be 59b0 9fbb
00000350: 9b51 083f 7889 05be 5686 6a3e dd76 2f3e
00000360: 3b7c d2be 3f5d 89be 167e 5fbe e0e1 f4be
00000370: 744f 5b3e 42a1 68bb 3b96 cfbe a14f 04be
00000380: 86cc 8f3e 5a49 12be 76ea d53c 4b95 96be
00000390: 7c49 6b3d 6b1a 77be e4c7 10bf 9533 3cbd
000003a0: 6a31 c53e d5c3 2bbf 3169 f33e 5bec 1cbf
000003b0: cee8 973e f29c 97bc 55ee c33e 3f26 ba3e
000003c0: 48f3 bfbe b9a5 5bbe def2 073e cd16 573d
000003d0: cc9b 8c3d 9cb9 0d3e 98ac d5be 7197 2abf
000003e0: 2d36 cdbd 0147 403e 25d5 773e 2b85 013e
000003f0: 9a53 da3d 66b5 0f3f 2602 78be 27df 9abe
