seq2seq_model_01.pth (torch, 971287 bytes, 36 tensors)

encoder.embedding.weight f4 [31, 10]
000000 fe f5 27 3d 11 fa 30 bf bb c9 8d bf 4c 5a 81 bf
       0.04100608 -0.6913157 -1.1077188 -1.0105681
000010 44 36 cf be d4 13 78 bf 3c 15 ca 3f 0f 8b 98 bf
       -0.4047109 -0.96905255 1.578773 -1.1917437
000020 68 22 ca 3f d8 0c de 3e 8c d9 c4 3e c5 3b 10 bf
       1.579175 0.43369174 0.38447225 -0.563412
000030 f2 56 b0 bf 2e 75 8e 3f 22 cc 71 3f 42 cf 0d bf
       -1.3776534 1.112951 0.94452107 -0.55394375
000040 08 6c 93 3f fd 47 44 3d 96 14 b1 bf 52 08 56 3f
       1.1517344 0.047920216 -1.3834407 0.83606446
000050 54 ac b1 be 49 15 28 bf 70 9d 0c bf 6c c2 2a 3e
       -0.34701788 -0.6565748 -0.5492773 0.16675729
000060 ac 75 f5 3e fa 14 b1 bf 3c 51 51 3f 95 44 f7 be
       0.4794134 -1.3834527 0.8176458 -0.4829451
000070 bd 28 02 3f 35 c4 a6 3f 94 b7 b4 3f e1 8d 11 bf
       0.5084341 1.3028628 1.4118524 -0.56857115
000080 65 bb e3 bc 11 84 8b 3f ab 5e 6c bf 1a 7a bb be
       -0.027799318 1.0899678 -0.9233195 -0.36616594
000090 5f 49 93 bf e4 3f bf 3e 07 9b 48 bf ad e0 6c be
       -1.1506766 0.37353432 -0.7836155 -0.23132582
0000a0 04 46 e8 3d 59 88 27 c0 94 32 53 3f c5 67 ea bf
       0.113414794 -2.617697 0.8249905 -1.8312918
0000b0 17 b5 28 3f 49 c7 96 bd ee 29 9f bf db f4 8b bc
       0.6590132 -0.073622294 -1.2434671 -0.01708453
0000c0 31 f4 16 c0 85 78 36 bf 60 d1 72 3f 46 f9 18 3e
       -2.3586543 -0.7127765 0.9485073 0.1493884
0000d0 fa 3a 35 be 18 7a 86 3f f1 be ca bf cb b8 50 40
       -0.17698279 1.050601 -1.5839521 3.2612789
0000e0 b4 9e ed 3f db 60 5d bf bf 2e 1a 40 e2 0f 9b 3f
       1.8564057 -0.86475915 2.4091032 1.2114222
0000f0 48 19 c5 3f 17 b0 a3 bd 4f 79 35 40 bd 00 86 bf
       1.539834 -0.07992571 2.835529 -1.0468975
000100 b9 4b 34 be 3a a3 25 bf d1 7f 01 c0 69 db 5c 3f
       -0.17607011 -0.6470219 -2.0234263 0.86272293
000110 89 ee 41 3f 7e 3a cc 3f fe 56 c2 3d ce 17 3d be
       0.757546 1.595535 0.09489249 -0.18466112
000120 5f e2 23 3f 31 12 89 bf 9b d3 e6 3f 30 9f ce 3f
       0.6401729 -1.0708677 1.8033327 1.614233
000130 25 1a 0e bf 30 26 ef 3f 04 06 ef bd b5 3d 2a 40
       -0.55508643 1.8683529 -0.11671069 2.6600163
000140 bc 49 80 bf 60 6d c7 3f 6d 0f 3f 3f 92 f4 87 3f
       -1.0022502 1.5580254 0.7463291 1.0621512
000150 de 11 4f bf 83 0e 48 bf dc e5 18 c0 20 7d e8 bf
       -0.8088664 -0.78147143 -2.3890295 -1.8163185
000160 5a 59 29 c0 05 c0 cb bf 7b 65 aa bf 80 10 e6 3e
       -2.6460786 -1.5917975 -1.3312219 0.44934464
000170 0c c6 a3 3d ab de 6e bf eb 4f df bf c9 3c f1 be
       0.07996759 -0.93308514 -1.7446264 -0.47116688
000180 7d 1a d1 be da 8e 03 3f 6f 25 7a 3f 34 41 08 bf
       -0.4084052 0.5138985 0.9771337 -0.5322449
000190 ef 4e 7c be b0 56 bc bf 3e da 38 3f b0 fd 9b 3f
       -0.24639486 -1.4713955 0.7220801 1.2186794
0001a0 4a 7f 6d bf d7 f5 b3 be ff e1 99 3f e4 62 a9 3e
       -0.9277235 -0.35148498 1.2022094 0.3308326
0001b0 3d e6 39 3f 37 9e 96 3c 88 65 6d 3b f2 eb 35 3f
       0.7261694 0.01838599 0.0036223847 0.7106315
0001c0 10 58 0e c0 b2 09 97 3f 31 fe 34 3f 8a fa 47 bf
       -2.224125 1.1799834 0.70700365 -0.7811667
0001d0 cb 84 73 be 74 8b be bd cb 58 96 3f dd 8f e0 3f
       -0.23781125 -0.09303942 1.1745847 1.7543904
0001e0 5c f9 83 3f 76 71 d8 3e 30 6f b1 bf 31 68 09 3f
       1.0310473 0.42274064 -1.3862057 0.5367461
0001f0 79 ce 4f bf 7e 25 4d 3e 95 19 b3 bf 33 9e e5 be
       -0.8117443 0.20033833 -1.3992182 -0.4484726
000200 d7 a7 05 3e 95 49 3f 40 04 af 97 3f 05 8e 47 bd
       0.13052307 2.988866 1.1850286 -0.048719425
000210 00 3d 72 3f 0c 1f 8f bd 56 94 0d 3f 8b e5 8a 3f
       0.9462433 -0.069883436 0.5530447 1.0851301
000220 ff 2c 05 3f 09 42 9b bf 45 31 69 bf d3 76 8a 3f
       0.52021784 -1.2129527 -0.91090804 1.0817512
000230 41 00 69 3f 40 05 43 be 92 8e 07 3f 26 97 d2 3f
       0.9101601 -0.19044971 0.5295192 1.6452377
000240 4a 44 55 bc 51 91 af 3f b0 59 cd 3d a4 12 5d bf
       -0.01301677 1.3716222 0.10026872 -0.8635657
000250 bf 8f 2f bf 5d df 29 3f db 2b b0 3e 77 95 f4 3e
       -0.68578714 0.6635645 0.3440846 0.47770283
000260 f2 b4 82 bf 9c d2 e3 3e 53 5f 43 3f 27 91 aa 3f
       -1.021147 0.4449662 0.7631733 1.3325547
000270 7e 21 1d 3f 86 4f 5d 3d 4d a8 d8 3d 4b 0e af 3f
       0.6137923 0.054030918 0.10578976 1.3676237
000280 f5 ba 3e 3e 16 cd 82 bf e8 c5 7a 3f c0 f9 3c 3f
       0.18626006 -1.0218837 0.9795823 0.7381859
000290 16 5e 56 bf 2c 3b 7c 3f 2d 75 0b 40 84 3b 3c be
       -0.83737314 0.9852779 2.1790268 -0.18382078
0002a0 f9 42 7f bf ec d3 3d 3f 38 47 8f be 17 b6 f0 be
       -0.9971157 0.7415149 -0.27984023 -0.47013924
0002b0 01 88 f4 be a4 d5 92 3f fd a1 ab be cc c1 84 bf
       -0.47760013 1.1471448 -0.33522025 -1.0371642
0002c0 fa aa 4d 3f b7 70 e5 3e c0 bc 17 3f 6a af 37 40
       0.80339015 0.44812557 0.59272385 2.8700814
0002d0 44 9e 4d bf e6 52 9a 3e 4e 72 9e be 01 c1 05 3f
       -0.8031962 0.3014137 -0.30946583 0.52247626
0002e0 ef 94 37 3f b1 35 15 3f 3d 0e 25 3e 2f c0 9f bf
       0.7171163 0.5828505 0.16118713 -1.2480525
0002f0 c7 59 29 3e b9 e3 b0 bf 7e b4 0a be 4c 9e 4f 3f
       0.16538154 -1.3819495 -0.13545415 0.81100917
000300 9e 4e 93 bf 1d 2b 03 40 1a ca 8b bf dc c8 25 c0
       -1.1508367 2.0495064 -1.0921052 -2.5903845
000310 2d 77 a0 3f 21 9d 08 be 65 15 99 3e a8 a3 ad bf
       1.253637 -0.1334119 0.29899135 -1.3565569
000320 5c a2 92 be 89 61 87 bf 49 44 32 3f 81 bf e2 be
       -0.28639495 -1.057664 0.69635445 -0.4428673
000330 56 c9 a9 3f 4b c0 de bf c8 cf 38 3f 53 19 88 3f
       1.3264568 -1.7402433 0.7219205 1.0632728
000340 c6 90 2f 3e 39 36 08 be b4 5b 74 3f 2d 55 2f bf
       0.1714507 -0.13301934 0.9545243 -0.6848934
000350 18 5d 1b 40 12 54 ff 3f dc a7 4e 3f 2d e6 8e 3e
       2.427557 1.9947531 0.80724883 0.27909985
000360 76 8b a6 3f 00 4b 41 40 04 d7 9a bf 75 65 ec 3d
       1.301131 3.0202026 -1.2096868 0.11542789
000370 2b f6 19 bf 45 0c 4e 40 82 f3 07 3f ac a9 63 3f
       -0.6014125 3.2194989 0.5310594 0.88930774
000380 6c d2 57 3f e1 0d a9 3f a8 2f fb 3d 91 c8 49 3e
       0.84305453 1.320736 0.12264949 0.19705416
000390 b5 42 fb 3e e1 eb 05 40 57 13 28 bf 15 dd ba 3f
       0.4907433 2.092522 -0.6565451 1.4598719
0003a0 29 e6 eb bf fd 0a 24 c0 a4 e2 19 c0 e9 89 8d bf
       -1.8429614 -2.5631707 -2.404458 -1.1057712
0003b0 e6 12 93 bd 0a 07 cb bf 0b df 30 bf 94 e9 c6 3e
       -0.07181339 -1.5861523 -0.69090337 0.3885008
0003c0 cf 8c df bf 26 83 b8 bf cc c4 e5 bf da e2 14 c0
       -1.7464846 -1.4415023 -1.7950683 -2.326346
0003d0 64 aa 84 3f 62 55 88 3f 5b a8 e9 bf 87 57 1a 40
       1.0364499 1.0651057 -1.8254503 2.4115922
0003e0 dc e5 0f 3c 3e da f5 3f e2 47 00 c0 aa fa e5 3f
       0.00878283 1.9207227 -2.0043874 1.7967122
0003f0 de 3a e6 bf ea bc e1 bf a8 b1 f1 3d 62 d3 90 3e
       -1.7986715 -1.7635777 0.11801463 0.28286272

encoder.lstm.weight_ih_l0 f4 [256, 10]
000000 4c 6a 04 bf 8e d2 5c 3e 78 6f 08 be b7 07 44 3d
       -0.51724696 0.21564695 -0.13323772 0.04785892
000010 27 da 15 3f 39 b5 9d be c5 57 f5 bd 47 fe 8e 3e
       0.58536 -0.30802324 -0.11979631 0.27928373
000020 66 47 d9 3e 63 7f c6 3e df 32 a0 3e 24 6c 1d be
       0.42437285 0.38769063 0.31288812 -0.15373284
000030 00 a2 33 bd ab 1b 64 be ae 7a 2f be 9b 16 4b bf
       -0.043855667 -0.2227618 -0.17136642 -0.7933137
000040 ae b2 84 3e c1 68 86 3d 5f 84 36 be e3 f6 9c be
       0.25917572 0.06562949 -0.17823933 -0.3065711
000050 61 08 e2 bd ea 75 bd 3e d1 b3 dc 3d 6b 91 f3 bd
       -0.110367544 0.37004024 0.10776485 -0.11892971
000060 fe 6d 66 3b c8 aa 05 bf b2 92 2f bf f6 bd e9 bd
       0.0035160775 -0.52213717 -0.68583214 -0.11413185
000070 ae 2e 92 be c8 7a a2 be 3c 54 1f bf c5 de 5c bd
       -0.2855124 -0.317343 -0.62237906 -0.053923387
000080 90 3c be 3b cb 50 15 3f 46 f8 10 3f db 1b 2a be
       0.0058055595 0.58326405 0.56628835 -0.16612189
000090 88 8f 6c 3e 1f 98 7d 3f fd 24 fe 3d de 8b 68 be
       0.23101628 0.99060243 0.12409399 -0.22709605
0000a0 62 be 39 be ee 03 a5 3e a8 51 c6 be 87 e5 0a bf
       -0.18139032 0.3222956 -0.38734174 -0.5425648
0000b0 a8 15 b4 3e d9 a7 0a bb e2 43 88 3d 33 37 d8 3e
       0.35172772 -0.0021157174 0.066535726 0.42229614
0000c0 8c 5b ef 3d 4a 0d b0 be f4 31 1c bf 64 0a 66 3d
       0.11687383 -0.3438514 -0.6101372 0.056162253
0000d0 db ce fd 3e fe 90 09 3f 4e 9f 83 bd 8d 9b 99 3e
       0.4957188 0.53736866 -0.06426869 0.30001488
0000e0 0d d3 be bd fd 88 ec 3e 9c 72 8a bd bd 73 d3 3d
       -0.093175985 0.46198264 -0.06760141 0.1032481
0000f0 a1 8b 9e 3e eb 05 06 be 65 ad 9e 3e de 6f 06 3f
       0.30965903 -0.13088195 0.30991665 0.52514446
000100 12 98 bb be 2e 74 8b bc 3f e5 61 3e d0 da 07 3f
       -0.36639458 -0.017023172 0.22060107 0.53068256
000110 cf 00 48 3f 78 1e 1a 3e 02 25 0e 3e 94 eb 11 bf
       0.78126234 0.15050685 0.13881305 -0.5700009
000120 3d d6 72 be f6 f4 d4 be d5 64 63 3e d5 90 df be
       -0.23714538 -0.4159314 0.22206433 -0.43665186
000130 f0 fe b4 be 42 a2 8e 3d b6 46 87 3e f7 1e 23 3e
       -0.35350752 0.06964542 0.26421136 0.15929781
000140 17 58 24 bf 8a 79 04 3f a0 17 8f bd b8 34 18 be
       -0.64196914 0.51747954 -0.06986928 -0.1486386
000150 cb 3b 93 be 2b 4a 26 bf 69 fe 1c bf 1f 30 af 3d
       -0.28756556 -0.6495692 -0.613257 0.085541
000160 b5 6a 4d bf 5d a1 99 bf 7c 55 17 bd 1b 3f a7 be
       -0.80240947 -1.2002369 -0.03694676 -0.32665333
000170 8f ff 87 3e e6 88 15 3e 53 23 20 3d 16 dd 8f be
       0.26562163 0.14603004 0.039096188 -0.28098363
000180 a5 d5 92 be c7 88 0f 3e c1 f1 a5 be b6 4d 22 bf
       -0.28678623 0.1401702 -0.32411006 -0.6339983
000190 5f d4 34 be 2b 6e 95 be 16 e5 05 be ca a7 0e bf
       -0.17659138 -0.29185614 -0.1307567 -0.55724776
0001a0 b9 0b cb 3c 41 f8 80 be 5e 28 d2 3e 36 5c 8e be
       0.024785863 -0.25189403 0.41046423 -0.27804726
0001b0 33 ac 51 be 50 c8 f8 be 91 cb 87 bf 83 64 89 3c
       -0.20475845 -0.48590326 -1.0608999 0.01677156
0001c0 c7 61 a6 3d db 3f 9d bf 7d 62 96 be c9 c6 26 bf
       0.08124118 -1.2285112 -0.29372016 -0.6514707
0001d0 10 f1 f5 be 9f bb 66 bd 35 26 f3 be 3d aa 65 bf
       -0.4803548 -0.056331273 -0.47490087 -0.8971289
0001e0 d9 bd 14 bf 69 ce 5a bf 7b a7 ba bd 65 6b a4 bf
       -0.58102185 -0.85471207 -0.091139756 -1.2845274
0001f0 b3 42 78 be 2a bd 22 bf 73 cb 2c 3e ed 53 7a bd
       -0.24244194 -0.6356989 0.16874485 -0.061115194
000200 2c c5 c6 bd bb 93 c7 be 7e f0 fa be ee 1b e0 be
       -0.09705576 -0.38979897 -0.49011606 -0.4377131
000210 8d ae 36 3f 95 81 88 bf 61 3b 0b 3f 60 b5 46 be
       0.71360093 -1.0664545 0.5438748 -0.19405127
000220 89 01 a3 bf d7 fa bc 3e 97 70 3a bf c1 e7 ad be
       -1.2734843 0.36910126 -0.7282805 -0.33965877
000230 a1 a4 44 3e 19 92 76 be 6f 17 57 3e 85 d5 2a 3e
       0.19203426 -0.2407917 0.21005033 0.16683014
000240 3d 99 96 3d 85 ec 59 be 82 9b fd 3e 48 b7 10 be
       0.07353447 -0.21281631 0.49532706 -0.14132416
000250 0a a8 9c 3e c9 f6 0e bf 85 c1 06 3d d8 ee 5d 3e
       0.30596954 -0.55845314 0.0328994 0.21673143
000260 16 99 c2 bc 85 e2 57 3d 62 f9 10 bf 10 c9 29 bf
       -0.023754638 0.05270626 -0.5663053 -0.6632242
000270 1b 78 1b be a0 45 31 be 60 6a 23 bf 33 83 a1 bf
       -0.15182535 -0.17311716 -0.6383419 -1.2618164
000280 6d 09 c8 3e 8c 69 28 3f 7e 1e ff bd 0f 5d 0a 3f
       0.3906969 0.6578605 -0.12456988 0.54048246
000290 3e f5 76 be 4c 1f de bd 21 bd d5 bd 3b 6f 07 be
       -0.2411699 -0.10845813 -0.10436464 -0.13226025
0002a0 9e 20 cb be e4 2c 0c be 78 a1 a8 3e 8a 99 82 3d
       -0.39673322 -0.13689 0.3293569 0.063769415
0002b0 b0 64 0f 3f 92 31 51 bf 08 de 40 bf 65 dc d2 be
       0.5601301 -0.81716263 -0.7533879 -0.41183773
0002c0 3e 96 12 bf 9a d9 ec be 19 dd ec be 89 50 2d bf
       -0.572605 -0.46259767 -0.46262434 -0.6770101
0002d0 0f 7d 4b be 6d b3 81 3e 07 28 0a bc 14 14 6d 3f
       -0.19871925 0.25332204 -0.008432395 0.9260876
0002e0 c0 b9 b6 bd 37 fd ae be 2d 39 e9 bc 0b 66 e2 3d
       -0.08922148 -0.34177563 -0.028469646 0.110546194
0002f0 40 23 81 be 98 80 07 bf 10 75 d5 be 09 76 b7 be
       -0.25222206 -0.52930593 -0.41690874 -0.3583224
000300 91 85 20 3e 93 ee 15 3f ae 69 31 3a 77 58 d6 bb
       0.15675952 0.5856716 0.00067677617 -0.0065413075
000310 97 bd 85 3e c7 5c 86 3f 05 bf a3 bd 6b 3d 30 bf
       0.26121208 1.0497063 -0.079954185 -0.68843716
000320 78 15 0e bf 68 78 07 3f ac 39 38 bf 81 d3 50 3f
       -0.5550151 0.529181 -0.71963 0.8157273
000330 5e d8 40 3f 01 b9 c0 be f8 e2 17 3e 9b 93 9e 3e
       0.7533015 -0.37641147 0.14832675 0.3097199
000340 6c bf af bd 81 1e 1e bf 13 ca b3 3e e1 ea 3f 3e
       -0.08581433 -0.61765295 0.35115108 0.18741943
000350 d0 6c 11 3e bf 3d 7e 3e 77 2f f9 3e e4 5d 28 3e
       0.14201665 0.24828242 0.48669025 0.16442066
000360 3e 29 50 3e 5d f3 47 3f 74 1e 97 be de a2 49 bd
       0.20328233 0.7810572 -0.2951542 -0.049227588
000370 87 7b a1 3e 04 00 3e 3f c7 39 26 bf fb 19 ba 3e
       0.31539556 0.74218774 -0.6493191 0.36347947
000380 a7 2d ff be 5a 3c 67 bf 8a 42 e4 3e aa 6c 36 3e
       -0.49839517 -0.90326464 0.44582015 0.1781489
000390 57 eb 70 be 52 9a 07 bf 29 f6 5c bc 0e d2 b1 be
       -0.23527275 -0.5296985 -0.0134864235 -0.34730572
0003a0 d6 6a 1b 3f 7e e0 8c 3e 3c 37 89 3e d5 56 33 3e
       0.60709894 0.27515024 0.26799953 0.17513593
0003b0 a5 5e 48 be 1b 53 d0 3e ad c8 46 bd 80 5d 9c 3e
       -0.19567354 0.40688404 -0.048531223 0.30540085
0003c0 8b b3 06 bf cc 1e e9 3e 48 c9 91 3c a2 ae 1e bf
       -0.5261771 0.4553131 0.017796174 -0.6198522
0003d0 5d 96 a7 3f b4 a9 42 3f ea 82 3f be ff 29 15 3f
       1.3092762 0.76040196 -0.18702284 0.58267206
0003e0 5d d8 46 bd b1 c3 7a 3f 90 1c 6e bd 7b fa 42 be
       -0.048546184 0.9795485 -0.058132708 -0.19040863
0003f0 b6 48 af be 2f bb 27 bf 64 25 03 bf 2d 12 95 3d
       -0.34235162 -0.65519994 -0.5122893 0.072788574

encoder.lstm.weight_hh_l0 f4 [256, 64]
000000 49 44 a9 bd 57 47 d4 bd 09 51 09 3f 2c 02 23 bf
       -0.082649775 -0.103651695 0.53639275 -0.6367519
000010 6d 3e 73 be 3b 2f 38 bd 7e 81 db be e6 00 0a bf
       -0.23754282 -0.044966917 -0.42872232 -0.5390762
000020 a4 15 30 3f a8 3b 0b 3f 40 6b d5 bd 4d a1 98 3e
       0.6878302 0.54387903 -0.10420847 0.29810563
000030 02 93 1f bf c6 95 75 be fd 2d 6c be 8b a7 9d 3e
       -0.6233369 -0.23982915 -0.23064418 0.30791888
000040 ce 7b 65 3f 0b 4a f0 bc be 09 02 be 56 9b 01 bd
       0.89642036 -0.029332181 -0.12699029 -0.03164228
000050 ec 8e 8a be 1b 2c 9a 3e 00 e9 b5 3d d0 d7 83 3e
       -0.27062166 0.30111775 0.08882332 0.2575059
000060 a5 99 83 3e 6d d2 9c be c7 88 36 bf c9 56 3d 3f
       0.2570316 -0.30629292 -0.71302456 0.7396055
000070 be e8 ef be ba 88 b4 3e 2c 18 8e be 5d 24 44 3e
       -0.46857256 0.35260564 -0.27752817 0.19154496
000080 41 ed 60 bc a2 b5 a6 3e a0 57 22 3e 85 b3 13 bd
       -0.013728441 0.3256045 0.15853739 -0.036059875
000090 04 ed 12 3c a0 91 55 3e 85 b4 bb be 20 5e 85 be
       0.008967642 0.20856333 -0.36661163 -0.26048374
0000a0 76 9d 69 be 28 7c d1 3d aa bb 69 bd 49 83 06 3e
       -0.22813973 0.10228759 -0.057063736 0.13136019
0000b0 70 c0 6b be 43 74 7f 3e 7a 4e 73 3e fb 10 22 be
       -0.23022628 0.24946694 0.23760405 -0.1582679
0000c0 82 9e d6 be d7 dc 77 bf d7 98 c7 3d 0b b8 94 3f
       -0.41917807 -0.9682135 0.09745949 1.1618665
0000d0 52 24 c9 3e 0a 5c 95 be a7 d1 be 3e 55 7e 1d be
       0.39285523 -0.29171783 0.37269327 -0.15380223
0000e0 15 89 f0 3e 63 5d cc 3e a9 78 23 3e 82 26 33 3e
       0.46979585 0.39914998 0.15963997 0.17495158
0000f0 b7 31 ea be 59 dd bf bd 0d f1 1f bf 1d 16 ec 3e
       -0.45741054 -0.093683906 -0.6247719 0.4611062
000100 41 7a 04 bf 6f 86 5b be 60 d8 bb 3e 57 c6 39 bf
       -0.51749045 -0.21438001 0.3668852 -0.7256827
000110 4b 8b 9c 3c 5f c6 29 3f 3f 05 e9 bc c1 a0 33 3f
       0.019109389 0.66318315 -0.028444884 0.70167166
000120 42 f4 25 3f 5f 6a a0 3e 9e e0 e5 be 5a 33 d3 ba
       0.6482583 0.31331155 -0.44897932 -0.0016113326
000130 92 00 f5 3e 49 04 c5 3e 2a 3f 96 3e 3f 6e 0c bf
       0.47851998 0.38479832 0.29345065 -0.5485572
000140 83 4e 82 3e 1b 27 d2 3e 4e 1f 71 bf cd 39 a8 be
       0.25450525 0.4104546 -0.9418839 -0.32856598
000150 d1 99 8d be fd 84 ee 3d 73 02 98 bd 7a 64 4d 3f
       -0.27656415 0.11646459 -0.07422342 0.8023144
000160 59 47 9f bd b4 ce c9 be 30 a8 e1 3d 10 4a d4 3d
       -0.0777728 -0.39415514 0.11018407 0.10365689
000170 d9 61 ec be 88 6b 9d bd 9d 5e 39 3e 80 5a e1 3e
       -0.46168402 -0.076865256 0.18102498 0.4401436
000180 0f 47 55 3e a2 ca 16 bf 52 2c f3 be 76 ab 5e be
       0.20827888 -0.58902943 -0.4749475 -0.21745095
000190 02 d8 66 3e 37 39 be bd e5 c8 4d bf ec 9d 88 be
       0.22543338 -0.092882566 -0.80384666 -0.26682985
0001a0 ff 68 55 be a3 45 88 be 80 df f1 be 70 9a 4b 3d
       -0.20840834 -0.2661563 -0.4724083 0.04970783
0001b0 0e a9 46 be 5d 4c a9 3e 33 87 12 3f 89 89 4e 3e
       -0.19400427 0.33066073 0.5723755 0.20169653
0001c0 6c 5f 09 3f f3 c9 32 bd 68 ba 82 bf f2 7a 11 3f
       0.5366123 -0.043649625 -1.0213137 0.56828225
0001d0 4f 8f c0 bc eb 58 18 3f 1e 40 49 3e fa 36 50 3f
       -0.023505835 0.5951068 0.19653365 0.8133389
0001e0 7c 18 03 bf 8f a6 4d bf 33 d9 89 3d f4 df 63 3f
       -0.51209235 -0.80332273 0.067308806 0.890136
0001f0 dc ef 6d bf c1 0e 76 be dd 0f 67 be 65 ee 8a 3f
       -0.9294412 -0.24029066 -0.22564645 1.0854002
000200 e4 46 00 be 29 47 27 3f 4d 5b 0f 3f 2f aa 5d 3e
       -0.12527043 0.65342957 0.5599869 0.21646951
000210 d3 d5 da be ee 5f d5 be 3e 28 32 3f 01 f7 76 be
       -0.4274126 -0.4167475 0.69592655 -0.24117662
000220 6d 79 97 3e a3 61 c5 3e f1 eb 50 bd 09 d7 f3 3b
       0.29584828 0.38551053 -0.05100626 0.0074414057
000230 fa 9b 2e 3e f4 be ed be 4a 6e 19 bf 96 9c b9 3d
       0.17051688 -0.46434748 -0.5993391 0.090630695
000240 f1 7c ae 3d 92 7d 0c 3d 3e 73 83 bf 72 7f 79 bf
       0.085199244 0.03429944 -1.0269544 -0.9746009
000250 b5 ad 3c 3f 3b 12 da be ce ce 55 bc 69 27 9d be
       0.73702556 -0.42592034 -0.013049794 -0.3069413
000260 c3 10 9f be 3a 0b bd be 34 20 56 3f af 26 ed bd
       -0.31067476 -0.36922628 0.8364289 -0.11579644
000270 e4 0f 0c 3e d0 6d 75 3e e9 f1 12 3e 30 9d 75 be
       0.13677937 0.23967671 0.14350094 -0.23985744
000280 70 cd f8 3a 40 ec 12 3f 3b b4 9f bd a7 0a 14 3c
       0.0018982124 0.5739174 -0.07798048 0.009035743
000290 a6 7f 1d 3e 31 5f 57 bf 12 9e ae 3d b1 06 42 3e
       0.15380725 -0.84129626 0.08526243 0.18947865
0002a0 c6 07 88 3e e2 2e ef bd c5 fb ff bc a3 40 82 be
       0.2656843 -0.11678864 -0.031247983 -0.2543994
0002b0 82 94 48 3e b3 cf 82 3f e7 6c 99 be 5a 60 28 3f
       0.19587901 1.0219635 -0.29965898 0.6577202
0002c0 59 50 b7 bd 01 6c a6 bc 0a b1 0b bf c0 bc b7 3e
       -0.08950872 -0.020315172 -0.54567015 0.35886192
0002d0 c3 a0 d1 bd c7 65 4d be 51 53 bc 3e b8 64 4c 3c
       -0.10235741 -0.20058356 0.36782315 0.012475185
0002e0 5e 54 12 3e e4 d2 26 3f f2 2f 79 3e 20 67 b1 3e
       0.14289996 0.65165544 0.24334696 0.3464899
0002f0 63 a5 1d be 4b de 79 3e 74 e3 02 3e 22 4b 50 b9
       -0.15395121 0.24401204 0.12782079 -0.00019864415
000300 75 23 9f 3c 59 ec fc 3e 3b 07 0b bf 69 f1 5f 3d
       0.019426087 0.4939907 -0.5430791 0.054673586
000310 ef 7c 01 bd 25 68 20 bf 9d 24 91 3c df d0 3d 3f
       -0.031613287 -0.6265891 0.017717654 0.74146837
000320 d5 ce 8f 3e 81 3d 40 3e e9 28 7f bc 96 54 08 3f
       0.28087488 0.18773462 -0.015573719 0.5325407
000330 2a 91 5a be 25 39 32 be 20 71 4f bd 84 87 8a 3d
       -0.21344438 -0.17404611 -0.050644994 0.06764129
000340 24 b6 5b be 5f 0b f4 bd 7f f9 86 3e 15 d5 94 be
       -0.214562 -0.11916231 0.26362225 -0.2906882
000350 47 ef 9d bd 16 90 25 bf d5 a1 85 3f dc 5b 42 3e
       -0.07711654 -0.6467298 1.0440012 0.18980354
000360 75 f0 c7 be 9d b3 85 3d ec 27 0e be 1a d0 4b be
       -0.39050642 0.06528399 -0.13882416 -0.19903603
000370 01 cc 86 3e 50 cb 56 3e 2b f0 df 3d 9c 13 7f 3f
       0.26327518 0.20975995 0.1093448 0.99639297
000380 67 d5 73 3f be c9 e5 bd 94 cf 3d 3c 2d 1a 20 3f
       0.952475 -0.1122012 0.011585135 0.6253994
000390 eb 13 3f 3f 12 eb e8 be 7b 8e a8 3e 14 ae 31 3f
       0.7463977 -0.45491844 0.32921204 0.6940625
0003a0 93 df 17 be e2 d8 27 3e 6e 2b ac 3e 49 72 a8 be
       -0.1483138 0.16391328 0.33626884 -0.32899693
0003b0 54 4b b6 bd 2c 6c 25 bd 9a 26 2f 3f 23 9e 0d 3f
       -0.089010864 -0.040386364 0.68418276 0.5531942
0003c0 9a 12 92 3e 6c c4 cd 3e 65 0e ec 3b fa 2e 01 bc
       0.28529817 0.4018892 0.0072038644 -0.007884735
0003d0 76 6a d0 be dd 74 3d 3f 8c 50 e1 be f1 94 26 3e
       -0.40706223 0.74006444 -0.44006765 0.16267754
0003e0 92 a7 5e 3d 5a 42 16 3f 9e ba 12 3e d2 88 e5 be
       0.054359026 0.58694994 0.14329001 -0.44830948
0003f0 28 fa 1a 3e c5 07 ee 3c 28 16 e7 3c bc c0 1c 3f
       0.1513449 0.02905644 0.028208807 0.6123159

encoder.lstm.bias_ih_l0 f4 [256]
000000 ee ba a7 be 84 47 62 3d 54 a3 db bd 69 88 7d bd
       -0.32759804 0.055243984 -0.10724512 -0.06189767
000010 b3 10 90 3e 18 b1 d9 bd 89 69 ac bd 20 2c 9b bc
       0.2813774 -0.10629481 -0.08418567 -0.018941939
000020 86 b7 94 be d4 80 03 3f 8d 12 cf be 57 fb 2c bf
       -0.29046267 0.5136845 -0.4044384 -0.67571014
000030 e2 08 84 be e3 c8 08 bf 59 fd 0c 3d 41 70 8c be
       -0.25788027 -0.5343153 0.0344213 -0.27429393
000040 14 90 44 3e 1f 9c 58 be b0 a5 a8 3e 73 59 17 be
       0.19195586 -0.21153305 0.3293891 -0.14780216
000050 c6 22 f5 3d 37 c5 f4 be 3b 40 56 3e e5 9e 05 be
       0.11969523 -0.47806713 0.2092294 -0.13048895
000060 ef cb 84 3f 0b 3d 53 3e 53 bf d7 bd 0e d8 e2 bd
       1.0374736 0.20628755 -0.10534539 -0.110763654
000070 62 cf 8d bc d0 4e 67 3d 34 ea c7 3c 3c a4 e1 3e
       -0.017310802 0.056471646 0.024403669 0.44070613
000080 d4 38 5f be ad 2e 11 be 10 34 85 be 32 1c 28 3f
       -0.21799022 -0.14177962 -0.26016283 0.6566802
000090 dd 03 10 be e6 a9 ec 3d 71 cc 80 3e 5b c6 e3 be
       -0.14063974 0.11555843 0.25155976 -0.4448727
0000a0 b6 00 01 bf 25 66 10 bd 62 e2 17 3e 4f 50 38 3f
       -0.5039171 -0.035253663 0.14832452 0.7199754
0000b0 f3 d7 d4 bc 69 eb 1d 3c f7 13 01 be ff 76 0c bf
       -0.025981879 0.009638646 -0.12605272 -0.54869074
0000c0 f6 fa 1c 3f 2d 99 11 be 38 9a 7d bd 7c da f9 be
       0.61320436 -0.14218588 -0.061914653 -0.48799503
0000d0 54 d4 bc bd 8b 5c bc 3e 09 b3 93 be 70 07 a6 be
       -0.09220186 0.36789355 -0.2884753 -0.3242755
0000e0 36 d2 95 be 57 99 06 3e f8 01 e9 3d 8f 26 8f bd
       -0.2926194 0.13144432 0.11377329 -0.06989776
0000f0 bd 2f 01 3f 1b 3e dc be 70 7b 2a bf f2 60 55 3e
       0.5046347 -0.43016133 -0.665946 0.20837763
000100 95 b3 85 3d 50 55 7c be e9 f4 3f 3f 8a 5f 33 be
       0.06528393 -0.24641919 0.7498308 -0.17516914
000110 f9 15 30 3d 47 44 7b bd 18 c2 90 3e 46 22 04 3e
       0.042989705 -0.06134441 0.28273082 0.129037
000120 ca 60 16 3f dc b5 38 3e 41 1d 49 3f c4 57 ee 3d
       0.5874144 0.18038124 0.7856026 0.11637834
000130 ed ad 47 3e 09 b2 85 3e ec 68 22 3c 36 8d 03 3f
       0.19499941 0.26112393 0.009912711 0.51387346
000140 57 e0 16 3f 73 90 37 3e ed 7c 81 3e 2a 72 a6 bd
       0.58936065 0.17926197 0.25290623 -0.08127244
000150 4a 3b ef 3d 3a d6 13 be 18 09 a7 be 4e 8e b7 3c
       0.1168123 -0.1443719 -0.32624125 0.022406723
000160 d6 d1 01 be 94 a1 d5 3e d1 70 81 3e f3 fc a0 3e
       -0.12677702 0.41724837 0.25281385 0.31442985
000170 b5 48 a6 3d 52 2d a3 3e 6c c2 7f 3e fb 09 a3 bd
       0.081193365 0.31870514 0.2497651 -0.07960888
000180 8b 3f ea 3d 2d ce 8d be d9 1c 9f 3e 51 e3 e2 3e
       0.11437901 -0.27696362 0.31076697 0.44314054
000190 e6 6a 55 3e 13 f4 f5 3e 82 0b bf bd d3 3e a8 3e
       0.2084156 0.48037776 -0.09328367 0.3286043
0001a0 9b 7b e2 3e de 1f d2 3e de 5e 81 3e 18 fe f1 3e
       0.44234928 0.41039938 0.2526769 0.4726417
0001b0 9e 88 70 be 18 3e 9b be 1c 7f eb bd 8f ed 38 3c
       -0.23489615 -0.3032081 -0.114988536 0.011287107
0001c0 eb c3 1d 3f c0 c5 7d 3f 5b 4b 72 3e 48 dc 42 ba
       0.6162707 0.9912987 0.23661558 -0.0007433337
0001d0 60 a1 ef 3c 3a 84 a4 3e 44 f4 cc 3e ff 56 c2 3e
       0.029251754 0.3213213 0.4003011 0.37956998
0001e0 a6 c5 dd 3e 10 3e 4e 3f 21 bc 06 3f 3e 28 a5 3e
       0.43314856 0.8056345 0.5263081 0.32257265
0001f0 d5 c2 d4 3e 62 f2 09 be 72 f1 7a be cf 18 86 3e
       0.41554895 -0.13471368 -0.24506167 0.26190802
000200 6b 46 8c bd a5 e2 c5 be 1a 86 4c 3e 20 58 58 3e
       -0.06849369 -0.3864948 0.1997303 0.21127367
000210 5b 99 09 3e f4 8d 8c bd 2d 28 ca 3d e5 a4 ca 3c
       0.13437407 -0.06863013 0.09870944 0.024736831
000220 af 99 89 bd 9e a1 48 3d eb ee ea 3d e3 1f e7 bd
       -0.06718766 0.048982255 0.11471351 -0.11285379
000230 66 4f e2 bd e4 7c 5d be 9a 86 ce bd c1 dc 81 bc
       -0.110503 -0.21629673 -0.10084267 -0.015852334
000240 7e 34 70 3c ab 58 d0 bd e9 6a cf bd 53 fc 18 bf
       0.014660953 -0.10173162 -0.10127813 -0.59760016
000250 4d b1 c2 bc be 55 c0 3d 2f 59 7a be e4 47 ce 3c
       -0.023766184 0.09391354 -0.24448083 0.025180764
000260 6c b4 b7 3d 4d b9 01 3e 53 cb 07 3b 04 60 45 be
       0.089699596 0.12668343 0.0020720556 -0.19274908
000270 08 c1 a2 be c4 a7 4b 3e c7 f9 7a 3d 35 c7 5e bd
       -0.31787896 0.19888216 0.061273362 -0.054389197
000280 91 35 20 3e 39 02 83 be e1 04 8a be 06 cb 7b be
       0.15645434 -0.25587633 -0.26956847 -0.24589166
000290 36 7b 8e 3e 58 ef ad 3b 43 42 0f 3e 22 fe 94 3d
       0.27828377 0.005308073 0.1399012 0.072750345
0002a0 7a 6b 58 3e 93 f7 85 3d eb 02 72 3e 49 bb 6f 3d
       0.21134749 0.06541362 0.23633926 0.05852822
0002b0 8c bc 45 be cd 41 9c 3e 12 23 eb 3c 47 cd f8 3e
       -0.19310206 0.30518952 0.028703246 0.48594114
0002c0 14 f2 14 bd bf f9 e1 3d 7e f5 dc 3d 23 04 f7 3d
       -0.036363676 0.110339634 0.107890114 0.12061336
0002d0 b3 fd d1 3e 3b 05 2c 3e 0c 04 81 be 71 d9 d3 3d
       0.4101387 0.1679887 -0.251984 0.10344208
0002e0 41 05 80 bd 5f 28 96 bd 2f c2 26 3d 6f 42 d7 3c
       -0.06251002 -0.07331919 0.04071253 0.026276795
0002f0 d4 c9 df be 39 0b 7c 3e 65 44 a0 be cc 35 85 3d
       -0.4370867 0.24613656 -0.3130218 0.065044016
000300 e3 74 c0 bd c8 57 53 bc 9e 95 86 bd e4 0a c2 3e
       -0.09397294 -0.012899347 -0.06571506 0.37898934
000310 83 c8 1c 3f 29 2f 28 be e2 8a 69 be 75 d5 ca 3d
       0.61243457 -0.1642424 -0.22806886 0.09903995
000320 85 f1 43 3e f7 2c fe 3d 48 fc a7 3d ad 15 cd bd
       0.19135101 0.1241092 0.08202416 -0.100139
000330 8d 14 8e bd e6 81 f7 3e 8a 13 02 3e ce 8e 9c 3e
       -0.069375135 0.48341292 0.12702766 0.305777
000340 24 97 ae be 62 7f 11 be eb c6 3f 3f fb a4 9b 3e
       -0.34099686 -0.14208749 0.749129 0.30399308
000350 59 9c 52 3e ce 36 cc be 31 c2 23 3f 12 46 b1 be
       0.20567454 -0.39885563 0.6396819 -0.34623772
000360 4e ec 57 3f 3f 1f 25 3e 87 a0 71 be f8 e6 85 be
       0.8434495 0.161252 -0.23596393 -0.26152778
000370 3d 08 78 be 91 81 00 be 18 9e 30 be f0 a5 ce 3d
       -0.24221893 -0.12549426 -0.17247808 0.10090244
000380 49 50 e4 3d 16 8c 60 3f e1 ac c0 3d cf 11 05 3f
       0.11148126 0.87713754 0.09407974 0.519803
000390 24 e2 99 be fe 2f 56 be da f1 36 bf 41 ce fe be
       -0.30055344 -0.20916745 -0.71462786 -0.49766734
0003a0 63 93 0d 3e ff bd ef ba 49 49 e1 bd 3c 80 e1 3e
       0.13825755 -0.0018290876 -0.11000306 0.44043148
0003b0 21 39 95 be 6c ba ee bd 17 1a 21 3c 08 bf b1 3d
       -0.29145148 -0.11656651 0.00983288 0.086790144
0003c0 d5 61 ed be 92 34 4d be e0 7b bf be b1 3b 1f bf
       -0.46363702 -0.20039585 -0.37399197 -0.62200457
0003d0 42 ba d4 bc 2a 3b a9 3e f5 a5 2f bd 3f 00 68 bd
       -0.02596772 0.3305295 -0.04288288 -0.05664086
0003e0 80 36 ca 3e 45 a5 9e bd 6e ba f2 3e 3e 0e a9 bc
       0.39494705 -0.077463664 0.4740786 -0.020636674
0003f0 76 93 40 be 13 4b d7 bd 76 35 7f be 95 cd a2 bd
       -0.18806252 -0.10512366 -0.24922737 -0.07949368

encoder.lstm.bias_hh_l0 f4 [256]
000000 e1 6e 67 be b8 6c 26 3e 9d c8 4b be e4 68 3e bd
       -0.2260089 0.1625241 -0.19900747 -0.04648675
000010 7c f7 67 3e 57 fb 38 be a8 61 39 bc fd 85 10 be
       0.22653002 -0.18064629 -0.011314787 -0.14113612
000020 6f d1 e1 be 3e c9 93 3e c1 26 09 bf 0e 81 15 bf
       -0.44105098 0.28864473 -0.5357476 -0.58400047
000030 53 17 f3 bd 02 51 1b bf dd d4 01 3d 6d 57 6f be
       -0.11869683 -0.60670483 0.031697143 -0.23373194
000040 26 a7 20 3d 80 14 d1 bd 28 74 ab 3e ac 3a 93 bc
       0.039221905 -0.10208988 0.33487058 -0.017972313
000050 22 de 94 3c 58 24 f5 be a4 4a 8e 3e 64 d2 64 be
       0.018172327 -0.4787929 0.2779132 -0.22345883
000060 54 df 89 3f b9 93 42 3e d7 54 d1 bc 79 4d 33 bd
       1.0771279 0.19001664 -0.02555315 -0.043775056
000070 1b fe 48 be ae 66 33 be 92 c6 36 3e 6f 16 85 3e
       -0.19628184 -0.17519638 0.17849186 0.25993678
000080 b5 e7 4f be 59 2a 1b be 37 6e 4b be fa 7b 1b 3f
       -0.20303233 -0.15152873 -0.19866262 0.6073605
000090 44 1f 18 be 2a cb 7f 3e b2 fc 30 3e e4 53 d4 be
       -0.14855677 0.24979845 0.17283896 -0.41470253
0000a0 4c 36 cb be dd 4f 51 bd 33 04 39 3e ef 7b 41 3f
       -0.39689863 -0.051101554 0.18068008 0.7557973
0000b0 d5 d4 4c bd de 26 14 ba 2e 13 a3 bd a1 bb 1a bf
       -0.05000766 -0.00056515436 -0.079626426 -0.6044255
0000c0 78 d1 19 3f 0d 44 3e be 6e e0 c8 bc d3 a1 c6 be
       0.6008525 -0.18580647 -0.024521079 -0.38795337
0000d0 df e6 be bd cf 82 98 3e d0 2b 82 be f6 02 e1 be
       -0.09321379 0.297873 -0.2542405 -0.43947572
0000e0 ed a8 b1 be 9e a6 ee bc f2 ff 2e 3e a8 e2 8e be
       -0.34699193 -0.029132184 0.17089823 -0.279073
0000f0 d6 a3 34 3f 43 46 bb be c1 b6 1b bf a8 43 c0 3e
       0.70562494 -0.36577043 -0.60825735 0.37551618
000100 14 5e 13 3d ed 14 74 be ce 82 5d 3f 37 88 12 3d
       0.03597839 -0.23836108 0.8652772 0.035774436
000110 dd bd 23 3e 76 cb ae bd 8a 36 94 3e 1d bc aa 3d
       0.15990396 -0.08534901 0.2894786 0.08336661
000120 bd 90 e7 3e b3 64 4c 3e 36 85 54 3f 6c d3 18 3e
       0.45227614 0.19960289 0.83015764 0.14924401
000130 d2 5e 82 3e 9a e9 6c 3e 03 41 e2 bd 8a f6 15 3f
       0.25462967 0.23135987 -0.11047556 0.58579314
000140 82 37 1e 3f d2 16 8f 3e 1b df a5 3e 06 0f bb 3d
       0.6180345 0.27947098 0.32396778 0.09133725
000150 ea f0 9c 3c 28 f6 78 bd 5e 41 9a be f4 d3 7e ba
       0.019157846 -0.060781628 -0.30127996 -0.00097209145
000160 e1 9c 62 be 08 f9 62 3e 15 22 96 3e e4 2b ea 3e
       -0.22130157 0.2216531 0.29322878 0.4573661
000170 17 c0 8c 3d c0 29 8c 3e b4 29 8b 3e 74 de ba bd
       0.06872576 0.27375603 0.27180254 -0.09124461
000180 02 6b dc 3c 33 9c 03 bf aa a1 bd 3d 59 25 db 3e
       0.026906494 -0.51410216 0.092593506 0.42801932
000190 34 cf ad 3e 58 cc 98 3e 2f 9b 90 bc 0d 1f b1 3e
       0.33947146 0.29843402 -0.017652122 0.34594002
0001a0 64 06 ca 3e f3 01 a3 3e ec 66 ba 3e 3b 72 99 3e
       0.39458 0.31837425 0.36406648 0.29969963
0001b0 1c d4 fd bd 24 1b 11 be e1 26 a5 3d 91 11 11 bc
       -0.12393972 -0.1417051 0.08064056 -0.008854286
0001c0 20 dc 37 3f 44 62 71 3f f5 dc 4c 3e 53 a1 ca bd
       0.7182026 0.94290566 0.20006163 -0.098940514
0001d0 f7 d9 81 3d ef 27 6b 3e a7 d5 a6 3e 6c 65 d1 3e
       0.063404016 0.22964452 0.3258488 0.4089769
0001e0 47 6d a2 3e e1 66 5c 3f 0a 45 16 3f 3a 13 ab 3e
       0.31723997 0.8609448 0.58699095 0.33413106
0001f0 6a 56 ce 3e 6c 7a 2f be 9a 54 62 be 5b 0a ca 3e
       0.40300304 -0.17136544 -0.22102585 0.39461026
000200 16 51 60 3d c7 6d e2 be ac 9d dc 3d 33 0e 87 3e
       0.05476483 -0.44224378 0.10772261 0.2637802
000210 31 06 39 3d 11 d3 8b bd 82 ce 28 bd 3c 97 0c 3e
       0.04517192 -0.06827367 -0.041212566 0.13729566
000220 d2 10 6b bb 67 14 fd 3d ba 74 e5 3d 80 df b0 bd
       -0.003586818 0.12357407 0.112039044 -0.08636379
000230 31 8a 43 3d 36 94 4c be e4 a1 37 bd c2 d9 b4 3d
       0.04773921 -0.19978413 -0.044832125 0.088305965
000240 eb a8 20 3e c8 0e f0 bd 2a ab 6b 3d 32 2e 07 bf
       0.15689437 -0.11721569 0.05753628 -0.52804863
000250 d3 a2 08 be 39 b8 9c bd 32 b7 32 be 35 a9 51 3e
       -0.13343363 -0.07652325 -0.17452696 0.20474704
000260 fa b2 56 bd 28 31 81 3c eb b2 1f bb 5a f8 bc be
       -0.05241678 0.01577051 -0.0024368118 -0.36908227
000270 7b 85 85 be b2 1d d6 3e 2c 8a 2b 3e e3 ed 95 bd
       -0.260784 0.4181953 0.16751927 -0.07320764
000280 04 c9 28 3e f7 60 2d be 9b a1 bd be 3d 38 0e be
       0.16482931 -0.1693152 -0.37037358 -0.1388864
000290 83 c9 82 3e fb 28 5e 3e dd 17 05 3e 59 de 9b 3d
       0.25544366 0.2169532 0.12997384 0.07610769
0002a0 fa 7f 3e 3e 50 f7 3b 3e 03 af 0b 3e e0 4f a1 3c
       0.18603507 0.18356061 0.1364098 0.019691408
0002b0 b7 48 df bd 8f 27 cb 3e e8 ee 88 3d 6d f6 e5 3e
       -0.10902541 0.39678618 0.06686193 0.4491457
0002c0 04 df dc bd 8d d2 02 3e fb 5e a6 3b bf c7 e7 bd
       -0.10784724 0.12775631 0.0050772405 -0.113173954
0002d0 f6 3a ac 3e 8c 0f 68 3e 19 d2 86 be d2 8d e6 3c
       0.33638734 0.2266218 -0.26332167 0.028143797
0002e0 da c6 c7 bd c5 f4 07 be 13 1e d0 3d 9e e0 87 3d
       -0.09754725 -0.13276966 0.10161986 0.06634639
0002f0 fb 6c fb be 84 34 78 3e 43 55 88 be 80 88 69 3e
       -0.49106583 0.24238783 -0.2662755 0.22805977
000300 1e aa 4f be fe b7 07 3d 3c 43 89 3d a7 16 d0 3e
       -0.20279738 0.033134453 0.06702277 0.40642282
000310 a4 27 1e 3f f1 fe 57 be a1 9a c2 bd 84 3a 36 3e
       0.61779237 -0.21093346 -0.095021494 0.1779576
000320 cd 1b 04 3e cd 7c 06 3e fa 05 85 3b 48 67 4a be
       0.1290123 0.13133545 0.0040595504 -0.19765961
000330 b3 b3 bb 3d f6 26 d2 3e 9f b8 aa 3e 82 c3 be 3e
       0.09165134 0.4104535 0.3334398 0.37258536
000340 59 38 7f be a8 58 75 bc 2c 0b 37 3f e7 fb 3f 3e
       -0.24923839 -0.014974751 0.7150142 0.18748437
000350 32 31 48 3e fb e1 cf be 42 01 16 3f 98 f8 86 be
       0.19550017 -0.40602097 0.5859567 -0.26361537
000360 5b 73 67 3f f0 23 28 3e b9 0a 18 bc 48 86 bc be
       0.90410393 0.16419959 -0.0092799 -0.36821198
000370 da 0a b8 be 8e 5f 1e be 99 3c ae bd 85 2c 6b 3e
       -0.3594578 -0.15466139 -0.08507652 0.22966202
000380 06 4b 28 3e c6 93 3c 3f 04 a6 6a 3d 3b 6e 19 3f
       0.16434869 0.73662984 0.05728723 0.59933823
000390 42 bf 9d be e3 5b fe bd 1e e1 29 bf c3 0d f9 be
       -0.3080998 -0.1241987 -0.66359127 -0.48643312
0003a0 b3 13 49 3e c9 b7 19 3d 70 d5 87 be 2d d5 01 3f
       0.19636421 0.037528787 -0.26530027 0.50715905
0003b0 d6 42 c1 be b1 cf 1d be 22 30 74 bb 03 53 01 3e
       -0.37746304 -0.15411259 -0.0037260135 0.12629323
0003c0 05 8f 90 be dc 09 04 bd ed 70 c1 be b3 e0 e6 be
       -0.28234115 -0.032235965 -0.37781468 -0.45093307
0003d0 ef d9 a4 bd b6 1b 02 3f 84 84 19 bd 7f f8 3b be
       -0.0804938 0.50823534 -0.037479892 -0.18356512
0003e0 7e 5e ce 3e f8 af 8b bd 7a 7d b9 3e 0c 14 61 3d
       0.40306467 -0.06820673 0.36228544 0.05495076
0003f0 21 df 07 be 1c 3b c6 bb c2 32 93 be 61 a4 80 be
       -0.1326871 -0.006049527 -0.28749663 -0.2512541

encoder.lstm.weight_ih_l1 f4 [256, 64]
000000 22 57 0e 3f 6e ee 3f 3f f2 a6 4d be ef ef b2 3e
       0.55601704 0.7497319 -0.20083216 0.3494868
000010 96 c7 c8 bc e0 09 15 bf ad db 15 bf f8 a6 b0 3e
       -0.024509232 -0.58218193 -0.58538324 0.34502387
000020 c0 ad 53 3d 8a 90 5c 3e fe 65 86 bd 19 06 88 be
       0.051679373 0.21539512 -0.06562422 -0.26567152
000030 9b 07 36 3f 1a 79 56 3e 77 8d fd bd 64 74 50 3e
       0.71105355 0.20944634 -0.12380498 0.203569
000040 9e d6 d8 bd 82 c1 d8 3b 4a 3b 87 3f 19 42 83 3e
       -0.1058781 0.006614865 1.0564969 0.25636366
000050 69 f0 35 be 86 ce e6 3e e3 84 f8 bd 4f b3 1a 3f
       -0.1776749 0.4507944 -0.12134721 0.60429853
000060 e0 6c dc be 9c 5f 35 3e 9c 24 e1 3e 74 d6 80 3f
       -0.43051815 0.17712253 0.43973243 1.0065446
000070 ea aa f3 bc a8 23 ec be 54 a6 b3 be 2b 58 b8 be
       -0.029744584 -0.46120954 -0.35087836 -0.36004767
000080 70 be f0 3e 28 55 13 3f b1 a6 48 3f f0 69 22 be
       0.47020292 0.57551813 0.7837935 -0.15860724
000090 c2 0c df 3e e5 90 05 bf 24 de a8 3d 41 01 2d bf
       0.4356442 -0.52174217 0.08245495 -0.6758004
0000a0 73 07 90 bd 12 91 70 be 61 e9 0c 3f 08 62 a7 bd
       -0.07032671 -0.2349284 0.5504361 -0.08172995
0000b0 2f 11 65 bf ed 3b 36 be 90 1d 83 be 8b 4a c2 be
       -0.89479345 -0.17796297 -0.25608492 -0.37947497
0000c0 fb 74 ac bd 51 02 4f 3e 71 de 89 be 7b cf 7c bd
       -0.0842075 0.20215727 -0.26927522 -0.061721306
0000d0 fc 99 e5 3d 8f df b8 be d3 8f 14 3d b3 2f 31 3e
       0.11211011 -0.36108062 0.036269974 0.17303352
0000e0 91 e7 6b 3e d3 2a 02 3e 0d 6c 3c 3d 03 79 9a bc
       0.23037554 0.12711649 0.046001483 -0.018856531
0000f0 14 05 83 ba d9 00 44 bd 7e 25 0d bf d5 14 40 3f
       -0.000999602 -0.04785237 -0.55135334 0.7503179
000100 48 0a b6 3e 04 56 1f 3f 12 44 3e 3e e8 1b 2d 3e
       0.3555472 0.62240624 0.18580654 0.16905177
000110 4c f6 fc ba 4a c0 6f bd 94 2e 11 bf 33 0b 8d 3d
       -0.0019299476 -0.05853299 -0.567117 0.06886902
000120 f3 67 0b 3f 37 1c c8 be 70 20 85 3f 63 79 c6 be
       0.5445549 -0.39084026 1.0400524 -0.38764486
000130 a7 3a 3b bd 6b 7b 39 be a1 5c 69 be 2b 3a 30 3f
       -0.045710232 -0.18113486 -0.22789241 0.6883876
000140 68 23 39 be 03 d9 06 3e 7d 91 1e 3e d5 97 24 3e
       -0.18079913 0.13168721 0.15485187 0.16073544
000150 45 d1 b6 3a b8 d9 91 be 8f 1d b8 3d 86 33 04 bf
       0.0013947865 -0.2848642 0.08990013 -0.5164112
000160 1a 1d 1a bf 63 02 09 3f b7 e1 47 3f 46 1e 1a be
       -0.60200655 0.53519267 0.7807879 -0.15050611
000170 97 60 07 3e cf 3d cf 3d a8 57 f8 3e f8 35 6c 3d
       0.1322044 0.10119211 0.48504376 0.057668656
000180 a4 c4 aa be dc 2d 0e 3f 38 73 f7 3e 9d 7e 78 3d
       -0.3335315 0.55538726 0.48330092 0.060667623
000190 9a 27 bc 3e 02 f0 f9 bd 3f 4a a6 3e 81 ed d1 3d
       0.36748964 -0.12203981 0.3247852 0.102503784
0001a0 16 e9 19 bf 6f d7 a4 3e d2 a3 92 3d 96 b0 6d 3e
       -0.60121286 0.32195613 0.071601525 0.23211893
0001b0 3d f9 f1 be de fc 1f bf 7a b3 17 3e 50 6e 35 bf
       -0.47260466 -0.6249522 0.14814559 -0.7087145
0001c0 0b 68 6a 3d 57 87 02 3f 3b be 4f 3e 35 f5 e5 3c
       0.05722813 0.5098776 0.20287411 0.028071025
0001d0 09 fb b5 3c 0b aa 1c bf 45 6e 8d bd a0 a9 72 bd
       0.02221443 -0.61196965 -0.06905798 -0.0592438
0001e0 ab a5 75 3f fb 2c 95 be 5f 38 81 be 58 ab 96 be
       0.95955914 -0.2913588 -0.2523832 -0.294276
0001f0 1b 29 16 bd 8c 11 9c 3e 75 7b e3 3d 98 99 dd bd
       -0.036660295 0.30482137 0.11107532 -0.10820311
000200 fa 52 01 3f 15 b0 fe 3c 36 d8 df be e2 0d d8 bd
       0.5051724 0.031089822 -0.43719643 -0.10549523
000210 c4 93 d7 be 32 a1 27 be 9e e5 bb 3e 13 86 ea 3c
       -0.42104924 -0.16370085 0.36698622 0.028628385
000220 7a 8b 57 ba 99 b0 26 be 15 0e 0c bd 60 7c 0c 3d
       -0.0008222383 -0.16278304 -0.034193117 0.0342983
000230 c5 2e ce bd b7 f1 3c 3f fc 8f ea bd f0 96 9a bf
       -0.10067514 0.7380633 -0.11453244 -1.2077312
000240 54 60 45 be 7c 48 fa 3d 3c 86 76 bf d4 14 87 3e
       -0.19275028 0.122208565 -0.96298575 0.26383078
000250 e1 da 8c 3e 96 20 f4 bb 44 eb 02 be aa 53 b1 be
       0.2751074 -0.0074501736 -0.12785059 -0.34634143
000260 b3 58 7e 3e 62 23 5b 3e db 5b ac 3e c3 b4 38 be
       0.24838524 0.21400216 0.3366383 -0.18037705
000270 11 6e 10 3f 6a 05 74 3e 7a 1c 46 3d b9 ae f8 3d
       0.5641795 0.2383019 0.048367 0.12142701
000280 a1 45 7e 3d d8 10 65 be 46 79 56 3e fc ae cc be
       0.062078122 -0.22369707 0.209447 -0.39977252
000290 db c6 df 3d c2 c0 e5 3d d1 89 91 bd 50 fd c7 3d
       0.109266005 0.11218406 -0.071063645 0.097651124
0002a0 13 0d 32 3e 6d bd 95 be df 65 b6 3e 7c 85 c0 3d
       0.173878 -0.29246083 0.35624596 0.0940046
0002b0 b4 40 9e be f5 e2 ec 3e b1 5e 18 bc 14 82 1a 3e
       -0.3090874 0.46266904 -0.00929992 0.15088683
0002c0 e8 c5 bb 3e 75 e4 1a bf f5 07 23 be ba df fd be
       0.36674428 -0.6050485 -0.15921004 -0.49584752
0002d0 8d 62 e9 be ac 3d 8c 3f 75 c7 04 bd 82 28 21 3f
       -0.45583 1.0956321 -0.03241678 0.62952435
0002e0 30 b7 de 3e 90 57 99 be 04 ff cd 3e 89 b6 59 bd
       0.43499136 -0.29949617 0.40233624 -0.053152595
0002f0 c2 23 73 bd f6 e2 72 3e 59 eb c6 bd 87 59 dc 3d
       -0.059360273 0.23719391 -0.09712858 0.107592635
000300 d5 0f 80 3d 92 42 c2 3e af f2 f2 be 7a 25 cf be
       0.0625302 0.37941414 -0.47450778 -0.4045828
000310 5e 0f d5 3d e6 f0 8e 3e bf 09 88 3f 0b c6 e6 3c
       0.10403322 0.27918166 1.0627974 0.028170606
000320 8d cb 1e be cc 72 1b 3d 59 2f 2a be ad 58 0f bf
       -0.15507336 0.037951276 -0.16619624 -0.55994684
000330 7d 36 a1 be 35 ea fb 3d 60 a0 6a be aa ea c4 be
       -0.31486884 0.12300531 -0.2291274 -0.38460284
000340 f3 e0 70 3e 2a f1 cb 3e 14 6d 27 3f e4 7d 17 3e
       0.23523311 0.3983243 0.65400815 0.14794117
000350 0c da 3d 3e c8 4f ce 3d 7c c6 0d 3f 0d 8a 9e bd
       0.1854021 0.10073811 0.5538099 -0.07741175
000360 62 46 58 3f a1 ec 9a 3b 09 14 ff 3d c6 b4 0a 3f
       0.84482396 0.0047279154 0.12454993 0.5418209
000370 5e 4f d5 3d c4 a5 17 bf 7a 1b a7 3e 6e 19 25 be
       0.10415529 -0.59237313 0.3263815 -0.16122982
000380 0f 9a 8f 3d 2a 9a 3d 3f 9b 83 c8 3e 8f f0 38 3e
       0.07011806 0.7406336 0.39162907 0.18060516
000390 47 96 fa be cc 16 37 bf ca 07 22 3f c9 73 26 bc
       -0.48942778 -0.7151916 0.63293135 -0.010159441
0003a0 6f 3a 89 be 2a c1 44 3f 34 b9 f0 3a 93 66 e8 3c
       -0.26802394 0.76857245 0.0018365742 0.028369224
0003b0 dc 21 d8 bb 02 65 fa bd 1a 7a fe be 18 09 f9 3d
       -0.006595833 -0.12226297 -0.4970253 0.121599376
0003c0 af 37 3a be e9 81 f9 be 87 83 e1 3e ce 8d 55 bd
       -0.18185304 -0.48731926 0.4404566 -0.05213719
0003d0 4e 37 4b 3d 94 d1 e9 3e 9e 1f 77 bd b5 6d 1d 3f
       0.04961329 0.45667708 -0.060332887 0.61495525
0003e0 2f 43 7c 3d 5c 9e b7 bd 34 65 de bb 44 f1 42 3e
       0.06158751 -0.089657515 -0.0067869667 0.19037348
0003f0 99 9e e5 3d 7a 07 38 be ec 99 a4 be d6 93 55 3e
       0.11211891 -0.17971602 -0.32148683 0.20857176

encoder.lstm.weight_hh_l1 f4 [256, 64]
000000 04 b4 a4 3e 86 32 cf 3e 24 80 86 3e dc 99 c1 3e
       0.3216859 0.40468234 0.2626964 0.37812698
000010 ed af 17 bd 06 53 3c 3f d8 b6 0b 3e 75 1c 9e bb
       -0.03703301 0.73564184 0.13643968 -0.0048251697
000020 f2 0e 23 3f 90 e4 05 3f 88 24 6a bf 16 d7 2e bd
       0.6369468 0.52301884 -0.9146199 -0.04268559
000030 65 c5 fb be c4 2d 30 be 68 34 9b bd 0a e3 8e be
       -0.49174038 -0.17204958 -0.07578355 -0.27907592
000040 c6 23 43 be e3 53 4c bc f6 1c ad 3c 67 e0 3d 3f
       -0.19056615 -0.012471172 0.021131974 0.74170536
000050 9f c9 49 3e 49 e2 5f bf a5 d7 70 3e 8a a9 65 3e
       0.19705819 -0.8745466 0.23519762 0.22427955
000060 b6 47 02 be e4 41 11 3f b7 94 78 bd 2a 30 08 be
       -0.12722668 0.56741166 -0.0606887 -0.13299623
000070 d2 54 1f be 01 b9 97 3f cf 16 47 3d 3f 93 c2 be
       -0.155597 1.1853334 0.048605736 -0.38002965
000080 43 46 ed be d5 e2 3d 3e af c5 b8 bd bf 2e 8d 3e
       -0.46342668 0.18543561 -0.0902208 0.27574727
000090 8b 06 be 3e 10 9d c4 3e c3 70 c5 bb f6 4a 9d 3e
       0.37114367 0.3840108 -0.006025405 0.30721253
0000a0 53 34 ab 3d d2 68 76 3e 0d 78 29 3d 18 5c 9f be
       0.083595894 0.24063423 0.041374255 -0.3112495
0000b0 09 a7 bc bd d8 e6 f6 3d 07 12 f8 3e e8 a3 9a 3e
       -0.09211547 0.12055749 0.48451254 0.30203176
0000c0 4c 80 bb be 12 ac f1 bd 23 70 1c 3e 00 d8 72 3e
       -0.3662132 -0.11800398 0.15277152 0.2371521
0000d0 f7 14 0a bf 4c 44 17 bf 49 fd 27 3e 4a e5 05 bf
       -0.5393824 -0.5908859 0.16405214 -0.5230299
0000e0 28 03 d3 be 71 b9 85 3e bc 6c b8 3d d7 9c 90 3e
       -0.41213346 0.26118043 0.090051144 0.2824466
0000f0 fb 95 ff 3e c6 a5 f1 3e 89 2a 92 3f f2 4c 68 3e
       0.49919114 0.47196788 1.1419231 0.22685602
000100 a3 2e a2 3e 3a f0 15 3f f9 31 29 be 56 3e 32 be
       0.31676206 0.5856968 -0.1652297 -0.17406592
000110 00 5c 97 3c 11 f6 ff be 7e 61 9f be c9 d1 aa 3e
       0.018476486 -0.4999242 -0.31129068 0.33363178
000120 f9 fb 99 3f f6 17 ed 3d dc 75 bc bf 35 09 b6 3e
       1.2030021 0.11576836 -1.4723468 0.355539
000130 ef 5a 86 bd ee 39 ff 3e 90 2a 16 3e 2a 02 ad 3e
       -0.06560313 0.49848884 0.14664674 0.33790714
000140 d6 83 13 bf 39 55 30 bf dc c2 c2 3e 26 38 6c 3d
       -0.5762304 -0.6888004 0.3803929 0.057670735
000150 9d 89 89 bd 97 d9 f7 be 68 5f f6 be 20 b5 6a be
       -0.06715701 -0.48408195 -0.48119664 -0.22920656
000160 8a d5 e9 3e 60 ee c4 3e fa 50 26 3f bc 46 00 bf
       0.4567073 0.38463116 0.6496731 -0.5010793
000170 99 13 f5 3d 96 51 5c be ac 8c 96 3e d7 d4 11 bf
       0.119666286 -0.21515498 0.294042 -0.5696539
000180 08 e2 f2 be df f4 6f be 91 8f 8b be e3 7f f2 ba
       -0.47438073 -0.23433255 -0.2725797 -0.0018501248
000190 a4 d4 dd be 6d 69 7e 3f a2 b9 34 bf 1f 37 b3 ba
       -0.43326294 0.99379617 -0.70595753 -0.0013673044
0001a0 eb cf 0d be b5 72 09 3f a5 72 25 3f 2b 9a 35 3f
       -0.13848846 0.53690654 0.6462806 0.70938367
0001b0 9b 83 95 bd 26 34 f5 3e 3b 08 25 be 0e 1b 77 be
       -0.073004924 0.4789135 -0.16116421 -0.24131414
0001c0 c0 40 a9 be 23 b2 80 3d aa f9 b4 be 7f 56 5f 3d
       -0.33057213 0.06283977 -0.3534673 0.05452585
0001d0 9a bc c8 3d 75 c5 72 bc 66 e5 05 3e b7 23 09 bc
       0.09801598 -0.014817585 0.1307579 -0.0083703315
0001e0 ae 3b ab be 71 ff 7b be bc 5b 8f 3d a4 4e b7 3e
       -0.3344397 -0.24609162 0.06999919 0.35802186
0001f0 62 3f d4 be fe 8f ea 3e 98 26 04 bf f8 d2 77 3d
       -0.41454607 0.45812982 -0.5162139 0.06050393
000200 cf 9b 97 be 35 7d 09 bf f7 12 4a 3f 8b 3c 48 3f
       -0.2961106 -0.53706676 0.7893519 0.7821738
000210 46 62 8c 3e 21 fa 81 3e 5f cd a8 bd 06 ff 12 bf
       0.27418727 0.25386146 -0.082422964 -0.57420385
000220 1e 85 a1 bf c7 36 67 3e 1b 13 44 3f 75 4c c9 3d
       -1.2618749 0.2257949 0.7659165 0.09829036
000230 89 1c a2 3e 30 97 86 3e 82 83 bf bd 2f 80 a5 3c
       0.31662396 0.26287222 -0.09351255 0.020202724
000240 c0 65 0a 3e 96 04 64 bd 94 55 98 3e fd ec 89 3d
       0.13515377 -0.055668436 0.2975279 0.06734655
000250 38 ee 38 3e 07 58 53 3e ca 57 0a 3e 26 44 be be
       0.18059623 0.20639049 0.13510051 -0.37161368
000260 f9 f6 29 3e fa 14 b4 be 0f 6f f3 3a 7f 1e fb 3e
       0.16598119 -0.35172254 0.0018572527 0.49046704
000270 58 bf 21 bf f7 1e 2a bf be 5b 86 3e 89 dc cc 3e
       -0.6318259 -0.664535 0.2624187 0.40012005
000280 e4 41 c2 be 57 5c 99 be c1 54 96 3d b7 4b 1e 3f
       -0.37940896 -0.29953262 0.07340384 0.6183428
000290 05 0e ab be 8e 22 97 bd 48 c0 31 3e 5a 96 b2 3e
       -0.33409134 -0.07379638 0.17358506 0.34880334
0002a0 8b 61 22 be 07 30 8d be 39 de 07 bf a3 2c d9 3e
       -0.15857522 -0.27575704 -0.5307346 0.42416868
0002b0 45 f4 66 3f 8a 3e 0a bf e8 28 96 3f 38 8d ed bd
       0.90216476 -0.5400168 1.1731234 -0.11599201
0002c0 59 2b 18 3f e0 17 46 bf 24 78 2a 3f 4f 74 83 be
       0.59441143 -0.7738018 0.6658957 -0.25674674
0002d0 6a 63 87 bc 34 e2 42 3f da d0 dd 3e 9f bb 91 3e
       -0.016526897 0.7612641 0.43323404 0.28463456
0002e0 0f 6b 8f 3d 38 fe 50 3e 6f 71 d3 be 33 01 55 3e
       0.07002842 0.20409477 -0.4129748 0.20801239
0002f0 40 73 55 3e 55 6d 0f bf 4a fa 6a be 97 0e de be
       0.20844746 -0.560262 -0.2294704 -0.43370506
000300 0c fb 5f bd a0 f3 ce 3e 9e 1d 5f 3d 0e f2 b5 3e
       -0.054682776 0.40420246 0.054471605 0.35536236
000310 63 68 19 bc fc e9 2d 3f 5f b6 b0 3c e4 d3 0f bf
       -0.009363267 0.67935157 0.021571336 -0.56182694
000320 2e b8 64 be 7e 40 c2 be 70 c2 08 bf b7 64 3e 3d
       -0.22335884 -0.3793983 -0.5342169 0.046482768
000330 ed 24 80 bd c2 43 86 bf a7 ee 8a 3c d2 dd c2 bd
       -0.06257043 -1.0489428 0.016959501 -0.09514965
000340 0a 8c 05 3f f1 9c 03 be 33 f0 b9 3e e0 b5 cd 3e
       0.5216681 -0.12852837 0.3631607 0.40177822
000350 bf f6 ff 3d 5d df cc bd c4 1e 1e 3f c3 63 8b 3d
       0.12498235 -0.10003541 0.61765695 0.068061374
000360 fc e6 99 3e c7 c4 c8 3e a4 08 05 be 5f 72 1a 3f
       0.3005904 0.3921263 -0.12991577 0.60330766
000370 72 a0 92 bf c4 8c ce 3e d7 1f 87 3e 5b 9d e3 3d
       -1.1455214 0.4034177 0.2639148 0.111139975
000380 48 65 d5 3e fc e7 04 bf b9 8e eb 3e 4c 72 b2 bd
       0.41678834 -0.5191648 0.46007326 -0.08713207
000390 b1 77 29 3f b0 df ea be 8f c9 9a 3e db 8a f2 be
       0.6619826 -0.45873785 0.30231902 -0.47371563
0003a0 32 3f 7a 3d bf 58 e2 be 52 d6 0b bf d1 2c bb be
       0.061095424 -0.44208333 -0.546239 -0.3655763
0003b0 1e 77 0a 3e 95 e7 d2 3e 67 67 ad 3e a5 f6 a3 bc
       0.13522002 0.41192308 0.33867952 -0.02001507
0003c0 76 2e c4 be f7 74 28 3c ce 4f 9b bc ae 10 e3 bd
       -0.38316697 0.010281793 -0.018958952 -0.11087166
0003d0 0e 91 bc be c5 97 4f bf 4f 2a 3a bb aa 89 76 3e
       -0.36829418 -0.81090957 -0.0028406566 0.24075952
0003e0 9a 93 29 3e 07 9f 35 be b8 f3 34 bf 36 23 93 3d
       0.16560212 -0.17736445 -0.70684385 0.0718445
0003f0 1b 04 6b be 3b f3 48 be 63 ad a4 3e ec 4c 93 be
       -0.22950785 -0.19624035 0.32163534 -0.28769624
